checkpoints/cnn_only_seed42_20251128_121337.pt (torch, 188096 bytes, 22 tensors)

features.0.weight f4 [32, 1, 7]
00000000: 31d4 6e3e abd8 2d3e 7a96 febd 8922 8b3e
00000010: 4f38 acbd 08a1 793d 5106 45be 3bc6 713e
00000020: 8ca8 543e 8ad7 74be dbbc 0c3e 6001 5fbc
00000030: 20f6 393e cbf9 9fba 606c 2a3e ce3a afbd
00000040: 83d7 7e3e 942a c13c 9890 49be 1749 943d
00000050: 7c13 58be 5790 b7bd 36e0 23be 116d 1b3e
00000060: 7399 07be c2d9 17bd 1de4 fcbc 15ec 16be
00000070: dc96 163d 960d b9be 92c0 b23e ba3b 9dbe
00000080: 88b5 973e 9283 7f3d 2848 02be e021 6a3e
00000090: bcd2 8bbc 3c2a 553e c3fa ebbc 0785 2cbe
000000a0: 2327 573d 128e 14be 4599 d33d 7017 3f3e
000000b0: 4c70 0f3d fbf3 59be b7b9 c43d a136 8e3d
000000c0: d764 623e 1cb5 6cbe e27c 9cbe 5fe6 a9bd
000000d0: 7550 69be 921e a53e 9e49 033e 4ebf 373e
000000e0: a8d8 153e 8f62 15bb 430f 943e a2a0 87be
000000f0: 00a8 da3c 4e1e 85be 6859 b83d 1084 c8bd
00000100: 6b31 073e 1430 4cbd 124b a83e b627 23be
00000110: 02e7 23be bb26 5dbe f464 ba3e fef7 1a3e
00000120: b7e1 c23e 6994 7ebe cc67 9abe d255 78be
00000130: 7707 79be 0c2e 0b3e 5979 ce3d a634 8d3e
00000140: ad0c 5fbe e91b 8dbe 3c82 2c3e d19b 4fbe
00000150: 119c 653e a5d4 d6bd cb05 4a3e 0bcd 9bbe
00000160: 4b18 4abe 6906 e23d 2fa9 a13d 16e0 c03d
00000170: 1472 463e 9fe3 5d3e 3a3f 88be aad0 46be
00000180: f892 a83e 0bcc 10be 7111 27be 3ed2 1fbe
00000190: 40f5 da3b e6b8 0a3e 9d3c 26bc 56e7 59be
000001a0: ef3e 3e3d e8f4 8dbe 0caa 4fbe a283 a6bd
000001b0: fb7c 51be 3d7a 1cbe 47eb cc3e d91c e93d
000001c0: eeb7 823d b303 6cbe 56fa a9bd 5b6f 113d
000001d0: fecc 803d a6f2 48be d191 22be c384 73be
000001e0: b9cf 21bd 5095 abbd e409 973a 0828 95bd
000001f0: 9788 cfbd bbc5 c6bd 2c33 ffbd a153 91be
00000200: 3109 a63e 1004 8abd e400 a63e 01a8 ea3d
00000210: baa9 a4be e513 813e e7c8 69bd dbf5 a0bd
00000220: b796 37be 395c 46be 0ee7 b23c 5e30 a4bd
00000230: d8e6 b83d 30ff abbe b3db 8d3e af96 87be
00000240: 426e 66bd bdb9 a73d a46c 533e 341f 9e3e
00000250: c537 a93e b3d6 9abe f723 c43d 6fe9 17be
00000260: bc50 f7bc 98a9 90be 719a 9a3e 577b 92be
00000270: 60e0 b93d 19dd e03b 4478 993c ff61 5bbe
00000280: 0f2f a43e ad10 dc3c 2940 9b3c b587 aabe
00000290: c70d 2d3e f11e 3fbd 4428 2cbe d9da aa3e
000002a0: ab1c cc3d 5bdf 21be 1861 e3bd ee1a 763d
000002b0: 0b5c 813e b440 64bd d93e 55be 93f2 e5bd
000002c0: efe7 80be 1eab 1d3e 960b 953e e9da bbbe
000002d0: af7f 9c3d 101e 583e 75c2 803b a4d1 2ebe
000002e0: a66a 1b3e 6ffa 303e a8c7 033e c696 92bd
000002f0: 86e3 edbd b6f7 2cbd 518d fabd ab12 1dbe
00000300: 2623 473e eded 923e e6a0 18bd 1bcd 74bd
00000310: 3174 743c df9d 89bc 3f2e c53d a322 e33d
00000320: 3b5b adbe f164 11be 7a67 a33e 51e2 ba3d
00000330: af90 f8bc 26f3 1fbe ca1f 08be 901f 54be
00000340: 15f7 f1bc 3baa 533e a503 6c3e 7f19 203e
00000350: fd39 b4be 1dd0 80be 2a8a b9bd dcdd a83e
00000360: a3b3 143d 2f6e 28be 8a14 ef3d f660 bdbd
00000370: c5a1 2cbe 3381 963e f862 f9bd 2600 1fbd
0.23323132 0.16977184 -0.12431045 0.27174786 -0.084091775 0.060944587 -0.19240691 0.23610775
0.2076742 -0.23910347 0.13743918 -0.013611168 0.18160295 -0.0012205181 0.16642904 -0.08556138
0.24886899 0.023579873 -0.19684064 0.07240503 -0.21101183 -0.089630775 -0.16003498 0.15178324
-0.1324213 -0.037072904 -0.030870492 -0.14738496 0.036764964 -0.36143178 0.34912544 -0.3070963
0.29630685 0.062381335 -0.12722838 0.22864485 -0.01706826 0.20816892 -0.028806096 -0.16847621
0.052527558 -0.1450732 0.10331968 0.18661284 0.035019204 -0.21284477 0.09605735 0.069440134
0.2210878 -0.23115963 -0.30564028 -0.08295893 -0.22784598 0.32249886 0.12821051 0.1794407
0.14633429 -0.0022794341 0.28917894 -0.2648974 0.026691437 -0.25999683 0.09001428 -0.09790814
0.13202445 -0.04985054 0.32869774 -0.15933117 -0.16006091 -0.21596806 0.36405146 0.15133664
0.38062832 -0.24861301 -0.30157316 -0.24251488 -0.24319254 0.13591784 0.10081739 0.2757923
-0.21782179 -0.27560356 0.16846555 -0.20274283 0.22422816 -0.104897775 0.19728772 -0.30429873
-0.1973583 0.11036379 0.07893597 0.09417741 0.19379455 0.21668862 -0.26610738 -0.19415537
0.32924628 -0.14140336 -0.16315247 -0.15607545 0.006682068 0.13547096 -0.010146287 -0.21279654
0.046446737 -0.2772591 -0.20279711 -0.08130576 -0.20457833 -0.15281005 0.40023252 0.113824554
0.06382738 -0.23048286 -0.08299701 0.035506587 0.06289099 -0.19623813 -0.15875937 -0.23781113
-0.03950474 -0.083780885 0.0011523333 -0.07283026 -0.10133474 -0.09705683 -0.12460932 -0.28384116
0.32428887 -0.06739056 0.32422554 0.114578255 -0.3216074 0.2521049 -0.05707636 -0.07859393
-0.17928587 -0.19371118 0.021838691 -0.08017038 0.09028405 -0.3359313 0.2770668 -0.2648215
-0.056257494 0.08189724 0.20646912 0.3088318 0.3305036 -0.30241928 0.09577172 -0.14835142
-0.030189864 -0.2825439 0.30195954 -0.28609726 0.09075999 0.0068622944 0.018734105 -0.21424101
0.32067153 0.02686342 0.018951492 -0.3330666 0.16899787 -0.046660367 -0.16812235 0.33370093
0.099664055 -0.1580786 -0.111025035 0.060084276 0.25265536 -0.05572577 -0.20824756 -0.11227908
-0.2517695 0.15397307 0.29110402 -0.36690453 0.07641541 0.21105218 0.003929431 -0.17072159
0.15177402 0.17283033 0.12869132 -0.07157664 -0.11615662 -0.042228423 -0.12233985 -0.15339153
0.19447002 0.28697148 -0.03726282 -0.059765916 0.01492028 -0.016798912 0.09627961 0.11090591
-0.33858666 -0.14198662 0.31914884 0.09125198 -0.030342428 -0.15620098 -0.13293377 -0.20715165
-0.029536763 0.20670407 0.23048265 0.15634726 -0.35200492 -0.25158778 -0.09059556 0.32981765
0.036304127 -0.16448282 0.116738394 -0.092470095 -0.16858585 0.29395446 -0.1217708 -0.0388185

features.0.bias f4 [32]
00000000: eff8 86b7 b8b1 3e36 3b9d 0738 7eca 9737
00000010: e1b7 cab8 48f3 f735 5c6b 3c37 cc95 d9b7
00000020: 0017 91b8 1d45 7f38 cff0 6b38 b484 84b8
00000030: 10e5 e538 d265 a236 85b1 2937 5aec e235
00000040: dcfb 7f37 8e7c 28b6 892c 6f39 1144 70b8
00000050: f8c1 7135 117a cb38 7009 58b8 61f5 1139
00000060: 5a67 6938 306f 1bb9 d3a6 8ab6 8480 3bb8
00000070: b393 d338 554b 7cb8 ce63 fb36 908b 6eb5
-1.6089964e-05 2.8415652e-06 3.233294e-05 1.8094895e-05 -9.666361e-05 1.8473738e-06 1.123067e-05 -2.593817e-05
-6.918423e-05 6.0861104e-05 5.6252637e-05 -6.3189684e-05 0.00010962237 4.8398297e-06 1.0114517e-05 1.69071e-06
1.5257825e-05 -2.5106451e-06 0.00022809407 -5.728385e-05 9.006176e-07 9.702531e-05 -5.1507202e-05 0.00013919688
5.5647783e-05 -0.00014823372 -4.1321414e-06 -4.4703964e-05 0.00010088775 -6.015164e-05 7.4920017e-06 -8.8865e-07

features.1.weight f4 [32]
00000000: 9b50 583f 94e4 683f d325 793f ad9d 4f3f
00000010: e793 653f 4c1d 5d3f ebcd 653f 4cb7 6f3f
00000020: 7b95 713f 537b 5b3f 6f69 6c3f c31c 6e3f
00000030: 7ac3 7d3f 4d92 5e3f 6aa5 513f dc45 663f
00000040: bd0f 4a3f 66c9 513f 95ab 7a3f 0f4b 4b3f
00000050: 6a84 793f 4c84 793f 40d1 643f 5038 773f
00000060: 2ed6 613f d206 813f 52be 5d3f 62f2 633f
00000070: b418 713f 0d45 4b3f 4078 6f3f 0c06 543f
0.84497994 0.9097378 0.9732334 0.8109997 0.89678806 0.8637283 0.8976733 0.93639064
0.94368714 0.8573505 0.9234838 0.93012637 0.991264 0.8694199 0.81893027 0.89950347
0.78930265 0.81947935 0.97918063 0.79411405 0.9746767 0.97467494 0.8938179 0.965703
0.8821744 1.0080206 0.8661853 0.8904172 0.9417832 0.7940224 0.9354286 0.82821727

features.1.bias f4 [32]
00000000: b554 bc3c 5f6e c0bd f4b5 77bd 53ad 3bbd
00000010: 8f92 033d 4bc7 f63b 28e1 34bc c3be 003d
00000020: 9aba 01be 770f db3c b785 323d 54c1 ab3b
00000030: 3cc8 8d3d f7b4 dbbc 819e 1cbd ac0e 9a3b
00000040: d1f2 0ebd 0d53 0fbc d487 04bc 8c71 a33c
00000050: 05c7 893d 9a50 7b3c 81df 98bd b6d9 0c3d
00000060: b2dd 5fbd d0e8 163c b0ec 00be c597 a1bc
00000070: 3c98 8abd 7f7b a93b 1c84 f4bd 67a3 6d3c
0.02298961 -0.093960516 -0.06047626 -0.04581959 0.03212219 0.007531082 -0.01104001 0.031431925
-0.12668839 0.026740773 0.04358455 0.0052415524 0.06922957 -0.02681969 -0.0382371 0.004701456
-0.034899537 -0.008747828 -0.008089025 0.019951604 0.06727413 0.015339041 -0.07464505 0.034387313
-0.054654785 0.00921078 -0.12590289 -0.01972569 -0.06767318 0.0051721926 -0.1193926 0.01450429

features.1.running_mean f4 [32]
00000000: 26db c339 2520 0d3a 0410 a038 a2cb e8b9
00000010: 254e d5b8 ba07 0639 54cd 023a 1793 89b9
00000020: fa02 1db7 f579 36b9 7a33 beb8 55a4 81b7
00000030: ce7b 3ab8 3c92 7e39 b280 bcb9 effc f1b9
00000040: a3b7 05ba 6512 28ba 6a0e 8c38 9de9 afb9
00000050: a666 8db8 8633 9038 8e38 5d39 be28 a237
00000060: 86c7 dfb8 dadd 8ab9 a7cd ec38 1e32 2838
00000070: 1603 fa38 2264 a0b9 088d 05b7 0c93 37b9
0.00037356577 0.0005383513 7.632378e-05 -0.00044402207 -0.00010171187 0.00012782114 0.0004989703 -0.00026240267
-9.358622e-06 -0.00017402305 -9.069494e-05 -1.5454521e-05 -4.4461158e-05 0.00024277804 -0.0003595404 -0.00046155552
-0.00051009114 -0.00064114324 6.678405e-05 -0.00033552657 -6.742524e-05 6.876052e-05 0.0002109727 1.9330877e-05
-0.00010670633 -0.00026486703 0.00011291663 4.0100997e-05 0.00011921504 -0.00030592183 -7.960254e-06 -0.00017507019

features.1.running_var f4 [32]
00000000: 7ed1 143e ccb5 523e 3400 263d 41f1 1e3e
00000010: e505 bf3b b085 713d 9ebf 3d3e d5c1 533e
00000020: 04d5 df3c fc0b 833d 8980 9e3e 97fe 5f3d
00000030: 16e9 343c 85aa 733d f2f4 cd3d b1ad 903e
00000040: 88cd 563e 77b6 a13e fd3d 683c 3342 023e
00000050: e403 af3c c4f9 0a3e d8ed 1c3d 0f91 ab3c
00000060: 76f3 433c de42 df3c fa9a 933c 6d72 a03c
00000070: d1b0 643b 46db af3d e620 3f3c b327 c93c
0.1453304 0.20577163 0.040527537 0.15521719 0.00582956 0.058965385 0.18530127 0.2067941
0.027323253 0.0639877 0.3095744 0.054686155 0.0110419 0.059488792 0.10056485 0.28257516
0.20976841 0.31584522 0.014174935 0.12720565 0.02136416 0.1357184 0.038312763 0.020943193
0.011959901 0.027253564 0.018018235 0.019585812 0.003489543 0.08586745 0.011665558 0.024555063

features.5.weight f4 [64, 32, 5]
00000000: 9356 bbbc b13f 7bbd 7665 38bc a18a 823c
00000010: d599 1a3d 9103 adbd 44e9 08ba 1f85 85bc
00000020: 53b4 ec3c bd5e 843d 0141 7bbc cce4 44bc
00000030: 7b7a 65bd 9c31 8fbd 2a46 883c 7edc b0bd
00000040: 360b 86bc 3f08 363d 264e b23d d717 063d
00000050: 3a1d b5bd d422 a3bd 8f0a f2bc 5f47 5bbd
00000060: 4627 cfbc fc67 7bbd 53c1 50bd cd3d 9ebd
00000070: 5f8f 14bd 85d6 f0bc c183 a6bd 5e94 943c
00000080: 2b27 213d 77ba 4fbc c92c 143c b509 01be
00000090: e716 24be fb85 cfbd b3c8 25bc d511 dd3b
000000a0: e93e 55bd eff1 41bd 0a64 a3bd f383 66bd
000000b0: 686e 01bd 7277 76bc 1f22 053a 2295 323c
000000c0: d7ac f33b 0d30 dd3d 7df4 9dbc 5f0d 2c3d
000000d0: 2458 103d 642f 303d f016 b13d 405a 7c3d
000000e0: 5820 0a3d 1699 123d 1fba 643d d2bc 513c
000000f0: 1fbe da3c 418e 6d3d 88cd e8bc 674f 1ebc
00000100: 4476 0bbd f674 5ebd 5a92 f2bc 31e4 39bc
00000110: 18c3 c6bc 3163 0bbd 0810 cbbd 0c1a b3bd
00000120: 9295 b3bc 6437 b13c 7fd0 983d 6dff dcbd
00000130: 25c4 fabd 97c7 a2bd 6676 ad3b be59 993a
00000140: 7247 7fbd 0349 04bc bb18 923b 431a 103d
00000150: e87c 613d 3d56 97bd a2b3 19bd ad2e a9bc
00000160: 79aa 0f3c 5649 263d 4a24 743d 755f a3bd
00000170: 6840 5bbd b165 bbbc 3fad 92bc 75f0 2bbd
00000180: d8f4 7b3c c18f 223d 1084 363b feca 883d
00000190: 7146 20bc e206 49bd ac9c 9fbd 0d2a 803b
000001a0: 1576 8cbc 95c1 af3c 8da1 e13c e0b5 063d
000001b0: 6a86 ee3c 5a5f d53c 2149 3bbd 1577 54bd
000001c0: 6c7d 1dbd d71d 9f3c bc42 863d 4a66 6c3c
000001d0: f72e 75bd 8ede 3ebd 6568 5bbd a137 8fbc
000001e0: fa00 32bd 6277 a63c f29f 7f3d 3169 bcbb
000001f0: 0c1e d53d f60b bbbc d31c 943c 073c 273c
00000200: 1707 2bbd 312f bc3d c280 7ebd cb70 b2bd
00000210: fa33 69bb 5698 4ebb 8eb1 61ba 4dc8 82bc
00000220: a875 2e3c 3dd9 8b3c 50dd 3e3c 01da 09bd
00000230: b6f0 72bd fdff 59bb d327 8e3b cb41 07bd
00000240: 4162 743c 15c9 a7bd 73ac 56bd 2431 1ebc
00000250: e060 5f3b 8d53 5cbb 8347 8abd f9dc 2abd
00000260: 7d8d 3ebd 2821 78bc d8d7 85bc 4b6a 93bd
00000270: d436 98bc 06cd ca3c e315 823d 6c78 083d
00000280: 4368 36bd 9972 933b 58ce 57bc 92f2 b9bb
00000290: e5d0 9838 4266 07bd 040c 0dbd 931a 603d
000002a0: 990a 533d 65be db3c 005e 12bd f8da 20bd
000002b0: 110b a2bc 16d3 3a3c 30ae 0f3c beb7 e2bd
000002c0: acd5 7abd f1f3 283d 4d68 cbbc e7ee 7d3d
000002d0: a9f2 bcbd f517 2cbe beac fabd 1f7f 6cbc
000002e0: 1e9e 623b 0293 79bc 5ab2 6fbc f647 9f3c
000002f0: efe0 6b3d a449 66bc e1aa 02bd 4b21 203d
00000300: 8232 713d 8262 6cbc ff6e 023c 3b56 e0bd
00000310: c8cf 21be 11ff 6abd dfcc 823c ec17 9f3c
00000320: 5fc4 a0bd c8e6 653b 82cb 24bd 3557 84bd
00000330: c1f0 7fbc 5239 9cbd ba7f c33c 6b86 5cbc
00000340: e6f1 d43b 7491 1e3b c03e 05be ea4e a4bc
00000350: 9fec 373d 2142 153d 1f3a a23d bca8 eebc
00000360: 9743 4e3d 3c4a 77bc 9369 3abc b091 0c3d
00000370: a05c 44be 0ed0 92bd 4746 34bd 4dd6 2c3b
00000380: d1c7 53bb d098 babc 870a d3bc b3ea 853c
00000390: 695e 033c dd6e 74bb 2312 cdbd d193 bdbd
000003a0: 83d4 d6ba 572a 5a3d 740a c13c 611f fdbd
000003b0: f3c1 1abe ba9c 89bd 5072 fdbb 3ef8 bcbb
000003c0: ca49 e5bd 1580 b9bc 2b6f 46bb 6335 5dbc
000003d0: 1173 633c 16db fdbd 4600 88bd 1318 273c
000003e0: d246 363d 12a9 683d 2b37 393b 44ec 83bd
000003f0: 7438 07bd e958 39bd bac8 76bb ee97 29be
-0.02286843 -0.061340038 -0.011254659 0.015935244 0.037744362 -0.08447946 -0.00052227476 -0.016298829
0.028894579 0.064633824 -0.015335322 -0.01201744 -0.05602501 -0.06991884 0.01663502 -0.086358055
-0.016362768 0.044441458 0.08706312 0.03273758 -0.08843465 -0.07965627 -0.02954605 -0.05353486
-0.025287282 -0.061378464 -0.05096562 -0.07726631 -0.03626954 -0.029399166 -0.08130599 0.018137153
0.039343994 -0.012678734 0.009043881 -0.12601359 -0.16024362 -0.101329766 -0.010118651 0.0067465105
-0.05206195 -0.047349866 -0.07978065 -0.05627818 -0.031599432 -0.015043126 0.0005078632 0.010899814
0.0074363756 0.108001806 -0.01928162 0.04200494 0.035240307 0.043013945 0.08646953 0.061609507
0.03372225 0.035790525 0.05584156 0.012801366 0.026701985 0.057996992 -0.028418317 -0.009662486
-0.034048334 -0.05431076 -0.029610801 -0.011345909 -0.02426295 -0.034030143 -0.09915167 -0.087452024
-0.021921907 0.021632858 0.074616425 -0.10790906 -0.12244443 -0.07948225 0.005293655 0.0011699719
-0.062323995 -0.008074048 0.0044585145 0.035181295 0.05505076 -0.073894955 -0.037524827 -0.02065214
0.008768671 0.040597282 0.05960492 -0.07977191 -0.05352822 -0.022875639 -0.017904876 -0.041977365
0.0153781995 0.039687876 0.0027849711 0.06679343 -0.00978242 -0.04907883 -0.07793555 0.003911263
-0.01714615 0.021454612 0.027542854 0.032888293 0.029116828 0.026046444 -0.045724038 -0.051871378
-0.03844969 0.019423408 0.06555697 0.0144286845 -0.059859242 -0.046598963 -0.053566355 -0.01748258
-0.043457963 0.020320598 0.062408395 -0.0057498445 0.104061216 -0.022832852 0.01808015 0.010207183
-0.04175481 0.091886885 -0.06213451 -0.0871292 -0.003558396 -0.0031523905 -0.00086095266 -0.015964651
0.010648169 0.01707136 0.011649445 -0.03365517 -0.05931159 -0.0033264153 0.0043382435 -0.03302173
0.014916004 -0.0819265 -0.052410554 -0.009655271 0.0034084842 -0.0033619136 -0.06751921 -0.041714642
-0.046521652 -0.015144624 -0.016338274 -0.07198008 -0.018580832 0.024755966 0.06351831 0.03331797
-0.044533025 0.004499745 -0.013171755 -0.0056746686 7.2868344e-05 -0.033056505 -0.034435287 0.054712843
0.05152378 0.026824186 -0.035734177 -0.039271325 -0.019780667 0.011402866 0.008769557 -0.11070202
-0.06123893 0.041248266 -0.024830008 0.061995413 -0.09225971 -0.16806014 -0.12239979 -0.014434605
0.0034579108 -0.015232803 -0.014629925 0.019443493 0.05758756 -0.014055643 -0.031901244 0.03909425
0.05888606 -0.014427783 0.007961034 -0.10953947 -0.15801919 -0.057372157 0.01596683 0.019420587
-0.07849955 0.0035080183 -0.040233143 -0.06461946 -0.015621365 -0.076281205 0.023864616 -0.013459782
0.006498563 0.0024195584 -0.13012218 -0.02005716 0.044903394 0.03644002 0.07921242 -0.029133193
0.050357427 -0.015093382 -0.01137771 0.034318626 -0.19175959 -0.071685895 -0.044012334 0.002637285
-0.0032315145 -0.022777945 -0.025761856 0.016347265 0.008018115 -0.0037297525 -0.10013225 -0.09256709
-0.0016390238 0.053263035 0.023564555 -0.12359501 -0.15113048 -0.06719346 -0.0077345744 -0.0057668975
-0.11195715 -0.022644082 -0.0030278664 -0.013501498 0.013882414 -0.12395303 -0.06640677 0.010198611
0.044501133 0.056801863 0.0028261642 -0.064415485 -0.033012822 -0.045250807 -0.0037656263 -0.16561863

features.5.bias f4 [64]
00000000: e862 1035 1b19 07b5 054f 0037 32d9 c035
00000010: 87d2 acb7 cce1 2ab6 35c7 8236 70bf 05b6
00000020: fb63 a5b7 1e7c a335 db3a 5bb5 c0cc dfb2
00000030: 20da 05b7 d3b6 1436 2200 09b7 1901 23b7
00000040: 4fdf 0fb6 a659 5136 267f bd36 20e3 e4b4
00000050: 0402 b0b7 10c9 2937 26e4 b635 8008 9cb4
00000060: 84f1 f2b5 0bac adb7 dcde 9336 ced5 e8b5
00000070: 0fff 17b8 8d04 04b7 47fc e7b6 f0a8 69b7
00000080: 41e6 a5b6 4952 fa35 ce4b 76b7 e1e2 1cb7
00000090: 0bba 1437 5c55 a036 3898 f635 60ed 8934
000000a0: 326e a6b6 dd1d 22b7 f209 8035 fab2 0437
000000b0: 709b 5b35 c743 4bb7 c6a6 8a36 f8d0 69b4
000000c0: dd63 4cb7 d220 dbb5 c616 3435 bd27 b136
000000d0: 342f 2a36 2e71 67b6 78bc ed36 e006 76b5
000000e0: 4f47 fc36 b048 a0b6 9212 9936 4c7b dab6
000000f0: 3fdb c836 e339 edb7 2573 7737 9217 9136
5.378811e-07 -5.032795e-07 7.647793e-06 1.4368327e-06 -2.0602032e-05 -2.5463405e-06 3.8974927e-06 -1.9929976e-06
-1.971609e-05 1.2180569e-06 -8.1669504e-07 -2.6053726e-08 -7.978204e-06 2.2160136e-06 -8.165867e-06 -9.715813e-06
-2.1438643e-06 3.119561e-06 5.647441e-06 -4.2633565e-07 -2.0981774e-05 1.01199985e-05 1.3626457e-06 -2.906345e-07
-1.8100695e-06 -2.070332e-05 4.4068856e-06 -1.7347572e-06 -3.6238747e-05 -7.868873e-06 -6.9137054e-06 -1.3927216e-05
-4.9441883e-06 1.86504e-06 -1.4680392e-05 -9.351149e-06 8.864804e-06 4.7783087e-06 1.837273e-06 2.5690952e-07
-4.960014e-06 -9.6629055e-06 9.539638e-07 7.909484e-06 8.181005e-07 -1.21155235e-05 4.1321355e-06 -2.1775838e-07
-1.2182599e-05 -1.6326323e-06 6.7088365e-07 5.279637e-06 2.535945e-06 -3.4487562e-06 7.085091e-06 -9.1652146e-07
7.5184867e-06 -4.7768335e-06 4.561917e-06 -6.51126e-06 5.985988e-06 -2.8279557e-05 1.4749156e-05 4.3240807e-06

features.6.weight f4 [64]
00000000: 9629 5f3f e18e 513f 63b0 583f ce7b 523f
00000010: 1da1 623f fe72 363f ed3c 433f 3d93 4b3f
00000020: 6ed4 6c3f 641a 563f f4cb 633f cc67 533f
00000030: 5b0e 673f 8366 683f 2082 623f 242b 4d3f
00000040: 5795 473f bc15 643f 5c2a 5a3f 2bb0 4f3f
00000050: 1441 573f a112 503f 4eaa 5a3f fc50 493f
00000060: 5bd4 403f eb13 623f 6fcd 6b3f bc9c 483f
00000070: 4870 483f c0d9 433f 23c9 483f 9add 703f
00000080: 458a 493f 3f3c 483f 07e1 413f 0923 623f
00000090: e336 573f 78f9 673f 8fc6 593f e8f4 5d3f
000000a0: 4bcf 523f d65b 4f3f 89e3 5e3f e9ed 4f3f
000000b0: 1569 623f 7006 603f 049c 543f cc69 543f
000000c0: 9274 6b3f 27e2 563f d2ee 463f 194b 573f
000000d0: 05b3 503f 232c 553f 678e 463f d22d 553f
000000e0: d36c 453f 66e2 4a3f 13a9 543f e200 433f
000000f0: abf9 5a3f e6de 5f3f a8cb 6e3f 4aae 6c3f
0.8717283 0.8185864 0.84644145 0.8222016 0.8852709 0.71269214 0.7626484 0.7952154
0.9251164 0.8363402 0.8898308 0.82580256 0.9025628 0.9078142 0.88479805 0.8014395
0.7796225 0.89095664 0.85220885 0.81128186 0.84083676 0.81278425 0.85416114 0.786392
0.7532403 0.8831164 0.9211034 0.7836416 0.7829633 0.76504135 0.7843191 0.9408814
0.7872661 0.7821693 0.7573399 0.8833471 0.84068125 0.90615034 0.850686 0.8670182
0.82347554 0.80999506 0.8706594 0.812224 0.8844159 0.8750982 0.8305056 0.82973933
0.9197475 0.8393883 0.7770816 0.84098965 0.8152316 0.8327047 0.7756104 0.8327304
0.7711918 0.79251707 0.83070487 0.7617322 0.85537213 0.8744949 0.93279505 0.92453444

features.6.bias f4 [64]
00000000: 2009 86be e1ab 58be c744 8dbe 632d 13bf
00000010: 77cf 81be f6aa 5abe aba1 49be ff86 4bbe
00000020: de92 55be 745d 61be b619 eabd 5143 a6be
00000030: 28a8 62be a559 65be 7a74 77be a86a aabe
00000040: ab34 61be a7a9 b9be 7654 39be 5c9a 6dbe
00000050: fcc6 44be 7c39 83be b006 33be a7c0 3cbe
00000060: 562c 88be 3b3f 93be 939e 67be 3c84 02bf
00000070: 8689 77be 3ea7 f3bd 87f6 83be 5213 aebe
00000080: 46d8 5cbe be30 2bbe 7dd5 85be 99e8 82be
00000090: e78e 7bbe 8371 11be 86af 46be 2582 70be
000000a0: d866 5dbe 2828 6bbe 2ba6 80be aef8 80be
000000b0: 28b2 8cbe 86df 5bbe e235 91be e147 7dbe
000000c0: a673 3ebe 6e5e 5cbe f575 b8be a3c2 8fbe
000000d0: 7ac3 61be 2943 66be 9e4a 77be 1f9e a0be
000000e0: 4b33 40be 8ac2 58be fef6 7ebe 7c20 57be
000000f0: 568d 58be 5643 6abe 4a4e 50be 17ce 83be
-0.26178837 -0.21159317 -0.27591535 -0.5749113 -0.25353596 -0.21354279 -0.19690578 -0.19875716
-0.20856807 -0.22008306 -0.11430685 -0.32473233 -0.22134459 -0.22397478 -0.24165526 -0.33284497
-0.21992747 -0.36262247 -0.18098626 -0.23203415 -0.19216532 -0.25629795 -0.1748302 -0.18432866
-0.26596326 -0.2875918 -0.22619085 -0.50983024 -0.24173555 -0.11897133 -0.25774023 -0.33999115
-0.21566877 -0.16717812 -0.2613944 -0.25568083 -0.24566232 -0.14203458 -0.19402894 -0.23487146
-0.21621263 -0.22964537 -0.25126776 -0.25189728 -0.27479672 -0.21471986 -0.28361422 -0.24734451
-0.18598804 -0.21520397 -0.36027494 -0.28078184 -0.22047225 -0.22486557 -0.24149558 -0.31370637
-0.18769567 -0.21167961 -0.24898908 -0.21008486 -0.21147665 -0.22877249 -0.20342365 -0.25743172

features.6.running_mean f4 [64]
00000000: 7e5b 17bf 5dc0 6bbf 70fa 35bf b80a 843e
00000010: 1563 1dbf e09d bebe a039 30bf d41a 27bf
00000020: 9ab0 1abf 7210 35bf 4a55 35bf 44ce 07bf
00000030: 481a 49bf da9e 29bf f5cb 2bbf 2104 6dbf
00000040: 82a3 f9bc da02 eabe 4118 2abf bd24 fbbe
00000050: e876 02bf 54b6 28bf 46d7 49bf 39e2 81be
00000060: ad3b 9ebe dd50 40bf 14dd 4ebf 6340 1e3f
00000070: 359d 0dbf fffb ebbe c51b 24bf bfae 32bf
00000080: 8980 d2be 7666 5b3f 7c25 2abf f27b eabe
00000090: 70a0 0dbf b12b 5ebf 8243 79bf a7c5 debe
000000a0: 71e6 1bbf 035e 63bf 9aa8 80bf 06ce 1dbf
000000b0: 1e0a fdbe 529f 47bf 4819 62bf 3456 00bf
000000c0: e691 39bf c0d2 34bf 3138 8f3c 0687 04bf
000000d0: af3e 05bf 4711 95bf c851 0cbf 298e 7bbf
000000e0: 105e 6fbf 2d4b 7abf 2404 1ebf a3a9 55bf
000000f0: 20d0 19bf cd71 06bf 6dee 13bf 7580 3abf
-0.5912398 -0.920904 -0.7108526 0.25789428 -0.6147931 -0.37229824 -0.6883793 -0.6527531
-0.6042572 -0.7072822 -0.70833266 -0.5304911 -0.78555727 -0.66258013 -0.6710809 -0.92584425
-0.030473474 -0.457053 -0.6644326 -0.49051467 -0.50962687 -0.6590321 -0.78844106 -0.25367907
-0.30904904 -0.7512339 -0.8080609 0.61816996 -0.55318004 -0.46090695 -0.6410487 -0.6979789
-0.4111369 0.8570322 -0.66463447 -0.45797688 -0.55322933 -0.8678542 -0.97368634 -0.43510172
-0.608985 -0.88815325 -1.0051453 -0.6164249 -0.4942178 -0.7797748 -0.88319826 -0.50131536
-0.7248825 -0.7063408 0.017482849 -0.5176853 -0.5204877 -1.1645898 -0.5481229 -0.98263794
-0.93502903 -0.9777096 -0.6172507 -0.8346197 -0.600832 -0.52517396 -0.57785684 -0.7285226

features.6.running_var f4 [64]
00000000: 7c74 a93f eb03 2c40 03cc 1340 3ce3 683f
00000010: 1925 ab3f 729e b43f f858 0540 edd0 a83f
00000020: d8b2 c43f ff83 d03f b46f dd3f 6526 1f40
00000030: e908 dd3f b4a0 0640 f3bb fa3f 706e 1640
00000040: 1290 863f 2884 7e3f 4dfd 0540 ec51 9c3f
00000050: a0b4 f53f 5117 1440 3381 de3f 9457 ae3f
00000060: a9e6 873f 1d29 0840 7569 ec3f 69c9 423f
00000070: b861 e13f 70e6 c53f 6616 2540 425f c33f
00000080: d0a4 e73f edb8 fe3f 0742 0c40 17b1 5b3f
00000090: ccd0 e83f 77d3 1740 5f62 5740 3747 e03f
000000a0: e7e6 c13f b746 c03f 18b8 fe3f 4539 0140
000000b0: 57c4 0c40 94a0 e03f f8d1 1f40 b959 fa3f
000000c0: 2661 e73f 0b3c f53f d22c 923f 62fa 793f
000000d0: d1e0 e03f 8e52 2240 6a38 b03f 24ea ca3f
000000e0: d18b 5240 343d 2140 2ea2 a33f bc5b 1740
000000f0: 8f4e bd3f 49f5 943f 5b71 bb3f 06b3 ca3f
1.3238673 2.6877391 2.309327 0.9097173 1.3370696 1.4110854 2.0835552 1.3188759
1.5367079 1.6290282 1.7299714 2.4867184 1.7268344 2.1035585 1.9588608 2.3504906
1.0512717 0.99420404 2.0935853 1.22125 1.9195747 2.3139231 1.7383178 1.3620477
1.0617267 2.1275094 1.8469683 0.7608858 1.7607946 1.5460949 2.579492 1.5263445
1.8097172 1.9900185 2.19153 0.8581709 1.818872 2.3722818 3.365379 1.7521733
1.5148591 1.502158 1.9899931 2.0191205 2.1994836 1.7549005 2.4971905 1.9558631
1.8076522 1.9158949 1.1419928 0.9764768 1.7568609 2.5362887 1.3767216 1.5852704
3.2897837 2.5193605 1.2783868 2.364974 1.4789599 1.1637355 1.4643968 1.5835884

features.10.weight f4 [128, 64, 3]
00000000: 67a3 e03c 97c1 863c ce1f c6bb 20ea 64bc
00000010: 880d fc3c 013a 773d 419c 90bb 3ff6 3fbb
00000020: 3b0d 123c 4402 f6bc 2ed9 58bb 14da 9dbc
00000030: 9cd2 00bd 672a 79bc ca7f c2bc 02e1 613b
00000040: 17cd ea3c a2fe 8c3c 93cb 66bd 13ca 70bd
00000050: 7e56 adbc f9d0 8bbc e760 d4bc bfa3 12bc
00000060: 6fd2 9bbd 1a3c 80bd e158 34bd 4e70 4bbd
00000070: 4217 31bd cb3f ec3c 09cd 42bc 8512 5d3c
00000080: 9398 96bc 86eb 6ebc 7401 d9bc e3ac a3bb
00000090: 192e 17bd c4d1 74bd 2504 18bd 0292 2b3c
000000a0: 71ab 573d b69f ae3d 2322 6c3d 7952 723d
000000b0: bb08 6d3d 185d 89bd 6e6a 74bd 63c0 3cbd
000000c0: 0917 203c e5a3 5abb 015e 18bc 6c2e edbb
000000d0: 6c1b 14bb 2677 d93c f72e e8bc 7f6e 28bd
000000e0: 470f eebc 24d5 133d 803b d33c 60a3 c5bc
000000f0: 13aa 4bbd 60b9 edbc b51e 8dbc c969 45bb
00000100: c781 00bd eb00 f9bb ea6f 4ebd a935 c1bc
00000110: d53c f0bc e806 303c 8a75 e93c 7668 b13b
00000120: fbb7 ebbc 5672 6f3b ac3f 6e3c 9102 18bd
00000130: f1e7 033d 6eb5 923d 073e c83c 452a fb3c
00000140: 6a9e 07bc a902 a3bc 6aed 16bc 0a72 0a3c
00000150: 8276 4d3d 3e4b 9f3c cefa 3d3b 34fe 23bd
00000160: 9772 63bc fed5 103c 4c0e aebc b9ea 8abc
00000170: d336 1ebd ad6a 723d 9b27 c93d bc45 653d
00000180: 1593 b8bc 8aba dfbc 2886 12bc 01ca 9abc
00000190: 8e67 b7bb dcf5 20bc 8191 e8bc ad77 55bd
000001a0: 924f 3fbd da97 05bd 49fa 0e3d f23b 873d
000001b0: cc98 233d 686b 743c 74ba a0bc eaf8 0cbc
000001c0: 7f79 3fbd 6a04 34bd 3727 09bc 4e58 1e3d
000001d0: 509b 843d 93cd 883b 37a3 133d 9d71 a93c
000001e0: b677 2e3b 0f84 2abd ab64 963b f731 c0bb
000001f0: 8f70 febb 341f e23c 985a 8bbb bed3 f1bc
00000200: 0d63 91bc 92ed 95bb 8970 3ebc 1d3d 89b9
00000210: ff78 ec3c 467d 713c 416a 183d 447f e8bc
00000220: 4c56 3ebd b57c e8bc bf1a 213c 7fec 45bc
00000230: 553a 3cba bf8f 303d 2756 d73c 2a4a 1e3d
00000240: 6c04 a63b 5be0 ec3c aa5e 35bb 54e9 43bd
00000250: 690e e4bc 68c4 5e3d 706f 4e3d 8deb 473d
00000260: 001d 1b3c 478c b83b b3fb 103d 6561 20bc
00000270: 5395 153c 3f34 53bc 3cab d7bc 371b 8a3a
00000280: 16ab d038 29ac 0f3d 0448 2dbd 3700 0ebd
00000290: a3f3 00bd 3227 5f3d 3dc1 d43c 49ac dc3c
000002a0: fb4e debc 9023 6bbd 8503 cfbc aadb e4bb
000002b0: 0e2a 2c3c 4cbc d73c 4e58 96bd d237 b0bd
000002c0: bbff 23bd d92e 183c 904b d43b 2c95 aabc
000002d0: 3bec 6abc 9fe3 c6bc 8e8f 39bd b706 94bd
000002e0: b710 d6bc 2b50 95bc 4214 6cbd d9ca 27bd
000002f0: 87d0 46bc 5be6 8a3d 2eab 4d3d b341 643c
00000300: 6503 093d 02a0 c83b ee14 9ebb 1c9d 32bb
00000310: efca d93c eae3 75bd be5f acba f9bf a6bb
00000320: 0f91 16bd 3703 44bd fec2 10bd ce5c 84bd
00000330: e4aa 283d ba61 8b3c b9ec 55bd 160f 1abd
00000340: 0491 d53c 900b e83c 51a0 323c 3e82 953b
00000350: 61d9 90bd 5b6c 9dbb 357a 523c b519 6fbd
00000360: e1b1 babd 7453 733c 3259 76bc 527c 9abd
00000370: aba2 3c3d db1b b13c c9c7 733d 3e7f cabc
00000380: 7950 95bd 7077 8f3c 245f 0a3c 1c28 27bd
00000390: 2c9b 113d bd62 6a3c dcb3 16bd e0a1 e43c
000003a0: 1884 fe3c 528b cabc d9bb 59bc 96c2 45bc
000003b0: bc28 b43c 11f2 4abd 753d 123d 3e85 1ebd
000003c0: 94b4 483c 022e 063d bdf4 95bc cc11 c7bc
000003d0: 5e9f d43c 59ba 223d 3125 60bd d66c 383d
000003e0: a890 8dbc d056 0a3d e22b 6ebd 1680 38bd
000003f0: 5b6d e33b 59a1 343c a7d1 9dbc 833c 693d
0.027421666 0.016449733 -0.006046272 -0.013971835 0.030768171 0.06035805 -0.004413158 -0.0029291061
0.008914287 -0.030030377 -0.0033088434 -0.019269027 -0.031450853 -0.015207863 -0.023742575 0.003446639
0.028662248 0.017211262 -0.056346487 -0.058786463 -0.021159407 -0.01706742 -0.025925113 -0.008950173
-0.076084964 -0.062614635 -0.044030074 -0.04966765 -0.04323507 0.028839013 -0.0118897045 0.013493185
-0.0183833 -0.01458252 -0.02648995 -0.004994975 -0.036909197 -0.05977036 -0.037113328 0.010471823
0.052653734 0.08526556 0.057649743 0.059160683 0.057869654 -0.06707209 -0.05967181 -0.04608191
0.009771117 -0.003336185 -0.009299756 -0.0072382 -0.0022599353 0.026546072 -0.028342707 -0.041121002
-0.02906002 0.03609194 0.025785208 -0.024125755 -0.049722742 -0.029019058 -0.017226556 -0.0030122867
-0.031373765 -0.0075989864 -0.0503997 -0.023585157 -0.029325882 0.010743834 0.02849843 0.005414064
-0.028774252 0.0036536655 0.014541548 -0.037111823 0.03220362 0.07163511 0.02444364 0.030659804
-0.008277515 -0.01989873 -0.009211877 0.008450041 0.050161846 0.019445058 0.0028988603 -0.04003735
-0.013882301 0.008840082 -0.021247052 -0.016957628 -0.038626503 0.059183765 0.09822007 0.055974707
-0.022531072 -0.027310628 -0.008943118 -0.018895151 -0.0055970615 -0.009824242 -0.028389694 -0.052116085
-0.046706744 -0.03261552 0.03490666 0.066032305 0.03994064 0.014918186 -0.019620158 -0.008604268
-0.046746727 -0.043949522 -0.008371166 0.038658433 0.06474936 0.004174897 0.036044326 0.020684058
0.0026621646 -0.041629847 0.0045896373 -0.0058653313 -0.007764883 0.02760277 -0.004252743 -0.029519912
-0.017747426 -0.0045754397 -0.01162351 -0.0002617621 0.02886629 0.01473934 0.037210707 -0.028380997
-0.046469018 -0.028379777 0.009833037 -0.012080311 -0.0007180323 0.043105837 0.026286198 0.038644947
0.005066445 0.028915575 -0.0027674832 -0.04782994 -0.027838903 0.054386526 0.050399244 0.048808623
0.009467363 0.0056319567 0.03539629 -0.009788846 0.00912984 -0.012890874 -0.026326768 0.0010536675
9.95008e-05 0.035076294 -0.042305008 -0.034668174 -0.03148235 0.05448074 0.02597105 0.02693762
-0.02713727 -0.057406962 -0.025270233 -0.006984194 0.0105080735 0.026334904 -0.073410615 -0.08604397
-0.040038805 0.009288513 0.0064787343 -0.020823084 -0.014338548 -0.02427846 -0.04530292 -0.07227843
-0.026131017 -0.018226704 -0.057636507 -0.040964935 -0.012134678 0.06782218 0.050212078 0.01393168
0.033450503 0.00612259 -0.0048242724 -0.002725429 0.026586024 -0.06003181 -0.0013151092 -0.005088803
-0.036759432 -0.04785463 -0.03534221 -0.064630136 0.0411786 0.017014373 -0.05222771 -0.037612043
0.026070125 0.028325826 0.01090248 0.004562645 -0.07072712 -0.0048041767 0.012846519 -0.058374126
-0.09115959 0.01485144 -0.015035914 -0.075432435 0.04605357 0.021619728 0.0595167 -0.024718877
-0.072907396 0.017513007 0.008445535 -0.040809736 0.035548374 0.014305768 -0.03679262 0.02790922
0.031068847 -0.024724636 -0.013289415 -0.012070319 0.02199208 -0.04954726 0.03570314 -0.03870129
0.012250084 0.03275872 -0.018305177 -0.024300478 0.025954898 0.039728496 -0.05472297 0.04502567
-0.017280892 0.033774197 -0.05814732 -0.045044027 0.0069405264 0.011024796 -0.01926501 0.056942474

features.10.bias f4 [128]
00000000: dc37 28b6 8c89 0537 9314 4fb6 d60e 19b7
00000010: fd2d 1e37 3f1d 0a37 c881 81b6 96c7 d6b7
00000020: e87d 05b7 46a9 8cb7 8ef2 1bb6 cc59 e6b5
00000030: 7462 04b6 c6a2 cdb6 3889 22b7 1cd0 2737
00000040: eb1a 68b8 25e9 e736 1c1a 9436 e840 eeb7
00000050: 8e9f eab6 35bc 2437 2cb6 ea36 567c d3b6
00000060: 6014 fd34 c1ae 87b7 daa6 3ab7 852b dcb6
00000070: 6a91 3237 7b33 4c37 483b 4235 6028 e1b6
00000080: 7059 d336 f687 6cb7 84fe e3b6 e097 4db8
00000090: 9a73 2537 7729 dc36 3e2e 0f38 f3d2 bc36
000000a0: 3d79 2e38 d0ef b0b4 1e94 0db7 071c fb37
000000b0: e88e 90b7 f9b6 dc37 1000 5db6 1cd9 aab7
000000c0: f218 46b7 aa04 6a37 c4e6 a7b7 235a c1b6
000000d0: 70e8 af36 f392 2738 0c86 9b36 58a3 4137
000000e0: 5635 2337 53be 9637 b098 deb7 b82b 2db6
000000f0: abf9 1cb7 d814 9db7 08a6 5cb7 b0d7 bd37
00000100: ef79 3b37 2253 21b7 27dc a336 eb26 a9b7
00000110: 4b79 1ab7 8237 0537 0a9c b3b6 bc41 1536
00000120: 042c 1937 180f 71b6 fac9 bcb7 36e3 11b8
00000130: e76c 08b7 02ac 1fb8 065f aeb6 e100 e0b6
00000140: 5162 92b5 eca3 11b8 43b3 92b7 65ed 1838
00000150: b2fa 17b7 e48a 14b6 f77a 6237 a1f8 e737
00000160: c8fa 6e36 05f7 d0b5 c228 e7b5 641f ce37
00000170: 9479 24b8 5da4 05b6 f77b a9b7 9d5a edb6
00000180: 231b cf36 6704 c6b6 9bd7 bb36 b4a1 88b7
00000190: 2f61 4536 d636 4437 8234 8236 92be 8b37
000001a0: 34e3 04b7 8ecf 14b7 da0f 6db7 8bfe 0337
000001b0: 12cc 1e37 5eba 7cb6 e223 12b7 6acd 34b7
000001c0: 0f4b 0cb8 3225 9737 e290 df37 e888 c4b5
000001d0: b34a 11b8 1352 1bb7 308f 9e37 a42d d237
000001e0: 0a44 4537 709a e336 4dfe 65b6 6c2e 2537
000001f0: 4d59 fd37 0823 95b7 a43d 7b37 e552 01b8
-2.5066465e-06 7.959443e-06 -3.085738e-06 -9.122965e-06 9.428241e-06 8.23225e-06 -3.859608e-06 -2.5603727e-05
-7.956733e-06 -1.6768125e-05 -2.3237985e-06 -1.716247e-06 -1.972684e-06 -6.1284254e-06 -9.687901e-06 1.000243e-05
-5.533818e-05 6.911478e-06 4.4137832e-06 -2.8402035e-05 -6.992318e-06 9.818982e-06 6.994951e-06 -6.3027646e-06
4.7139747e-07 -1.617463e-05 -1.1125312e-05 -6.5615773e-06 1.0643484e-05 1.2171334e-05 7.23569e-07 -6.710223e-06
6.298702e-06 -1.4098352e-05 -6.7947567e-06 -4.9017253e-05 9.861682e-06 6.561338e-06 3.4136923e-05 5.6273943e-06
4.1597745e-05 -3.295704e-07 -8.438741e-06 2.9934583e-05 -1.7232684e-05 2.6311247e-05 -3.2931603e-06 -2.0366679e-05
-1.1807528e-05 1.3948573e-05 -2.001541e-05 -5.7623415e-06 5.2424657e-06 3.995276e-05 4.634965e-06 1.1541728e-05
9.727975e-06 1.797002e-05 -2.6535563e-05 -2.5804457e-06 -9.356455e-06 -1.8725565e-05 -1.3151679e-05 2.2630993e-05
1.1174458e-05 -9.615704e-06 4.8834077e-06 -2.0164493e-05 -9.207356e-06 7.940342e-06 -5.352781e-06 2.2240993e-06
9.129759e-06 -3.5920584e-06 -2.25054e-05 -3.47823e-05 -8.1315875e-06 -3.806875e-05 -5.1966663e-06 -6.6758225e-06
-1.0906462e-06 -3.4723358e-05 -1.7488032e-05 3.6460715e-05 -9.058671e-06 -2.2134564e-06 1.349928e-05 2.7653123e-05
3.5610738e-06 -1.55691e-06 -1.7222703e-06 2.4571731e-05 -3.9213875e-05 -1.9914216e-06 -2.0204096e-05 -7.073699e-06
6.17224e-06 -5.9013723e-06 5.598134e-06 -1.6287762e-05 2.9411856e-06 1.1695278e-05 3.8804146e-06 1.6658832e-05
-7.920713e-06 -8.8698125e-06 -1.41299915e-05 7.867474e-06 9.465048e-06 -3.7659406e-06 -8.710633e-06 -1.0776663e-05
-3.3448505e-05 1.8017923e-05 2.6651138e-05 -1.4642983e-06 -3.4640263e-05 -9.257829e-06 1.8901745e-05 2.5055204e-05
1.1757957e-05 6.783106e-06 -3.4271682e-06 9.845575e-06 3.0201534e-05 -1.7778497e-05 1.4975118e-05 -3.08332e-05

features.11.weight f4 [128]
00000000: 643b 743f 04ef 823f bfd3 803f 5916 563f
00000010: c90e 7c3f 33c9 833f 1c5a 7e3f 22a9 843f
00000020: 10af 803f 10b1 833f a57e 903f 308c 803f
00000030: b1e4 743f a02f 893f a76f 853f fb41 833f
00000040: a366 813f 2fbd 793f a438 813f 5c66 913f
00000050: 3c71 843f a849 8e3f 83ff 823f 87b8 863f
00000060: 01c2 883f 06c3 883f e071 773f 7c44 853f
00000070: f1e6 8a3f c1c7 803f 8a18 7a3f 73e9 823f
00000080: 249c 833f aa56 883f 04c7 893f 9b66 8e3f
00000090: 759e 813f d3bb 893f c9e5 7d3f f72f 843f
000000a0: 5812 873f 2365 843f 743e 7f3f 412a 8c3f
000000b0: df83 843f afe8 7a3f e8ed 853f 19c4 8a3f
000000c0: 3b7f 883f 8be2 833f 5b01 823f 1187 813f
000000d0: 97a7 883f 2ded 853f e2e2 863f 5e6e 813f
000000e0: aba7 833f 84e9 8f3f 44c9 813f 5e46 883f
000000f0: e524 823f 684d 7f3f db96 823f 98a0 7f3f
00000100: 9c24 823f 5361 8a3f 887a 833f 091d 863f
00000110: a092 863f 9c73 873f e7f6 7c3f 6b11 843f
00000120: 5ca3 873f 9623 803f e3a7 643f 5c3b 853f
00000130: 8435 8a3f 4289 8d3f a2dd 863f 2d19 8d3f
00000140: 354d 803f 9347 8a3f eb7e 8a3f aa2b 8a3f
00000150: 8938 853f e6fc 7b3f 6766 803f 742e 793f
00000160: 00b3 873f af17 803f 9856 803f 0e21 833f
00000170: d276 843f 51ec 883f 1a4c 853f be2f 743f
00000180: d039 883f 8c0f 6d3f 4eea 833f d8c1 833f
00000190: c564 833f b8f7 873f 9553 843f 8fac 783f
000001a0: 1ba2 863f 847b 8b3f ed3a 8c3f 1fce 7d3f
000001b0: d092 803f 124b 7c3f 5809 813f 1ce7 7e3f
000001c0: a8ed 883f c356 873f b5e8 883f 7321 8e3f
000001d0: 08a5 793f b5ff 753f e477 8a3f ef69 8b3f
000001e0: dcfc 723f 8b2a 883f 491d 863f 0e6c 873f
000001f0: 10ea 783f a0bd 723f d7f6 863f 1291 873f
0.9540312 1.0229192 1.006462 0.8362785 0.9846006 1.0295776 0.99356246 1.0364115
1.0053425 1.028841 1.1288649 1.0042782 0.95661455 1.0717659 1.0424699 1.0254511
1.0109447 0.97554296 1.009541 1.1359363 1.0347056 1.1116228 1.0234226 1.0525063
1.0684205 1.0684516 0.96658134 1.0411525 1.0851728 1.006096 0.97693694 1.0227493
1.0282025 1.0651448 1.076386 1.1125063 1.0126482 1.0760444 0.9917875 1.0327138
1.0552473 1.0343364 0.9970467 1.0950395 1.0352744 0.98011297 1.0463228 1.0841094
1.0663828 1.030351 1.0156664 1.0119344 1.0676144 1.0463005 1.0537989 1.0111806
1.0285543 1.1243138 1.0139546 1.0646474 1.0167509 0.9972749 1.0202287 0.9985442
1.0167422 1.0810951 1.0271769 1.0477611 1.0513496 1.0582156 0.98814243 1.0317816
1.0596728 1.001086 0.89318675 1.040874 1.0797582 1.1057513 1.0536387 1.1023308
1.0023562 1.0803093 1.0819982 1.0794575 1.0407878 0.9843277 1.0031251 0.97336507
1.0601501 1.0007228 1.0026426 1.0244462 1.0348761 1.0697118 1.0413849 0.9538535
1.0642643 0.9260185 1.0305879 1.0293531 1.0265127 1.0622473 1.0338007 0.97138304
1.0518221 1.0897069 1.0955483 0.9914264 1.0044804 0.9855205 1.0080976 0.99571395
1.0697527 1.0573353 1.0696017 1.1103958 0.9751744 0.960933 1.0817838 1.0891703
0.9491708 1.0637983 1.0477687 1.0579851 0.9723215 0.94820595 1.054408 1.0591147

features.11.bias f4 [128]
00000000: 52c5 563b 8be5 17bd 2310 1b3d 9ed0 9e3c
00000010: c9fa 0b3d ee3e 08bd 5dbd 95bc c2ce 9e3c
00000020: 6efb eabc 41ab 5a3d e7f8 443d 21b2 1b3d
00000030: de0b 453c a3e7 30bc 8821 c03c 1e62 9bba
00000040: 303f 0a3d 4240 fdbc 651c 3cb8 a191 29bd
00000050: 4ba6 83bd f195 953d fc6b cfbc 808b 4a3c
00000060: baa8 823b 62a6 6bbd 9c7b 563b a20b 88bb
00000070: dbfa ccbc 65e5 203d 4ee6 053d 6840 90bc
00000080: b082 5cbc b6f8 32bd 49a4 3f3d 7194 963d
00000090: 8a8d 27bd 592b 1dbd 3a94 1e3d 1c79 b33c
000000a0: 1e9f 0b3d 92bb 36bc 7494 90bd 32ef 4f3d
000000b0: 579c 9f3c cddd 0ebc 521b 88bd 7c4b 873d
000000c0: 649a fabc d287 193c 6ba9 d43c 2495 11bc
000000d0: b529 043d a34a 453d 8d47 54bb dffe 393c
000000e0: 3d06 33bc 455e b2bc 43af 0d3d 413f 67bd
000000f0: 5102 46bd a81b 483d 70d8 a33c f140 c73c
00000100: d092 1bbc fa86 6b3d f12d 67bd 5d48 a93c
00000110: d670 6abb eb96 2a3d d872 22bd 224d 1c3d
00000120: 9b4d 89bd a057 53bd f9c8 e7bb 5ec0 103c
00000130: 6040 3e3d c583 243d ad0b f7bc f688 633d
00000140: aa5d 36bd 7951 203d b144 28bd 01eb 413d
00000150: def3 59bd f4b1 b2bc 7be7 7fbc 69f3 463d
00000160: 8f43 7d3d c4a1 28bd a3b3 23bd 283b 0b3d
00000170: 132c 3b3c abf2 ccbd 5363 303d ae3d 3c3d
00000180: b1f9 033d 35b9 bf3c 5973 83bd 9d07 43ba
00000190: 04d7 0ebd 579b 50bd e13e 173c 707d fd3c
000001a0: 0cb7 25bd 13f7 9cbc 0108 873d b274 2abc
000001b0: 846d 303d d18e 34bb 75d2 203d 27ca 0dbd
000001c0: e245 903c d68e 70bd 128b 623d 4d1a 48bd
000001d0: 2469 ba3b 3960 bd3c bea3 163d d805 0a3d
000001e0: 2786 113c d590 fabb bc53 75bd 306b 32bd
000001f0: 43ba 233d 85ed b63c f6d3 af3c ab50 0cbd
0.003277142 -0.037084144 0.037857186 0.019386586 0.034174714 -0.03326314 -0.018278772 0.0193857
-0.028684344 0.053385977 0.048088934 0.038011674 0.012026755 -0.010797414 0.023453489 -0.0011854803
0.033751667 -0.03091443 -4.4849137e-05 -0.04139865 -0.06428202 0.0730399 -0.025320046 0.012362361
0.003987399 -0.057531722 0.0032727486 -0.0041517774 -0.025021961 0.039281268 0.03269034 -0.017608836
-0.013458893 -0.04369422 0.046787534 0.07352532 -0.040906467 -0.038371418 0.03871558 0.021908335
0.034087293 -0.011153119 -0.07059565 0.050765224 0.019483728 -0.008719874 -0.06645836 0.066061944
-0.030591197 0.009370761 0.025959691 -0.008885656 0.032266337 0.048166882 -0.003239128 0.01135227
-0.01092678 -0.021773467 0.03459097 -0.056456808 -0.048342053 0.0488545 0.020000666 0.024322959
-0.009495452 0.05750177 -0.056440298 0.020664388 -0.0035772822 0.041647833 -0.039660305 0.038159497
-0.06704255 -0.051597238 -0.0070735184 0.008834926 0.04644811 0.040164728 -0.030156935 0.055550538
-0.04452292 0.0391402 -0.041081134 0.047343258 -0.053211085 -0.02181337 -0.015619154 0.048571978
0.061832007 -0.041169897 -0.039966237 0.033991963 0.011424082 -0.10007223 0.043063473 0.04595726
0.032220546 0.023403743 -0.06418485 -0.0007439794 -0.034873024 -0.050929394 0.0092313 0.030943602
-0.04045777 -0.019160783 0.065933235 -0.010403799 0.043073192 -0.0027550946 0.039263207 -0.034616616
0.017611448 -0.05872997 0.05530841 -0.048853207 0.0056888033 0.023117172 0.03677725 0.03369698
0.008882082 -0.00764666 -0.05989431 -0.043559253 0.039972555 0.022330055 0.021463376 -0.03425662

features.11.running_mean f4 [128]
00000000: 0694 fcbd 47a1 fbbd 7e27 90be d0bb a5bd
00000010: a648 d6be b485 2c3d 4f3e a83c 8582 30bd
00000020: 1db8 dcbd a45d 6cbe 247f 943e ed19 88be
00000030: b07c 59be fb91 193e c5bf debe 214e 97be
00000040: 3e25 bdbe 0aa9 703e a91a 843e 4af5 4f3e
00000050: 393f ac3d e192 1f3e 3f96 9d3d f5c5 c7bd
00000060: 3b2d e43d 04e0 ec3d 0c36 43bd 5eaf 6bbd
00000070: cc21 9d3d 36cc f7be 47f8 bdbe 79d6 7a3d
00000080: 1664 203d 25c2 2a3e 502f a5be 9eca a3bd
00000090: 5ad4 003e 681c f73d ebe6 ffbd 35aa 3abe
000000a0: 701c 70be fd97 bebd 56ae 1a3e 47ab 7bbb
000000b0: 6e07 29be 70cd 213e ab8e a83d e22e f2bc
000000c0: b8d2 0e3e 78b0 98be f57f b7bd 78fb 3ebc
000000d0: f885 babd 2234 f3bd 4a26 ea3d fb9c bbbe
000000e0: ce24 8ebd 0ed4 2b3e 0a9c 0f3e 20ee 83bd
000000f0: bef7 db3d 8ee1 15bb 46c9 ad3b ee54 3abe
00000100: 95f9 0c3e 604e e0bd dc9b 133e fb4d de3d
00000110: 3633 34be 16cf 00be 1eca 3c3e 4595 f13c
00000120: 0a7e d73d 9a4e 0f3e 542a 143e b261 85be
00000130: 948c eabd 4280 663d a53b 083e 46df dfbd
00000140: 199f 223e 9d27 0bbe fdcc 033e b76d a63d
00000150: 9246 c83d 8451 103e 73a0 af3d 3832 c8be
00000160: c5be 98be a5c5 2c3e c523 183e 05dc b9be
00000170: ed79 3fbd a644 823c acfc 95be 10c5 49bd
00000180: 0d08 ce3d 9c07 a4be 4988 313e c786 13bc
00000190: b04e dc3d a3cf 80bb d2d4 aa3d 7dc6 c3be
000001a0: a2fe 4f3d 5efa 9b3d bead 44be 2f17 f73c
000001b0: 0b3b 21be f1e5 33be 3e88 7dbe 13f6 b03d
000001c0: 7189 f23d 999c a93d ecda 8fbe 03b3 233e
000001d0: 4c49 37be 2aae b8be 64c1 7abb bec9 09be
000001e0: f66b dfbe b4a8 133e a775 eb3d c619 103e
000001f0: 54de dbbe fb8f abbe 5161 11be f68f 98bd
-0.12332921 -0.122866206 -0.2815513 -0.08092463 -0.418523 0.042119697 0.020537524 -0.043093223
-0.10777304 -0.23082596 0.2900325 -0.2658228 -0.21238971 0.14997093 -0.43505684 -0.29551795
-0.36942476 0.23501983 0.2580159 0.20308414 0.08410496 0.15583374 0.07694673 -0.09754554
0.111414395 0.11566165 -0.047658965 -0.05754029 0.07672462 -0.48397988 -0.37103483 0.061239693
0.03915795 0.16675623 -0.3226266 -0.079976305 0.12581006 0.12065965 -0.12495216 -0.18228991
-0.23448348 -0.09306333 0.15105566 -0.003840165 -0.1650674 0.15801024 0.08230337 -0.029563371
0.1394757 -0.29822135 -0.08959953 -0.0116566345 -0.09107584 -0.11875178 0.11433084 -0.36643204
-0.06940614 0.16780111 0.14024368 -0.06441903 0.107406124 -0.0022870037 0.0053035347 -0.1819646
0.13767083 -0.10952449 0.14414924 0.10854717 -0.1759766 -0.12578997 0.18436477 0.029490123
0.10522087 0.13994828 0.14469272 -0.26051098 -0.114525944 0.05627466 0.13304003 -0.10931258
0.15881003 -0.1358933 0.12871166 0.08126395 0.09779085 0.14093596 0.08575525 -0.39100814
-0.29833046 0.1687227 0.14857395 -0.36300674 -0.046747137 0.015901875 -0.29294336 -0.0492602
0.10060129 -0.32037055 0.17337145 -0.009004301 0.10757196 -0.003931002 0.083413735 -0.38237372
0.050779946 0.07616113 -0.19206902 0.030162422 -0.1574518 -0.17568184 -0.24759004 0.08640685
0.11842621 0.08281822 -0.28096712 0.15986256 -0.17899054 -0.36070377 -0.0038262242 -0.13455865
-0.43637055 0.14419824 0.1149705 0.14072332 -0.4294306 -0.33508286 -0.1419728 -0.07449333

features.11.running_var f4 [128]
00000000: d3dd 2d3d c987 a33d 0a81 733d b249 dc3c
00000010: 5c79 f03d f665 fe3d 3853 ae3d 4315 733d
00000020: 8b52 703d c11e b73d eab2 a43d 0c7b 573d
00000030: 85fc 373e e6eb 593d 0617 3a3d 0a94 373d
00000040: e43d 383d a996 b33d 0c62 953d d524 a73d
00000050: 3c81 913d 644e 2d3d 60c3 953d 6bdb 853d
00000060: 83e6 6c3d bc81 503e 3a6e 8f3d 55ef 9f3d
00000070: 59d3 a93d 3c32 ad3d 6246 af3d a1cd 823d
00000080: e696 cf3d 1de3 dc3d e168 643e aa6f 6c3d
00000090: 1263 163e 62de 053e bf87 253d c71a 953d
000000a0: fe61 8f3d f0e8 063e 385e 093e ae27 b93d
000000b0: 7e49 3e3e 2886 903d ff4b 6c3d 5c16 573d
000000c0: 6a11 643d bbd6 363d a56c 883d 50b3 7f3d
000000d0: 0fa5 a83d 9978 793d b88c 573d f633 193d
000000e0: 96e2 173e a21d 8f3d f4c8 a33d cd63 a13d
000000f0: 9f66 f53d 103c 473d b013 593d 3fbe 573d
00000100: c32c 8b3d b48b ae3d 6cc6 2c3e 34e3 9f3d
00000110: c465 703d bafc 8c3d da22 b23d eeaf 773d
00000120: d43e ae3d 136b db3d fca3 973d 27d6 703e
00000130: 7660 9b3d caf1 a33d 1dca 1b3e 79fa 4c3d
00000140: 90d7 c23d cee8 b93d f096 ec3d e230 213d
00000150: 9659 223e a362 d03d 99f4 033e 8cac 6b3d
00000160: 6078 593d 46b6 ea3d 4876 9b3d e490 863d
00000170: f281 9b3d a5cd b73d a8e4 833d 8075 523d
00000180: 467f c93d cdba b23d 7521 9e3d 05dd 863d
00000190: 3dfd 353e 2254 923d e613 863d 2b39 aa3d
000001a0: 0f79 263e c429 563d c54f 693d e362 003e
000001b0: 9a32 473d fe25 703d 222f 593d bf53 493d
000001c0: 6837 703d 3078 a13d adf2 393e 13a5 953d
000001d0: 4541 8a3d 4198 103d 41db a63d 796b 9f3d
000001e0: 6416 7f3d aa46 bf3d 38ae 0a3e e92a 163e
000001f0: 14bc 533d 703a 9c3d 4eda 8d3d d586 523d
0.042447876 0.07984883 0.059449233 0.02689061 0.117418975 0.12421791 0.085119665 0.05934645
0.05867247 0.08941413 0.08041938 0.05260758 0.17967422 0.053203486 0.045432113 0.044818915
0.0449809 0.087689705 0.072940916 0.08161322 0.071047276 0.042311087 0.073126554 0.06535991
0.05783702 0.2036199 0.07003446 0.07809321 0.082922645 0.08456847 0.08558346 0.06386877
0.101362035 0.10785506 0.22305633 0.05772368 0.1468623 0.13073114 0.04041266 0.07280498
0.070011124 0.13174796 0.13414848 0.090407714 0.18582723 0.07056838 0.057689663 0.052511558
0.05568067 0.044638377 0.06661347 0.062426865 0.082346074 0.060906027 0.052624434 0.03740307
0.1483253 0.06988074 0.07997313 0.078803636 0.11982464 0.048641264 0.05299729 0.052671667
0.06795647 0.0852274 0.16872567 0.078070074 0.0586908 0.06884141 0.08698054 0.060470514
0.08508077 0.10713782 0.074043244 0.23519193 0.07586758 0.08005102 0.15213819 0.050043557
0.095137715 0.09077607 0.115522265 0.03935326 0.15854487 0.101750635 0.12886275 0.0575376
0.053093314 0.11460547 0.0759092 0.065706044 0.075931445 0.089747705 0.06440097 0.051381588
0.098387286 0.08727036 0.07721225 0.06585125 0.17772384 0.07144953 0.06546764 0.08311685
0.16257118 0.052285925 0.05696084 0.12537722 0.04863224 0.058629982 0.053023465 0.049152132
0.05864659 0.07884252 0.1815898 0.07306876 0.067507304 0.03530145 0.08147288 0.07784171
0.062277213 0.0933965 0.13543022 0.14664806 0.051693037 0.076283336 0.06926404 0.051398117
