checkpoints/cnn_only_seed123_20251128_160842.pt (torch, 188127 bytes, 22 tensors)

features.0.weight f4 [32, 1, 7]
00000000: e935 18be ad35 1838 15d0 3ebe a233 d33d
00000010: 3f39 99be 7e79 803e 56c8 7abe 3caf 9ebe
00000020: f06c 57be f429 4b3e 1fb9 26bd b343 543e
00000030: 3675 70be a642 38be 9156 1dbe edfe a6bd
00000040: eef5 96be 8ec1 6b3e 06d8 e0bd 7a1b ce3d
00000050: f5cc 843e ae0b a93d 4515 c63d ab62 953e
00000060: c5f7 41be a770 a23d 465c 27be 3169 7f3e
00000070: 60b9 783e 5251 bcbe c3cc 623e 41da 903d
00000080: 3393 4e3d 178d ef3d 9b83 aa3e 88ce 0dbd
00000090: 3a3d 88be c756 b9bd 5747 4dbe bd6d 693c
000000a0: dd86 87bd 7c5a 34be b4e8 afbd 291e 8f3e
000000b0: 937b f3bd 9295 c5bd 1ea3 1abe 4f6c 373b
000000c0: 4d04 a13e 3882 553e 7495 c03d c04b 1f3d
000000d0: 9c62 583d eaba ef3d b9c7 95bd f4e1 c1be
000000e0: 3a18 61be 757b a93e 5faf 093d 1fb9 93be
000000f0: 91ab 9a3d a10c a53e 1212 adbe e191 83be
00000100: 99f9 8ebd 47b6 c53d bdde e9bb e47d ae3c
00000110: 05c4 99be 07f4 673e 07ea 9b3e 63e5 443e
00000120: de54 9ebe e9c8 b2be e947 de3d e796 27bd
00000130: 2fc1 d03d a15d c5be 389a 27bd 08da 7c3e
00000140: 8d54 213e 10cf 33ba 66ce 7a3d 1451 4abd
00000150: ac28 50be 34e5 0ebe ec18 66be 8579 a23e
00000160: 23e9 573e 512c 093e 01c1 91be 0432 8a3e
00000170: d851 a13d 651d 233e 755e 5abe f78d 983a
00000180: 01db 993e 5719 823e b20f 9a3e 3126 afbd
00000190: 9a9f 8f3e 1ecc 96be 5e31 0f3d 0cc4 59be
000001a0: ae19 cfbd 049e 90bd 6bfa 5d3d 021b 9a3e
000001b0: c44a fe3d de98 adbc 812d 763e 8a2f 4cbe
000001c0: 90cf 4d3e 3153 01bd 27ac 83bd 1f8f 323d
000001d0: 0fd7 95be 8214 0f3d 7516 e83d c687 bb3e
000001e0: b266 0dbe 21c6 8cbc f4c8 833e dcdf 48be
000001f0: 3178 a23e 7e84 4abe c07f 3a3e c86e da3d
00000200: 4965 e63c 7cce 533e e167 65be fa01 c83c
00000210: 5f1c 94bd cc37 83be 1551 86bd 2e0e 56be
00000220: e29d 473e 1696 8a3d abb8 913d 7e53 9ebd
00000230: 8fc9 543c 83e0 e3bd 3fc7 db3d 69fb b83e
00000240: 7583 583d 74f8 2ebe 7da2 73be 48d5 cdbc
00000250: d3c2 90be 0af4 85be 6f7f 6bbe 2de5 03be
00000260: 6bfe 7c3c 5fb3 753e 9e13 fd3d 6e65 863e
00000270: 9ddc 87be 9511 143b 4d20 babe 2062 433e
00000280: 3cab 633d f44b 6d3e 9073 a9be 66a1 2f3e
00000290: 9722 3b3e 5ff3 563e 1a3b ea3d 0841 bd3e
000002a0: acc9 7c3e 3083 8a3e dd7a f1bc 836b 92be
000002b0: 8176 ae3a 1c87 903d f8e1 8bbe 1c40 35be
000002c0: 8334 a5be 162d c9bd 2558 b73e c3e2 c83d
000002d0: d781 a03c 5c81 923d 6d27 913e 58e3 92be
000002e0: 61a8 81be 73e6 c6bd dc3e 46be f0e6 5c3e
000002f0: 48ff 963e d7a0 b5be df7e 7ebe 11a5 7cbe
00000300: a0c6 323e 78a6 9d3e b407 7ebe 12bb 0fbe
00000310: 7fcc 8d3d b117 9cbe 405e 7c3e 826d 9d3c
00000320: d76a 17be 54fb 473c b0a7 183e c0da 01be
00000330: 4a68 86be 27e2 0b3d 83a8 023d 5050 be3c
00000340: 0c36 30bd 3b93 843e ad39 dabd 1b86 cebc
00000350: 2405 2c3e dbf6 6dbe 7358 c33d 7d54 c1bd
00000360: efad 343e 6d80 86be dda0 3a3c 7523 ab3d
00000370: 99f7 23be 1c0c 21be 4861 5f3e a180 c3bc
-0.14864315 3.6289613e-05 -0.18634064 0.103125826 -0.29926488 0.2509269 -0.24490485 -0.30993068
-0.2103765 0.19840223 -0.04070389 0.2072895 -0.23482212 -0.17994174 -0.15365054 -0.08154092
-0.29484504 0.23023054 -0.10978703 0.100638345 0.2593762 0.08254181 0.096720256 0.2917684
-0.18942173 0.07931643 -0.16343793 0.24942471 0.24289465 -0.36780792 0.22148423 0.07072879
0.05043335 0.116968326 0.33303532 -0.03462079 -0.26609212 -0.090497546 -0.20046745 0.014247355
-0.0661752 -0.17612642 -0.085893065 0.27952698 -0.11888804 -0.09647669 -0.15101287 0.002798814
0.31448594 0.20850456 0.09403506 0.0388906 0.052828416 0.11705573 -0.07313485 -0.378677
-0.21981898 0.33102003 0.033614513 -0.28852174 0.07552255 0.32236198 -0.3380285 -0.25697234
-0.06981201 0.09653907 -0.007137148 0.021300264 -0.30032364 0.22651683 0.30451986 0.19228129
-0.30924124 -0.34918907 0.108535595 -0.040915396 0.10193097 -0.38547996 -0.04091856 0.24692547
0.1575491 -0.0006859163 0.061231993 -0.04939373 -0.20328015 -0.13954622 -0.22470444 0.31733337
0.21085028 0.13395812 -0.28467563 0.26991284 0.078769386 0.15929182 -0.21325095 0.0011638989
0.300499 0.25409958 0.300901 -0.08552206 0.28051454 -0.29452604 0.03495919 -0.21266192
-0.1011232 -0.07061389 0.054193895 0.3009873 0.12416604 -0.021191057 0.24040796 -0.1994001
0.2009871 -0.031573478 -0.0642932 0.043593522 -0.2926564 0.034931667 0.11332408 0.36627024
-0.13808706 -0.017184319 0.25739253 -0.19616646 0.31732324 -0.19777104 0.18212795 0.10665661
0.028124468 0.20684236 -0.22402908 0.024415005 -0.07231974 -0.25628507 -0.06558434 -0.20903847
0.19493821 0.06766908 0.07115301 -0.077307686 0.012987508 -0.111268066 0.107313626 0.3612931
0.052859742 -0.17086965 -0.23792453 -0.025126114 -0.2827364 -0.2616275 -0.22997831 -0.12880392
0.015441517 0.23994206 0.12357257 0.2624926 -0.26535502 0.0022593488 -0.3635277 0.190804
0.055583224 0.23173505 -0.3309598 0.17151412 0.18274914 0.20991276 0.11437054 0.36963677
0.24686307 0.27053213 -0.029477531 -0.2859765 0.0013310463 0.0705702 -0.27320838 -0.17700237
-0.32266626 -0.098230526 0.35809436 0.09808876 0.019593162 0.071535796 0.28350392 -0.28689075
-0.25323775 -0.097119235 -0.19359916 0.2157247 0.2949164 -0.35474274 -0.24853085 -0.24672343
0.17458582 0.30791068 -0.24807626 -0.14036205 0.0692377 -0.30486825 0.24645329 0.019217256
-0.1478685 0.012205917 0.14907718 -0.12681103 -0.2625144 0.034151223 0.031898987 0.023231655
-0.043020293 0.25893578 -0.10655532 -0.02521043 0.16798836 -0.23238699 0.09538355 -0.09439943
0.17644475 -0.26269856 0.011390892 0.08356372 -0.1601242 -0.15727276 0.21814454 -0.023865046

features.0.bias f4 [32]
00000000: ab99 ceb6 25e4 bd36 197a 4fb7 0c4c 0e37
00000010: 7140 26b6 ee60 39b5 c120 27b7 a0bd 82b6
00000020: 192b 2937 2470 2336 5cc7 1bb7 0a6f ea37
00000030: f63e 5cb8 9295 7cb4 fc3c bbb7 e0f6 b435
00000040: c239 a237 73a5 8eb6 3117 9b37 c20e 81b7
00000050: 741b 64b7 8020 53b6 5c80 8db7 9c76 dbb4
00000060: a430 a437 3825 10b5 375b 7b36 00f9 9ab7
00000070: b04e 2b38 3202 1637 9780 9437 356f abb6
-6.1571677e-06 5.6591985e-06 -1.23665895e-05 8.481566e-06 -2.4773437e-06 -6.905892e-07 -9.961602e-06 -3.896377e-06
1.0083219e-05 2.4354167e-06 -9.285137e-06 2.794668e-05 -5.2510724e-05 -2.3523742e-07 -2.2320535e-05 1.3482895e-06
1.93388e-05 -4.2511906e-06 1.848824e-05 -1.538487e-05 -1.3596251e-05 -3.1460368e-06 -1.6868282e-05 -4.0878228e-07
1.9572974e-05 -5.369834e-07 3.7455009e-06 -1.847418e-05 4.084286e-05 8.941208e-06 1.7702854e-05 -5.1091433e-06

features.1.weight f4 [32]
00000000: 9256 783f ac22 723f f62e 7c3f fbf9 703f
00000010: 5301 5e3f 1379 793f 3301 703f b1fb 753f
00000020: ee5c 7f3f 7659 7d3f 04ad 793f e052 7e3f
00000030: 72ec 803f 559c 733f 4b59 7c3f 7608 663f
00000040: 6f57 803f 14d0 683f d84e 6c3f 2c4c 763f
00000050: a44f 803f b512 7f3f c14a 803f d6e2 633f
00000060: aa05 803f a37f 743f ba51 7f3f ca75 7a3f
00000070: 15d5 783f b321 7b3f 7c1b 7e3f d3cf 733f
0.97007096 0.94584155 0.98509157 0.9413144 0.8672077 0.9745037 0.9375183 0.96087176
0.99751174 0.9896463 0.97529626 0.9934521 1.0072157 0.9516042 0.9857375 0.8985666
1.0026683 0.909425 0.92307806 0.9620998 1.0024304 0.9963792 1.0022813 0.89018
1.0001729 0.9550726 0.9973408 0.9783598 0.9720014 0.98098296 0.9926069 0.9523899

features.1.bias f4 [32]
00000000: e6e1 b3bc 8fb5 57bc 0495 efbd 63a4 4ebd
00000010: 3b5a f7bd dbd0 16bd b926 85bc 9842 9dbd
00000020: 33b0 b7bc 755b e8bc 7125 85bd 9287 ae3d
00000030: 6a49 b2b8 d2ae a5bd 2e04 453c 472c 80bc
00000040: 2872 acbd 7272 42bd a575 12bc 96d9 debc
00000050: cf93 bbbd b46c 87bd 4004 9ebd 57de 95bc
00000060: 1a80 a33c e3e4 6f3d b255 5b3d 8157 d83b
00000070: bdb6 01bd 4cb2 8a3d e2db 1ebe eb05 e0bc
-0.021958303 -0.013165846 -0.11698344 -0.05044974 -0.12077757 -0.036820274 -0.016253816 -0.076787174
-0.022422886 -0.028363923 -0.06501282 0.08521952 -8.501376e-05 -0.08089985 0.012024922 -0.015646113
-0.08420211 -0.047472425 -0.008939181 -0.027203362 -0.091590516 -0.0661253 -0.077156544 -0.018294496
0.019958545 0.058567893 0.053548522 0.006602228 -0.031668413 0.06772289 -0.15513566 -0.027346572

features.1.running_mean f4 [32]
00000000: 88d5 9cb9 a1c7 9cb9 fcc6 bab7 ca7a 8239
00000010: 985c cd39 9990 f7b9 1580 8a38 5064 1d36
00000020: c273 3ab8 9b9e 1bb9 b1e9 33b8 833b 2e38
00000030: 0514 ffb8 a1b7 f539 b833 bbb8 b82d 8539
00000040: 0aef a1b6 1ffb 5e39 deae 1c39 9453 14b9
00000050: 3e00 b037 dab4 c8b9 41f2 0cb8 e387 143a
00000060: e017 d8b7 a885 6c37 5e05 04b8 7583 d4b9
00000070: 1ae2 9138 8617 a1b7 58ae 5d37 59a6 28b9
-0.00029913732 -0.00029903374 -2.2265587e-05 0.00024887017 0.00039169635 -0.00047219245 6.60421e-05 2.3453213e-06
-4.4453664e-05 -0.00014841037 -4.2894568e-05 4.1540257e-05 -0.000121630765 0.00046866856 -8.926488e-05 0.000254018
-4.8260017e-06 0.0002126512 0.00014942462 -0.00014145515 2.0980948e-05 -0.00038281718 -3.3604218e-05 0.00056660007
-2.5760324e-05 1.4097815e-05 -3.147625e-05 -0.00040533734 6.9562535e-05 -1.920365e-05 1.3213219e-05 -0.00016083698

features.1.running_var f4 [32]
00000000: 782a 6c3e 612e 803e 8935 aa3d a8ca 283e
00000010: 980b ca3e bcf3 153f dd8d b73c 03a1 d13d
00000020: fc55 fc3b 452e b13d 0f18 c33c 8089 fc3c
00000030: a7b8 3b3d 9581 143f f768 a63d 0ba2 483e
00000040: a45a 0d3c c1b6 173e 5b9e b63d c7d4 b33d
00000050: 3eda fe3c 3163 033f e83c 4e3c e89d 4f3f
00000060: e41b b83d 9051 963d 6239 713d c89a f93e
00000070: 240c d73b f0bb 8a3d 8833 173c 646f b53d
0.23063076 0.25035384 0.08310992 0.16483557 0.3946197 0.58575034 0.022406513 0.10235789
0.00770068 0.08651403 0.023815183 0.030827284 0.045830395 0.58010226 0.08125489 0.19593064
0.008627567 0.14815809 0.08916923 0.087808184 0.031109925 0.5132323 0.012587763 0.8110032
0.08989695 0.073397756 0.058892615 0.487509 0.0065627266 0.067741275 0.009228595 0.08859137

features.5.weight f4 [64, 32, 5]
00000000: a260 36bd 8060 77bd 077b 743d b8a6 a63d
00000010: 13a6 60bc 9da7 4bbd 5778 2abd 7fe2 633d
00000020: 6928 483d 678d 9e3d ac62 583c 00a2 0b3c
00000030: 7d58 213d 8c53 e43b 350f 3ebc 5552 c13c
00000040: aa62 5f3c 4287 91bc 3689 d1bc c5a9 8fbd
00000050: 73c2 1bbd 8140 0ebd fddf 23bd 3741 71bd
00000060: 17a1 5b3d b954 c6bd 56ca 3e3d 0e00 18bd
00000070: d48d 6f3b 26be b73d 16b5 893c 62de 79bc
00000080: cf33 39bd 4698 12bd 014d 563d b707 54bd
00000090: 4ffc 213d 6b78 a2bc 3072 87bc fc54 5f3d
000000a0: 6ab7 05bd f827 63bc 3b5c 763d 22b0 273d
000000b0: bbb3 433d cfe5 64bd e186 bf3b 096f 9e3b
000000c0: 6093 1abc 1d8e 213d 9119 0ebd 0829 c7bd
000000d0: 3ff3 75bd f99b 9b3c df51 06bc 1bc1 c2bc
000000e0: 58e8 31bd c6a8 4a3d 10f5 3cbd 2b66 a5ba
000000f0: e266 d1bd edd0 63bd 92ad 12ba 734e acbc
00000100: 9944 27bd 1108 36bd dbff 3b3d 41cb 103d
00000110: 2ea1 aa3c 428f 7cbd 0fe8 4c3d 4d3c b33c
00000120: c38a 08bd 7a7e 993c 60d0 263d 1ac9 8abd
00000130: 08d0 28bd 5574 723d 8e63 d1bb e686 5fbc
00000140: 064d 8bbd 750d 8fbd 8075 343d b615 c53c
00000150: cc6c 13bc 10a0 c13c 3a0a 2abd 3e5c 59bd
00000160: c4eb 84bd 624f 8b3c d624 5cbd 5a3f cd3c
00000170: 93a5 683d 6cc0 353c 0d2f 523d 1207 cbbd
00000180: a0e8 9dbb af7d 6ebd 5a84 34bc 464a 473d
00000190: 30f2 56bd 569c 223d bda2 903c 2d8d 3dbc
000001a0: be72 d63d c1e4 15bd 00b4 8bbd f6e8 9cbc
000001b0: ee44 233c 4683 7e3d 3bd4 893c de1c 843c
000001c0: a4eb 493c b4a0 84bd 1396 fe3c 51a6 e0bc
000001d0: e062 7b3d 36cd 0b3d 9c6d 00bd 8dee 56bb
000001e0: fef5 043d 2e91 003d a850 66bd 5fa4 a23c
000001f0: eca9 903d 3052 0cbd 4922 efb9 ccf7 0abd
00000200: e94e b1bd 14d7 f03c 3a63 9ebd 1d4c 63bd
00000210: e092 14bd a2f3 87bb 81d3 1c3d 4bb5 97bd
00000220: 8875 5abd d2b2 19bc 3e57 003d 1b43 95bc
00000230: 2b96 a0bd 5651 d63c 3ad4 33bd 3026 62bd
00000240: c44a 563d 72af bcbd 1371 85bd 5c4b ac3b
00000250: 6719 81bd f618 3a3c 5b0a 913d 415c 6dbc
00000260: c89e 4b3d d654 3c3d 96ff 943d 90f0 67bd
00000270: 6312 94bd e165 0e3d 9d64 03bd 506d bbbc
00000280: a2be 93bd a869 653c d598 d83c c01f 833d
00000290: 7aba 8e3d fd2c 7bbd f2a4 f03b f82f d0bc
000002a0: 53e6 d0bc 265d 60bc ab22 903c 0b2d 803d
000002b0: 7c31 0e3c 81b7 313d c831 4cbd 9867 ed3b
000002c0: 5dd0 8fbc d9d9 0cbd 7cc9 2cbd 6887 593a
000002d0: b97c efbb fff1 a6bc c4c2 133d 78f7 61bd
000002e0: 308b 483c 4836 efbb e668 22bd 1447 06bd
000002f0: 1525 0f3d f301 a8bc 16a3 083d ccbf 44bd
00000300: ba49 49bd d640 0abb 4469 53bd bfc6 e5bc
00000310: 6a66 fe3c faa5 443c 0705 d83b 0e92 2b3c
00000320: daad 60bd e248 543d 0abe f8bc 5255 963d
00000330: 7c36 6b3d 2141 e7bd 69d1 28bd 437e 0dbd
00000340: d662 b33d 2800 e23c 2135 6e3d f5ce 3c3d
00000350: 90c5 59bd a66a 9c3c c1dc b5bd 8e1c 06bd
00000360: fa04 98bd 28b9 d7bd c8a7 babd a212 afbd
00000370: c1db f6bd 08d1 c7bd f573 40bd 95a8 9e3c
00000380: c46f 2b3b d21a 70bd 5135 81bd 0fe6 f43c
00000390: c08f a1bd 419c 81bd 21fc 3dbc d4cf 833d
000003a0: c436 7c3d a981 253d 309a bdbc d0f4 31bc
000003b0: 32b3 08ba e3a0 b23b 623d 15bc c801 6fbd
000003c0: a513 bc3b 854a 54bb 2539 c9bc e1d5 823c
000003d0: c2db 60bd aedd 883c 3deb 6fbc 8cf7 493c
000003e0: 54c8 52bd 7555 8bbd ae27 c4bc 677a 973c
000003f0: 4e87 283d e2b5 5b3d f9ca 423c 9ca7 c0bd
-0.04452575 -0.060394764 0.05968764 0.08137268 -0.01371147 -0.049720395 -0.04161867 0.055635925
0.048866663 0.07741814 0.013207119 0.0085225105 0.03939103 0.0069679674 -0.011600305 0.02359883
0.013634363 -0.017764691 -0.025578123 -0.07014803 -0.038027238 -0.034729484 -0.040008534 -0.058900084
0.053620424 -0.09684128 0.04657968 -0.037109427 0.0036553042 0.08971815 0.016809981 -0.015250774
-0.045215424 -0.03578975 0.05231953 -0.05176517 0.03954726 -0.01983281 -0.016533941 0.054524407
-0.03264562 -0.01386451 0.06014655 0.040939458 0.047778826 -0.055883225 0.0058449362 0.0048350138
-0.009434551 0.03944217 -0.03469235 -0.09724623 -0.06004643 0.018995272 -0.0081982305 -0.02377372
-0.04343447 0.04947736 -0.046132147 -0.0012618949 -0.102247015 -0.05561917 -0.0005595322 -0.021033501
-0.040836904 -0.044441286 0.0458983 0.035350088 0.02082881 -0.06166006 0.050025996 0.02187934
-0.03333546 0.018737067 0.040726066 -0.06776638 -0.04121402 0.059192974 -0.0063900417 -0.013643002
-0.068018004 -0.069849886 0.04405737 0.024058204 -0.008998107 0.023635894 -0.04151366 -0.053066485
-0.06490281 0.017005626 -0.053746067 0.025054622 0.05679853 0.01109324 0.051314402 -0.09913458
-0.004818991 -0.05822533 -0.011017883 0.048654817 -0.05247706 0.039699875 0.017655725 -0.011569303
0.10471104 -0.03659511 -0.06821442 -0.019154053 0.009965165 0.06213691 0.016824832 0.016127046
0.0123242475 -0.06475964 0.03107742 -0.027423056 0.06137359 0.03413125 -0.03135453 -0.0032795996
0.03246116 0.031388454 -0.056229264 0.019853769 0.0706366 -0.034258068 -0.00045611177 -0.033927724
-0.08657629 0.029399432 -0.0773377 -0.05549251 -0.036272883 -0.0041489163 0.038287643 -0.07407626
-0.053334743 -0.009381013 0.0313332 -0.018220475 -0.07841142 0.02616183 -0.043903567 -0.0552122
0.052317396 -0.09213151 -0.06515708 0.005258007 -0.06303673 0.01135849 0.07082053 -0.014487327
0.049711972 0.045979343 0.07275312 -0.056625903 -0.072300695 0.034765128 -0.032078374 -0.022879273
-0.07214095 0.014002241 0.026440063 0.0640254 0.06969161 -0.0613222 0.0073438818 -0.025413498
-0.025500452 -0.013694083 0.017594656 0.06258591 0.00867879 0.043387894 -0.049852163 0.0072450154
-0.01755541 -0.034387443 -0.042184338 0.000829807 -0.0073085693 -0.020379065 0.036074415 -0.055167645
0.012240216 -0.007300172 -0.03965082 -0.03278263 0.034947474 -0.020508742 0.033358656 -0.048034474
-0.049142577 -0.0021095774 -0.05161406 -0.028048871 0.031054694 0.0120024625 0.006592396 0.010471834
-0.054853298 0.05182732 -0.030364055 0.07340492 0.057425007 -0.11291719 -0.041215334 -0.03454424
0.08759086 0.027587965 0.058156136 0.046095807 -0.053166926 0.019093823 -0.08879996 -0.032742076
-0.07422824 -0.105333626 -0.09114033 -0.08548476 -0.120536335 -0.097566664 -0.046985585 0.019367496
0.0026159147 -0.058619328 -0.063089974 0.029894857 -0.07888746 -0.06328631 -0.011595757 0.064361244
0.061575666 0.040406857 -0.023144811 -0.0108615905 -0.00052146905 0.005451308 -0.009108873 -0.058351308
0.0057396465 -0.003239305 -0.024563381 0.015971126 -0.054897077 0.016707268 -0.0146434875 0.012327086
-0.05146058 -0.06803409 -0.023944702 0.018490983 0.04114466 0.053640254 0.011889213 -0.09406969

features.5.bias f4 [64]
00000000: 000d 5634 0933 b5b6 846a 5336 15b4 bfb5
00000010: 7a02 a5b5 c3c0 b1b6 e78f e735 797c 18b6
00000020: dd6f 01b6 4a3f 4133 3c6f 12b6 92e8 d234
00000030: 1961 9136 5cc1 6db5 52e1 fc34 030d 8334
00000040: 2c13 06b6 e99e 3636 a7cd a035 8acf 1db4
00000050: 4860 8e35 4d33 2ab5 50c9 b5b6 f900 52b4
00000060: e602 83b6 8ea9 24b6 4c15 ab36 26cc 5034
00000070: c51b 08b4 0b1e 1536 5fea 6233 5ed9 49b6
00000080: 164d 5936 9490 3eb6 3882 4035 48e0 1e36
00000090: e14c 34b5 36d5 c6b4 495f 0136 c357 aab4
000000a0: 27f4 bdb5 7c03 30b5 ac19 7db5 2136 8eb5
000000b0: af7a 98b6 ce79 ad34 bc78 cfb4 0170 f635
000000c0: 1cb6 cbb6 cf69 06b5 94e1 0536 8d3b dd33
000000d0: 96fa 43b3 1499 9a35 c680 66b6 ae0a 5236
000000e0: a5c6 b5b5 fb75 86b6 da17 5a35 e922 b135
000000f0: 0878 42b5 31b0 9936 9ec0 a6b5 0c00 ed35
1.9935032e-07 -5.4001616e-06 3.150345e-06 -1.428302e-06 -1.2294179e-06 -5.2974515e-06 1.7252722e-06 -2.2722218e-06
-1.928761e-06 4.4993875e-08 -2.1820442e-06 3.9284765e-07 4.3326404e-06 -8.8570755e-07 4.71026e-07 2.441012e-07
-1.9978715e-06 2.7212611e-06 1.1980782e-06 -1.4697267e-07 1.0607846e-06 -6.340459e-07 -5.417656e-06 -1.9558128e-07
-3.9044417e-06 -2.4536598e-06 5.0986764e-06 1.9445778e-07 -1.267609e-07 2.2220217e-06 5.2832885e-08 -3.0077858e-06
3.238039e-06 -2.8396362e-06 7.1715067e-07 2.3674384e-06 -6.71671e-07 -3.7035505e-07 1.9277961e-06 -3.1728823e-07
-1.4152655e-06 -6.557018e-07 -9.42872e-07 -1.0595578e-06 -4.5442353e-06 3.2312386e-07 -3.86446e-07 1.8361026e-06
-6.0710718e-06 -5.007286e-07 1.9949848e-06 1.0301947e-07 -4.5629882e-08 1.1518446e-06 -3.4347627e-06 3.1298655e-06
-1.3543364e-06 -4.007246e-06 8.1246037e-07 1.3197688e-06 -7.24453e-07 4.5802667e-06 -1.2424023e-06 1.765789e-06

features.6.weight f4 [64]
00000000: 99d9 6a3f 0bb2 7c3f 7881 763f 3d85 7b3f
00000010: 6fba 523f 3f35 6a3f 7e5a 803f a766 673f
00000020: 0bd3 753f 3f41 583f 5314 713f 1d8d 7b3f
00000030: 2dbc 753f 143f 5b3f 744c 813f 3e0a 753f
00000040: 3fe9 643f 5707 863f 6466 763f eb84 733f
00000050: f64d 543f e3cd 6e3f 8ef4 853f b74b 7e3f
00000060: 355e 7a3f 5fd0 623f 3176 783f 2f89 5b3f
00000070: 6ed3 803f bc7e 6d3f c598 593f 31c1 633f
00000080: 1272 763f f140 6a3f 0c20 6f3f 7cff 803f
00000090: a475 603f dcec 693f a660 753f 0496 6b3f
000000a0: ef9d 6b3f 3ac1 783f ffa2 7f3f e5d1 763f
000000b0: 4197 833f 2f26 4e3f c3e8 683f c1cd 6f3f
000000c0: d900 733f 8ca2 5f3f dac9 783f 6728 563f
000000d0: 868f 6f3f eb46 7b3f e0b1 853f 6980 813f
000000e0: f4d5 703f 4886 6d3f f23e 753f 6d58 843f
000000f0: cbb7 603f ea1e 6f3f 31d5 5e3f 1ae9 7a3f
0.9173828 0.9870917 0.96291304 0.9825018 0.82315725 0.914875 1.0027616 0.9039101
0.9602515 0.8447456 0.9417164 0.98262197 0.9599026 0.85643125 1.0101457 0.95718753
0.89418405 1.047099 0.96249986 0.9512469 0.8293146 0.9328291 1.0465257 0.9933428
0.978 0.885992 0.97055346 0.857562 1.0064523 0.92771506 0.8499873 0.8896666
0.9626781 0.9150534 0.93408275 1.0077968 0.87679505 0.91377044 0.958506 0.9202578
0.9203786 0.9716984 0.9985809 0.96414024 1.0280534 0.80527014 0.90980166 0.9367333
0.9492317 0.873574 0.97183 0.836554 0.93578374 0.9815509 1.0444908 1.0117313
0.94076467 0.9278302 0.9579917 1.0339485 0.87780446 0.93406546 0.87044054 0.98011935

features.6.bias f4 [64]
00000000: 1dc4 13be 17c9 1bbe 132d 5dbd c898 92bd
00000010: 477c f8bd 5fa0 16be ec75 97bd 36e1 39bd
00000020: 4a0e c2bd c146 81be e607 16be 72b7 03bd
00000030: ccdb f2bd b2b5 c1bd ed07 adbd 9fc7 1dbe
00000040: 9728 5fbe bd55 30bd 73d1 7fbd eead 9abd
00000050: 1bfc d3bd 9a74 f5bd 68f7 81bd 2c4a afbd
00000060: 768a f7bd 3e4b 5bbe e01e 9bbd a974 fdbd
00000070: d0f0 73bd 0b62 4abd ea9d 37be e141 e1bd
00000080: e3df edbd 93be a6bd 366a 41bd f593 cbbd
00000090: 2d21 14be 64a1 07be 3ff6 39be a02a d1bd
000000a0: 36e6 dcbd c142 3cbd dd03 edbd fb32 a3bd
000000b0: 0719 c7bd e8cb 1ebe f279 c4bd ab2c 05be
000000c0: 8e90 37be b12c 17bd dbe5 51be f6d7 60bd
000000d0: c044 9dbd f853 fdbc 1675 9fbd e627 dbbd
000000e0: 92cc 02be 8e7b 9ebd beac cdbd 0154 3fbc
000000f0: 9d10 dabd 0455 bbbd 19e7 99bd da14 edbc
-0.1443028 -0.15213428 -0.053998064 -0.07158047 -0.12133079 -0.14709614 -0.07395539 -0.045380794
-0.09475382 -0.25249293 -0.1465145 -0.03215737 -0.11858329 -0.09458484 -0.08448777 -0.1540818
-0.21792828 -0.043050516 -0.062455606 -0.07552706 -0.1035082 -0.119851306 -0.06346017 -0.08559069
-0.12086956 -0.21415421 -0.07574248 -0.12375767 -0.05955583 -0.049409907 -0.17931333 -0.109988935
-0.11614969 -0.08141818 -0.04722043 -0.0994033 -0.1446578 -0.1324516 -0.18160342 -0.10213208
-0.10786097 -0.0459621 -0.115730025 -0.07968708 -0.097215705 -0.15507472 -0.09593572 -0.1300532
-0.17926237 -0.036907855 -0.20497839 -0.054893456 -0.07679129 -0.030923828 -0.07786004 -0.107009694
-0.1277335 -0.0773841 -0.100427136 -0.011677743 -0.106477 -0.09147075 -0.075147815 -0.028940607

features.6.running_mean f4 [64]
00000000: 5598 b9be 074f 00bf f3b4 23bf 33a4 76bf
00000010: b55a e8be 0c56 ccbe 3dc6 debe 9e01 2dbf
00000020: 5da1 95bf bfa7 523f 8cec fdbe 0644 3ebf
00000030: 8faf d2be c3e2 15bf 3458 1ebf 5634 1fbf
00000040: 9615 423f a0d5 5fbf 0095 8bbf 02c9 63bf
00000050: 46c9 573f fa5a febe d7f7 f2be 6bc6 0dbf
00000060: 713e eebe fb0f 1fbf 8371 dabe d630 523e
00000070: e4a3 45bf 2258 43bf bf95 893f 7513 eabe
00000080: 8614 cabe fa3b 0ebf 956c 66bf efc3 05bf
00000090: d830 c4bb 1955 b9be 4794 08bf 267f 3abf
000000a0: 21b5 f9be 349f 03bf cf10 03bf 9265 d8be
000000b0: 6a0e d3be 62a0 b5be dbfe f3be fe88 d0be
000000c0: 4815 b0be dfc0 a7be 67a5 eebe 4992 183e
000000d0: 1e5d c03e 30a0 09bf 65a4 52bf 3b05 14bf
000000e0: 7e75 57bf bdc2 bebe 6c31 b2be b2d6 13bf
000000f0: 2c46 a43d 1679 01bf ec3c cabd 447e 56bf
-0.36249033 -0.50120586 -0.6394798 -0.963443 -0.45381704 -0.399094 -0.4351062 -0.6758059
-1.1689869 0.8228721 -0.49594533 -0.74322546 -0.41149566 -0.58549136 -0.6185334 -0.62189233
0.7581419 -0.8743534 -1.0904846 -0.8897859 0.84291494 -0.49678785 -0.47454712 -0.55380887
-0.46532014 -0.6213376 -0.42664728 0.20526442 -0.772032 -0.76306355 1.0748824 -0.4571797
-0.39468783 -0.55560267 -0.90009433 -0.52252096 -0.005987268 -0.36197737 -0.53351253 -0.72850263
-0.48771003 -0.514148 -0.5119752 -0.42264992 -0.41221935 -0.35473925 -0.47655377 -0.40729517
-0.34391236 -0.32764336 -0.46610567 0.14899553 0.37571043 -0.5376005 -0.82282096 -0.5782048
-0.84163654 -0.3725795 -0.3480333 -0.57749474 0.08021197 -0.5057539 -0.09874901 -0.83786416

features.6.running_var f4 [64]
00000000: 25b9 1d3f 60d5 5f3f 0102 893f dc47 1a40
00000010: 4217 953f 6686 ab3f 3659 923f ec11 843f
00000020: 2b1e 6f40 b1fc d03f 340f 913f dba7 ce3f
00000030: cd5f 843f 1a40 8e3f c5d5 0040 060a 843f
00000040: 6b24 6d3f 0a4b 0940 9b65 dd3f 90b0 0940
00000050: a577 e73f f652 8c3f 1c6b cd3f ff3e a93f
00000060: e93a 8c3f c5a1 d43f f7fe 923f d2c0 993f
00000070: da18 e73f a65d 7e3f 3925 cb3f 6172 643f
00000080: c314 8c3f 45be 453f feac 973f dd79 9b3f
00000090: 649e 7a3f 54ec c33f 22f7 943f 5bf4 d23f
000000a0: 4951 953f 68f0 a83f eec5 d33f b23b a13f
000000b0: 78e4 c03f 2594 853f dffa 0c3f 45c1 883f
000000c0: 66ed 623f be17 143f d374 c73f 9f96 6f3f
000000d0: 9f9d c03f 61a8 b83f ee88 e63f 6f33 c83f
000000e0: 1668 873f db25 893f 690f 993f dffc c33f
000000f0: 94dc 1c3f 4396 753f dfe8 373f ce75 0140
0.61610633 0.8743496 1.0703737 2.410636 1.1647723 1.340039 1.1433475 1.0317969
3.7362163 1.6327115 1.1332765 1.6144975 1.0341736 1.1113312 2.0130475 1.0315559
0.92633694 2.145205 1.7296633 2.1514015 1.8083388 1.0962818 1.6048312 1.322235
1.0955478 1.6611868 1.1484059 1.2011969 1.8054459 0.99361646 1.5870734 0.8923703
1.0943836 0.77243453 1.1849668 1.2146565 0.97897935 1.5306497 1.1637919 1.6480821
1.1665431 1.3198366 1.6544778 1.2596343 1.5069723 1.0435835 0.550703 1.0683981
0.8864349 0.5784873 1.5582527 0.93589205 1.5048102 1.4426385 1.8010538 1.5640696
1.057864 1.0714678 1.1957828 1.5311545 0.61274076 0.95932406 0.7183971 2.0228152

features.10.weight f4 [128, 64, 3]
00000000: 8047 883d 2fb0 c43c 34d9 1d3d ef2c b53d
00000010: a309 623c 076c 573d 43c1 803b fc65 33bd
00000020: 1bba 93bd 002e 1b3c f1b3 4e3c f4bc ab3c
00000030: 3c2f 503b c96b 103d e32d bd3c c8db d0bc
00000040: 198a af3c c07b 743d f929 f1bc 32e8 0dbc
00000050: d06a b83c d0e1 d93c 224d 89bc 136a 9d3c
00000060: 08fe 8e3b 0715 3abd 2aa2 80bd f132 abbc
00000070: 59c2 84bc 85a8 04bd 27e8 7f3d a899 533d
00000080: 2554 0e3d c510 7cbd 7544 0bbc a209 06bd
00000090: ac70 223d cf3e b93c ac3a 643b 7c90 af3b
000000a0: 82b0 423c 8f43 33bc ad1d 323d 5da4 853c
000000b0: e3ef 1e3d cc07 f03c 88f1 803b 701c 2a3c
000000c0: 42ce fabc caa1 8bbd e19a b4bc 8e63 c3bc
000000d0: 6d69 8cbc 5edc 5cbb c91e 733c 0188 ab3c
000000e0: 2027 e0bb adc2 f8bc 2bd3 4bbd 8d3a a6bd
000000f0: 3085 f23b 3808 d63b 4b2e 9a3c 869a 1bbd
00000100: c06f 9fbd e522 59bd 8f1f 663d e230 823c
00000110: 31ec a93d bc1a e93c 2344 423d f6bb 543c
00000120: 9e92 133b a0d6 e93c 5f4d 453d e2ff f23c
00000130: 14a5 4a3d e5fd 953c 834e b9bc 3b07 00bc
00000140: ef70 d5bc 3500 9e3c 0cef 45bb 5ba5 b2bc
00000150: da80 40bc 96e7 813c 21ed b8bc 0098 8fbc
00000160: 7688 f8bc 13be 93bc d90e de3c f5ac c43c
00000170: 3aa2 d03b f73f 833d 5850 003d 2370 003d
00000180: 9b66 89bd e7c7 0bbb 1890 9d3c 3119 053c
00000190: 72b0 81b9 9905 23bd f141 813b 0114 8cbc
000001a0: 0b4a 6bbd 6a18 57bc a7b6 603d 9bf2 133d
000001b0: d8e0 3dbd c0de 08bc 1e94 23bc c42b 78bd
000001c0: 920d fabc 2df9 d2bc 10c5 963d 1fae bb3c
000001d0: 2b03 963d c007 3a3d 6a52 833c 6f7b 123d
000001e0: 1c05 a9bb 9922 85bd 62fa 9bbd 5f0b 4f3b
000001f0: 430d 3dbc 4315 d5bb a95a 41bd 9911 ba3b
00000200: e5d6 443b e8d1 5f3d 7c07 333d 5ed6 5c3d
00000210: 72af 763d 2f76 683d 4eb9 a03d 0eb4 d33c
00000220: d094 5c3b 501f 49bc cad4 153d 0cab 7e3c
00000230: 46e1 5b3c 7457 d63c 8dcf 843d 22a2 a73c
00000240: c97e f03c d5bb 1e3d cf2a 723d 5aea 833b
00000250: ccc6 4e37 44eb 943b f46c d83d f0a9 453d
00000260: 80dc d63d 104b 7cbd 920b 46bd 949a efbb
00000270: c9c2 04bd cd91 61bb de2c a23b 8652 bfbc
00000280: 6022 b83c 7cee 4ebc 4317 dabb e150 a2bc
00000290: e7a3 093d b8c6 24bc e4c1 23bc fbcd a23c
000002a0: f7ae 343d 2590 053d 6d1f 56bc aaad d9bb
000002b0: f755 6cb8 4c75 52bb 4f94 843d 2b6f 1d3d
000002c0: b5a2 9a3d b59e e0bc d454 bebc f43a babc
000002d0: a1c6 a33c 9aa5 d53b 7eae 983c 158c 463c
000002e0: ee9e 053c 5b08 853b f91e 343c 436d e8bb
000002f0: 6dad 8e3d 1f19 e7bb caba 2abd f5aa 1ebc
00000300: 7e85 173d 4e5f 003b 7627 1abd a84e e03c
00000310: 9f45 193c ff11 1a3d ac4c 1dbd 2f3d 63bd
00000320: 08f9 aabc 55d4 92bc 4aad 393d c265 f43c
00000330: f33c f2b8 8be0 ad3c c6ef 3bba 2fe0 1f3d
00000340: 7d35 5a3b 10a9 883b 380d b4bb 0e9a 2c3d
00000350: d696 1c3d 79d6 0bbd 3c08 f7bc 084e 3bbd
00000360: 5492 35bd c8f7 8abc 9ece 08bd 30ba d93b
00000370: 98e0 63bd 85e5 43bd d9e5 48bc 50ba 30bb
00000380: 9d21 a3bc c0c1 963c 6221 18bb e631 d1bb
00000390: 7119 8d3d 00c2 a2bb 1d12 913d d8eb 67bd
000003a0: 2239 0fbd 1443 b3bc 4c17 c4bb 2d32 853a
000003b0: cf47 7d3c b32c 5abd ade1 e7ba b2e2 f63c
000003c0: 6b98 21bd a736 6b3c 7ac7 5ebd 5bb0 07bd
000003d0: 5dbe 643b 20b5 953d 1a31 ffbc 04a5 4abc
000003e0: 0f99 6abd 9111 91bd c73f a53b 0ada 063a
000003f0: 038d d03c ccaa b33b 7682 54bd d9e5 81bd
0.066542625 0.024009792 0.03853722 0.08846461 0.013796243 0.052593257 0.0039292886 -0.04379843
-0.07213231 0.0094714165 0.012616144 0.020964123 0.0031766435 0.035259042 0.02309317 -0.025495425
0.021428155 0.05968833 -0.02943896 -0.008661317 0.02251187 0.026596934 -0.016760413 0.01921562
0.004363779 -0.04543021 -0.0628093 -0.020898314 -0.016205953 -0.032387275 0.062477257 0.05166021
0.034748215 -0.06153943 -0.008500208 -0.03272403 0.039658234 0.022612957 0.003482501 0.0053578
0.011882903 -0.0109414 0.043485332 0.016313726 0.038802993 0.029300593 0.003935043 0.010382757
-0.03061593 -0.06817968 -0.022046508 -0.023851182 -0.017140115 -0.0033700685 0.014838883 0.020938875
-0.0068406016 -0.030366266 -0.049761932 -0.081166364 0.007401131 0.0065317415 0.018820902 -0.037989162
-0.077849865 -0.053011794 0.05618244 0.01589245 0.08297003 0.02845513 0.04742826 0.0129842665
0.002251781 0.028544724 0.04816949 0.02966303 0.049473837 0.018309543 -0.022620445 -0.007814224
-0.026054827 0.019287208 -0.0030202297 -0.021807363 -0.011749471 0.0158575 -0.02257401 -0.017528534
-0.030338507 -0.01803497 0.02710669 0.024008254 0.006366995 0.06408685 0.03132662 0.031356942
-0.067090236 -0.0021328868 0.019233748 0.008123682 -0.0002473626 -0.03980026 0.0039446284 -0.017099382
-0.05744366 -0.013128379 0.05486169 0.03612004 -0.046357006 -0.008353889 -0.009984044 -0.060588613
-0.030524049 -0.025753582 0.073618054 0.022910176 0.07324823 0.045417547 0.016030509 0.035762247
-0.00515808 -0.065007396 -0.07616116 0.003159247 -0.011538806 -0.0065027787 -0.0472056 0.0056783673
0.0030035314 0.05464354 0.04370831 0.053915374 0.06022591 0.056753334 0.07847844 0.025842693
0.0033658035 -0.012275532 0.036579885 0.01554371 0.013420409 0.026164748 0.064849 0.020463053
0.02935733 0.03875335 0.059122857 0.0040257396 1.2324843e-05 0.0045446474 0.10567656 0.04825777
0.10491276 -0.061595023 -0.048350878 -0.0073121283 -0.032412324 -0.003441918 0.0049491962 -0.02335478
0.022477329 -0.012630101 -0.006655605 -0.019813957 0.033603575 -0.010057144 -0.009994958 0.01987361
0.044112172 0.03260817 -0.013069016 -0.006643017 -5.6346846e-05 -0.0032113371 0.064736 0.038436096
0.07550565 -0.027419427 -0.023233809 -0.02273319 0.019992175 0.0065199854 0.018637892 0.012118359
0.008155568 0.004059834 0.010993713 -0.007093103 0.06966672 -0.007052555 -0.041682042 -0.009684314
0.036992542 0.0019588056 -0.03763529 0.027381256 0.009354978 0.03761482 -0.038403198 -0.05547827
-0.0208707 -0.017923513 0.045331277 0.029833678 -0.00011550812 0.021225234 -0.0007169213 0.039032158
0.0033296042 0.0041705444 -0.00549474 0.042139105 0.038229786 -0.034140084 -0.030155294 -0.045728713
-0.044329002 -0.016963854 -0.03340017 0.0066445097 -0.05563411 -0.04782631 -0.012261831 -0.002696652
-0.019913489 0.018402934 -0.0023213257 -0.006384122 0.06889618 -0.0049669743 0.07083533 -0.056621403
-0.034966595 -0.021882571 -0.0059842225 0.0010162048 0.015459015 -0.053265285 -0.0017691158 0.030137394
-0.039451998 0.014356292 -0.054389454 -0.03312717 0.0034903504 0.073099375 -0.031151343 -0.012368444
-0.057274874 -0.07083429 0.0050430032 0.00051441847 0.025457865 0.005483007 -0.05188223 -0.06342668

features.10.bias f4 [128]
00000000: cd10 e735 04cf 22b5 02d8 15b6 8eef cab4
00000010: 4e88 a4b5 a69c f433 88dc 0733 b006 1736
00000020: a6bf a7b6 0b46 e534 b622 a435 64c0 8d35
00000030: 6c90 c6b5 6a23 ba36 1238 b8b5 5cdc 2735
00000040: 6416 84b3 6810 8f35 6f6e c2b3 cdc4 8935
00000050: 397e 1e34 2c69 0cb6 51e9 fbb5 52dd 3c35
00000060: f12a 1436 2ad0 8034 1572 3c35 97a5 b435
00000070: 00ba b533 b8aa 3a36 5403 3835 6155 7736
00000080: 676e 63b4 9838 5735 ab4e b234 bf53 d2b5
00000090: 1412 07b5 28eb 2635 89af 6bb5 d894 ce33
000000a0: 68b3 36b6 1c85 99b4 5a13 f1b5 a8f6 50b5
000000b0: 66ae 3636 9824 0eb6 db9f f135 6974 2fb5
000000c0: 4f75 81b4 788a a2b3 7a73 72b5 e596 56b6
000000d0: 7431 e235 3225 20b5 5908 0ab6 1a92 49b4
000000e0: 6207 2b36 843c 8235 a5e0 dd35 5ac2 0ab5
000000f0: b443 5135 afd4 0036 a8fa 8ab4 bfda 7eb6
00000100: 542d ba36 edfc 8fb5 0dc1 e134 9166 1436
00000110: 4834 d7b5 c888 37b6 ee8b 98b5 52c7 3536
00000120: a981 e135 eacb a835 1818 a036 cda8 a0b4
00000130: 5b2e 63b6 acae 0b36 9c86 08b5 e9fc 0535
00000140: 02ed 94b5 d18d 8eb5 6a82 58b6 7961 9035
00000150: afc9 9fb5 89b5 7db5 64ff 2bb6 e01b 16b6
00000160: f57b b135 6824 c233 c42b 34b5 5cc5 01b4
00000170: 3599 dd34 3a65 aa35 b2a3 97b5 f6de abb6
00000180: 5ea7 9035 685c 34b6 97f0 7636 199b e0b4
00000190: 3c70 78b6 87b4 c4b5 c865 a435 18f4 e134
000001a0: d01f e435 b8f6 a7b4 a90b b634 f6b9 01b5
000001b0: f364 0d36 9462 ccb5 040a d235 ccd2 92b5
000001c0: 0ded 05b6 7037 f0b4 699f 4536 a93a b335
000001d0: e543 6db6 31cd adb5 3c97 6c36 1033 8d35
000001e0: 3b77 adb6 acc1 8634 47dc efb4 94f3 01b5
000001f0: 48c2 0cb6 f6ed 60b5 b2db 73b5 e72a 82b5
1.7215731e-06 -6.065095e-07 -2.2328463e-06 -3.779973e-07 -1.2258622e-06 1.13906296e-07 3.163271e-08 2.2504646e-06
-4.9992987e-06 4.2705537e-07 1.2229054e-06 1.0561312e-06 -1.4794182e-06 5.5473547e-06 -1.3725387e-06 6.2533013e-07
-6.150802e-08 1.0659105e-06 -9.053917e-08 1.0264572e-06 1.4760816e-07 -2.0922844e-06 -1.8768861e-06 7.035752e-07
2.2078714e-06 2.3993317e-07 7.020147e-07 1.3459238e-06 8.4623025e-08 2.7815531e-06 6.8550185e-07 3.6855565e-06
-2.1181187e-07 8.0176096e-07 3.3212322e-07 -1.5670593e-06 -5.0317726e-07 6.2182016e-07 -8.779976e-07 9.619697e-08
-2.7224542e-06 -2.859532e-07 -1.7961531e-06 -7.784497e-07 2.7221627e-06 -2.118095e-06 1.8002423e-06 -6.536198e-07
-2.4113476e-07 -7.5689e-08 -9.0320066e-07 -3.1976317e-06 1.6852705e-06 -5.965877e-07 -2.0568461e-06 -1.8772735e-07
2.5485283e-06 9.703367e-07 1.6531163e-06 -5.1691825e-07 7.795709e-07 1.9197284e-06 -2.588688e-07 -3.7976276e-06
5.548509e-06 -1.0727941e-06 4.204998e-07 2.211342e-06 -1.6033964e-06 -2.7348742e-06 -1.1365607e-06 2.7087121e-06
1.6801542e-06 1.2576322e-06 4.7711765e-06 -2.992514e-07 -3.3852618e-06 2.0814286e-06 -5.085983e-07 4.9914394e-07
-1.1095838e-06 -1.0621098e-06 -3.226242e-06 1.0757204e-06 -1.1905121e-06 -9.4514013e-07 -2.5629643e-06 -2.2367967e-06
1.3223604e-06 9.040451e-08 -6.711891e-07 -1.208586e-07 4.127593e-07 1.2695448e-06 -1.1298018e-06 -5.122153e-06
1.0777546e-06 -2.6875878e-06 3.6796898e-06 -4.18361e-07 -3.7020209e-06 -1.4655678e-06 1.2248574e-06 4.2087117e-07
1.6996582e-06 -3.1285686e-07 3.3908626e-07 -4.8326854e-07 2.1069397e-06 -1.5227874e-06 1.5649134e-06 -1.0939198e-06
-1.9956526e-06 -4.474382e-07 2.9448076e-06 1.3353612e-06 -3.5355272e-06 -1.2949223e-06 3.525477e-06 1.052018e-06
-5.169682e-06 2.510036e-07 -4.4677492e-07 -4.84107e-07 -2.0974712e-06 -8.379278e-07 -9.0844253e-07 -9.698241e-07

features.11.weight f4 [128]
00000000: eef1 8f3f 3487 873f 6f92 8f3f 8e1f 833f
00000010: 5c83 853f 1f5c 823f d701 883f 8bd3 8c3f
00000020: 67fa 813f 19c4 8a3f 6f26 8e3f a0a7 803f
00000030: e8ae 8a3f 023d 863f 6c93 923f ed0a 8d3f
00000040: 43cd 823f d0f7 8a3f 7b99 883f aa6f 853f
00000050: 6022 8c3f bf8c 7e3f 56e2 813f d698 8d3f
00000060: 9c0f 883f 0072 8d3f b635 823f 239b 8b3f
00000070: 802d 883f b16f 793f 3691 843f b54d 8d3f
00000080: c4c6 8a3f e90d 873f 8d0a 7a3f d0c5 8c3f
00000090: deff 843f fe38 803f ef39 843f 0ad6 7f3f
000000a0: 0cf7 863f 6d7e 7f3f 1d55 883f 559a 803f
000000b0: 4385 833f 7c6a 773f 22f5 813f 3cbd 823f
000000c0: 490d 8a3f ce33 7e3f b6df 7c3f a09a 7e3f
000000d0: 8891 843f 7908 713f f730 8b3f 6e60 833f
000000e0: 75b1 8c3f 40b5 8b3f 01ad 8c3f 9dd7 863f
000000f0: 179b 893f d866 893f 67d8 803f 8160 8b3f
00000100: e0f4 893f 0910 893f 5268 8a3f 869a 843f
00000110: 120a 803f 5c36 853f 2c1f 883f e75f 7d3f
00000120: eca3 813f b802 833f 75f1 843f 448b 833f
00000130: 70ef 833f 2078 853f d8de 873f 433f 873f
00000140: 013b 863f 1b27 8b3f 9fb2 833f 2636 733f
00000150: d5e4 8d3f 5a35 883f e136 8a3f c42e 8c3f
00000160: 8d90 863f 5acf 793f fb5a 823f aecb 8c3f
00000170: 11a9 833f 8089 823f 98b4 863f 9da4 8a3f
00000180: 437a 833f bfc5 843f 4f3c 8c3f 46bc 703f
00000190: 976c 843f 8d59 893f e4af 893f 4e53 8d3f
000001a0: 2b86 853f 1e53 893f 883e 833f 5f4e 873f
000001b0: 29dc 7f3f 40c8 813f f43d 813f 0b29 843f
000001c0: d6d3 8a3f 4a2d 853f f191 863f 4fef 8d3f
000001d0: 084a 833f 6909 893f 1a96 853f bf0f 863f
000001e0: 1f69 823f d332 8a3f 4faa 843f 7ce6 843f
000001f0: e428 813f bad5 7b3f e571 7d3f bf34 8e3f
1.1245706 1.0588136 1.1216563 1.0244005 1.0430713 1.0184363 1.0625561 1.1002058
1.0154542 1.0841094 1.1105479 1.0051155 1.0834627 1.0487368 1.145124 1.1018959
1.0218891 1.0856876 1.0671839 1.0424702 1.094799 0.9943351 1.0147197 1.1062267
1.0629764 1.1050415 1.0172641 1.0906719 1.0638885 0.9743605 1.0356815 1.1039339
1.0841908 1.055112 0.9767235 1.0997868 1.0390584 1.0017393 1.033018 0.9993597
1.0544143 0.99802285 1.0650975 1.0047098 1.0275043 0.9664686 1.0152934 1.0214
1.0785304 0.992978 0.98778856 0.9945469 1.0356913 0.94153553 1.0874318 1.0263803
1.0991656 1.0914688 1.0990297 1.053455 1.0750455 1.073451 1.0066041 1.0888826
1.0777855 1.0708019 1.0813086 1.0359657 1.0003073 1.0407214 1.0634513 0.9897446
1.012815 1.0235205 1.0386187 1.0276875 1.0307446 1.0427284 1.0614882 1.0566181
1.0486757 1.0871309 1.0288886 0.950045 1.1085459 1.0641282 1.0797998 1.0951772
1.0512863 0.9758202 1.0184015 1.0999658 1.028597 1.0198212 1.0523863 1.0831486
1.0271686 1.0372847 1.0955905 0.9403728 1.0345639 1.0730454 1.0756803 1.1041048
1.043157 1.072849 1.0253458 1.0570792 0.9994531 1.0139236 1.0097032 1.0325025
1.0845897 1.0404446 1.0513288 1.1088656 1.0256968 1.0705997 1.0436432 1.0473555
1.018833 1.079676 1.0364474 1.0382838 1.0090604 0.98372996 0.99001914 1.1109847

features.11.bias f4 [128]
00000000: 83aa 443d 0f4a a53c c876 a63d e250 f73c
00000010: 47fc 5e3d 0c49 37bb ea85 7e3c 6c68 8c3d
00000020: 4e3d 0f3d 0f76 e93c c4c1 d13c 1343 8c3c
00000030: 7e36 ff3c 020d 0b3d 341a 093c 4f74 a5bb
00000040: 3acb f13c c599 e13c c694 d53c 9ecc 343d
00000050: a939 c13c 5d84 ec3c 1997 333d 3ff0 ec3c
00000060: acd4 2f3d 0187 913c 1f88 303c 16a2 533d
00000070: 0641 f53c 5e9a 653b 0473 483b 23b2 213c
00000080: e164 7f3d ebd9 2f3d 0827 843c 4dde b53c
00000090: 5f96 4f3c 5fc3 06bb 11d7 8c3c 3510 813c
000000a0: 46ad bf3c 9ffe fe3c c8f4 493d 068b 0f3b
000000b0: b222 233d 0938 e23c 324b 123d 5135 ea3c
000000c0: 28a4 f33c d3c7 933b 7002 cc3c 8612 823c
000000d0: fe09 163d d19b 803c cf01 183d 0bb3 2f3c
000000e0: 1f49 9ebc 5bd1 83bd 9cb2 b23c 9813 273d
000000f0: 7f86 8a3d d6a5 e83c b80f b23c 279f 263d
00000100: 0244 993c 3c07 553c 1452 9a3c d877 ff3c
00000110: 044f 003d 4d59 1f3d ef3b 643d 4169 cdb9
00000120: f5c1 283d d77f f93c 7f38 c33c 2001 303d
00000130: 4ddc 093d 29e6 043d fa27 633c 95bf f73c
00000140: ce3a 623c b20f c83c e647 0e3d 867a 6e3c
00000150: d25f b93c 1e39 333b 1e16 c33c e178 c73c
00000160: 1499 be3c 28a1 c33c 2632 873c 069a 8c3c
00000170: 11fb abbc 61bd 97bc e4af 953c 0f03 0a3d
00000180: 644d 44bc 9a35 be3c 840b 853d d52b 17bd
00000190: c42d 8a3b 2f8b d23c c562 1b3d 4f07 6d3d
000001a0: f61d 173d eab2 0d3d 4346 5a3d b7a5 a33c
000001b0: 05fd 963c 85c8 753c 2b77 40b9 3f26 d93c
000001c0: 0b6c 443d c747 2dbb a76c 113d a970 253d
000001d0: 33de d23c 34c7 273d 7b23 103d ced4 203d
000001e0: cf4b 033c bad4 f83c 2c5e 123d ffa7 e23c
000001f0: 2586 023d 0605 4d3c dec8 e63c e8fc 203d
0.048014175 0.020176915 0.081281245 0.030189935 0.05443981 -0.0027967123 0.015534857 0.068558544
0.034970574 0.028498678 0.02560509 0.017121827 0.031153914 0.033947952 0.008368064 -0.0050492655
0.029515851 0.027539143 0.026071917 0.04414045 0.023587065 0.02887171 0.04384527 0.028923152
0.04292743 0.01776457 0.010774641 0.05166825 0.029938232 0.0035034637 0.0030586133 0.009869131
0.062352065 0.042932432 0.016131893 0.022200728 0.012670129 -0.0020563228 0.017192395 0.015754798
0.023398053 0.031127272 0.049305707 0.0021902933 0.03982801 0.02761461 0.035716243 0.028589876
0.029741362 0.004509905 0.024903506 0.015877973 0.036630623 0.015699299 0.0371111 0.0107238395
-0.019321976 -0.06436416 0.021813683 0.04079017 0.06763934 0.02839939 0.02173601 0.040679123
0.018709186 0.013002213 0.018837966 0.031185076 0.031325355 0.038903523 0.05572122 -0.00039179067
0.041200597 0.030456467 0.02383065 0.042969823 0.03365736 0.03244606 0.013864512 0.03024272
0.013807965 0.024421547 0.034736536 0.014555579 0.022628698 0.0027347277 0.023814257 0.024349632
0.023266353 0.023880556 0.016503405 0.017163288 -0.020993741 -0.01852292 0.018272348 0.033694323
-0.011981342 0.023218919 0.06496337 -0.036907036 0.0042168815 0.025701134 0.03793599 0.0578683
0.036893807 0.034594454 0.053289663 0.01997648 0.018431196 0.015001421 -0.0001835494 0.026507495
0.0479546 -0.0026440488 0.03550401 0.040390644 0.025740718 0.04096146 0.035190087 0.039265446
0.00801368 0.030374873 0.03573434 0.027667997 0.03186621 0.012513405 0.028171953 0.03930369

features.11.running_mean f4 [128]
00000000: ef68 c33e 6eea bf3e d518 67be 1424 cfbf
00000010: fa2f 94bd 453b d03e 46fb 1f3e 5907 6dbe
00000020: c5cc aabf 82b2 553f dc15 293e e4e9 aebe
00000030: f184 3ebe c1df 7cbf e58b 073f 6409 263f
00000040: cf33 b8bf ceba c63c a074 d7be 4bf8 b8bf
00000050: ad2d 913e 6db4 95bf 4503 10be 888d 9f3e
00000060: 47e4 10be e66d e13d ab3e 4fbe 59af 04be
00000070: 0da2 a7be 345d e13d d187 a33e dd1b 2e3d
00000080: 1e03 c03e 28ed 2bbe bf65 25be e29a f93d
00000090: 7a68 a63e 764b bd3c 42b6 27bf 9319 52bf
000000a0: fbd0 f8be 2566 76bf 0797 4bbe 1a7a 7e3e
000000b0: f82b d3bf a0f4 85bf c324 8bbf c73e 74bf
000000c0: 5c6f 553e 9ed8 94bf c3c3 a4bf 7e5c 82bf
000000d0: 8053 b63e 0cb1 05bf 63bc 3cbd cfef 23bf
000000e0: 4b82 393f 4af1 0d3f 4ce8 db3e 0fe7 9d3e
000000f0: 8d95 bd3c 659f d73d ce16 24bf 2027 173f
00000100: 9dd6 b3bd 1e9e 8e3e fa6f a03d bbe1 55bf
00000110: 9fd3 4abf 9826 d03b a055 db3c 6e7e 24bf
00000120: 5bfd b0bf c261 8fbf bdf2 04bf e71b 8fbf
00000130: 7102 5fbf 6a63 08be 897e 5e3e ec3f b0be
00000140: d276 ed3d 7407 be3e e3a1 87bf 18fe 18bf
00000150: f8ec da3e caf2 2d3f e985 943e 93a3 853d
00000160: d149 e33e e4c6 04bf 49be f93d 2e6f 993e
00000170: 089a 0abe 9bdf fcbe 49bc ae3e 30fd a4be
00000180: 83ba 0bbf ae3c 77bf 0078 8fbe 2846 443f
00000190: 74b6 b03d 196c a03e 3b80 e53e 9807 90be
000001a0: 88a8 87bf 517a 3cbe c007 10bf f723 4fbd
000001b0: 6cda 64bf f366 84bf b6bc e13e 950b bebe
000001c0: 7f6f 34bd f244 183f 8919 4e3e deb7 75be
000001d0: 2475 b6bf 82f8 03be 4170 a7bf e430 19bf
000001e0: 8350 4bbf 0b2b d53d 8a47 14bf b021 af3d
000001f0: e5a7 5cbf b81c 38bf 01e2 43bf 94c6 643e
0.38165995 0.37483543 -0.22568066 -1.6182885 -0.07235713 0.4067022 0.15623197 -0.23147334
-1.3343741 0.83475506 0.16512245 -0.3416282 -0.186054 -0.9877892 0.5294784 0.6485808
-1.4390811 0.024258997 -0.42081165 -1.4450773 0.2835516 -1.1695687 -0.14063747 0.31162667
-0.14149581 0.110072896 -0.2023875 -0.12957515 -0.32740822 0.11004105 0.31939557 0.04250704
0.37502378 -0.16789687 -0.16152094 0.12187745 0.32501584 0.023107272 -0.6551248 -0.82070273
-0.4859694 -0.9624961 -0.19881831 0.24851266 -1.6497793 -1.0465279 -1.0870594 -0.9540829
0.20843261 -1.1628606 -1.2872242 -1.0184476 0.3561058 -0.5222328 -0.046078097 -0.64037794
0.72464436 0.554463 0.42950666 0.30840346 0.0231426 0.10528449 -0.640973 0.59044075
-0.087811686 0.2785501 0.07833858 -0.8354756 -0.7922916 0.006352257 0.026774228 -0.64255416
-1.3827318 -1.1201708 -0.5193289 -1.118039 -0.871131 -0.13319173 0.21727957 -0.3442377
0.11594929 0.3711506 -1.0596279 -0.59762716 0.42758918 0.6794859 0.29008415 0.0652534
0.44392255 -0.51865983 0.12194497 0.29967636 -0.13535321 -0.49389347 0.34128025 -0.32224417
-0.5458147 -0.96576965 -0.2802124 0.7666955 0.0862855 0.31332472 0.44824395 -0.28130794
-1.0598307 -0.18406035 -0.56261826 -0.050571408 -0.89395785 -1.0343918 0.44089288 -0.3711821
-0.044051643 0.594802 0.20126928 -0.23995921 -1.4254498 -0.12887767 -1.3081132 -0.59840226
-0.79419726 0.104086004 -0.5792166 0.08551347 -0.86193687 -0.7191882 -0.7651673 0.22341377

features.11.running_var f4 [128]
00000000: 6cf1 b43e 4691 aa3e bb57 2e3e ba02 b23e
00000010: c872 093e ba74 b03e 4e4d 9a3e 7fa7 4d3e
00000020: 6c3d 823e d88c ae3e 0437 a83e 80dd 3e3e
00000030: 74b9 463e 2eeb 523e 5bdf 793e fb8a 843e
00000040: 15d6 c53e 924d 483e a221 753e 64c2 b53e
00000050: 61da da3e ebd9 c93e 834d d83d 2374 db3e
00000060: 7036 983e aa0e b53e c7f3 363e 84b0 fc3d
00000070: 0fe4 683e 8efa 083e 9b37 aa3e 0ed2 553e
00000080: aa07 ba3e c598 473e 6137 193e 1d9f fc3e
00000090: a943 ee3e bc72 023e ff6b 253e cb0c a53e
000000a0: 3ca1 713e 50ac 333e 20a7 243e 3af5 183e
000000b0: 2436 da3e 8cda 403e e358 913e d56a 693e
000000c0: e684 da3e ba24 453e 4e1e c23e 2913 a13e
000000d0: 6e17 9c3e 678c e53d de1e 303e bc4f 113e
000000e0: 3536 6f3e cf62 7d3e d88d e43e b65d e43e
000000f0: 3d0b 893e 265f 243e 09ba 833e 7277 eb3e
00000100: 2114 313e 3237 5d3e 6ee1 bc3e 9788 793e
00000110: 03e4 6c3e 34fa 243e d98e 483e af12 0f3e
00000120: 33f0 003f 8bd4 a13e 8995 463e bad8 903e
00000130: 17aa 393e b809 d83e 675f b13e 875b 453e
00000140: 2390 333e 905f e13e 72a4 9e3e da90 643e
00000150: 1af1 093f 1b48 863e 175e d93e 50b7 6a3e
00000160: eb56 9a3e 3c38 1e3e 7493 9c3e 034d f93e
00000170: 73af 773e ff18 1d3e 4fba 4b3e 393b 643e
00000180: 4f4c 483e 3f96 843e f65c 4b3e e9fb 833e
00000190: bb6d 2d3e 8464 e43e 2ab1 bb3e c8e6 283e
000001a0: 17a8 8f3e 211a 7e3e 3278 443e 04f5 3e3e
000001b0: 99cd 1e3e 4ec8 173e 92f9 993e efc1 253e
000001c0: 7545 cb3e 3edb 883e cd0e a63e 79a6 693e
000001d0: d49b 9c3e c963 0f3e 0474 b03e d66a 8a3e
000001e0: 42db 2f3e a729 e63e 3b42 783e d7ca 183e
000001f0: a6be 703e 85bc 613e 7d41 393e d961 a13e
0.3534044 0.3331396 0.17025654 0.34767705 0.13422692 0.34464055 0.30137104 0.20083426
0.25437486 0.3409183 0.32854474 0.18639183 0.19406682 0.20597526 0.2440161 0.25887284
0.38639894 0.1956084 0.23938611 0.3549987 0.42744735 0.3942407 0.10561659 0.42862043
0.29729033 0.3536275 0.17866431 0.12338355 0.22743247 0.13376829 0.3324555 0.20880911
0.36333972 0.1949187 0.14962532 0.49340144 0.46535996 0.1273908 0.16154478 0.32236323
0.23596662 0.17546201 0.16079378 0.14937297 0.4261943 0.18833369 0.28388128 0.2279466
0.42679518 0.19252291 0.37913746 0.3145993 0.30486625 0.1120842 0.17199275 0.14190573
0.23360522 0.24744724 0.44639468 0.44602746 0.26766387 0.16051921 0.2572787 0.45989567
0.17292835 0.21603087 0.3689074 0.24368511 0.23133855 0.1611107 0.19585742 0.13971971
0.50366515 0.3160747 0.1939298 0.2829035 0.1813129 0.42194915 0.346431 0.19273196
0.17535453 0.4401822 0.30984837 0.22320881 0.53883517 0.26226887 0.42454597 0.2292149
0.30144438 0.15451139 0.30581248 0.48691568 0.24188022 0.15341567 0.1989529 0.22288217
0.1956036 0.2589588 0.1985968 0.2577813 0.1693639 0.44607937 0.36658603 0.16494286
0.2805793 0.24814655 0.19186476 0.18648154 0.15508117 0.14822504 0.3007322 0.16187261
0.3970143 0.2672977 0.32433167 0.2281741 0.30587637 0.14002909 0.34463513 0.27034634
0.17173484 0.44953653 0.24244015 0.14921127 0.23510227 0.2204457 0.18091388 0.31519964
