checkpoints/cnn_only_seed42_20251128_161333.pt (torch, 188096 bytes, 22 tensors)

features.0.weight f4 [32, 1, 7]
0	0x3e8106fd	0.25200644
1	0x3e5b8a92	0.21439579
2	0xbdf1298c	-0.117755026
3	0x3e9606df	0.29302117
4	0xbdbb46b4	-0.09144345
5	0x3d72eb79	0.059306595
6	0xbe4900d5	-0.19629224
7	0x3e6bb105	0.23016746
8	0x3e784f0f	0.24248908
9	0xbe836106	-0.2565996
10	0x3e2b52fd	0.16730876
11	0x3b795575	0.003804532
12	0x3e526185	0.20545013
13	0x3c899fcb	0.016799828
14	0x3e1f53ee	0.1555936
15	0xbdb4b3b2	-0.08823337
16	0x3e8222ee	0.25417274
17	0x3ce0ca4c	0.027440213
18	0xbe4a5d3e	-0.19762132
19	0x3d923e68	0.07140809
20	0xbe5675b0	-0.20943332
21	0xbd83addb	-0.06429645
22	0xbe1efec5	-0.15526874
23	0x3e42cc2d	0.190232
24	0xbe47d469	-0.19514622
25	0xbd9767b4	-0.07392827
26	0xbd7259b6	-0.059167586
27	0xbe2f3987	-0.17111789
28	0x3d5062ad	0.050875355
29	0xbeb6b4e5	-0.35684887
30	0x3eb40376	0.3515889
31	0xbe9fc5c7	-0.3120558
32	0x3e94ef66	0.29088897
33	0x3d598d7b	0.053113442
34	0xbe1017d6	-0.14071593
35	0x3e6f1cb1	0.23350789
36	0xbbdd6727	-0.0067566815
37	0x3e690fc8	0.22759926
38	0xbc463c5b	-0.012099351
39	0xbe212bbe	-0.15739343
40	0x3d7e7069	0.06211892
41	0xbe0e7c1d	-0.13914533
42	0x3dc632b4	0.096776396
43	0x3e52587c	0.20541567
44	0x3d362450	0.044468224
45	0xbe8125ba	-0.25224096
46	0x3de43a8a	0.11143978
47	0x3da8e9b3	0.082476996
48	0x3e808043	0.25097856
49	0xbe867eee	-0.26268715
50	0xbeb69369	-0.3565934
51	0xbe0c30d6	-0.13690504
52	0xbe8dd83d	-0.2770404
53	0x3e923374	0.2855488
54	0x3db13449	0.08652551
55	0x3e02468e	0.12722227
56	0x3e08fd08	0.13377774
57	0xbbb150fa	-0.0054112645
58	0x3e95310e	0.29138988
59	0xbe885dd6	-0.2663409
60	0x3cc678e6	0.02422757
61	0xbe8637ac	-0.2621435
62	0x3dc2dda9	0.095149346
63	0xbde14652	-0.10999741
64	0x3e0edd8f	0.13951705
65	0xbd22c65f	-0.039739963
66	0x3eb3b168	0.35096288
67	0xbe275508	-0.1634103
68	0xbe29ba19	-0.16574897
69	0xbe205203	-0.15656285
70	0x3ea9216d	0.33033314
71	0x3dfebf96	0.12438886
72	0x3eb73a96	0.35786885
73	0xbe940202	-0.28907782
74	0xbeb28de0	-0.34873867
75	0xbe900837	-0.28131267
76	0xbe8434df	-0.25821587
77	0x3e06002b	0.13086002
78	0x3dd329ee	0.10310732
79	0x3e8f6369	0.2800553
80	0xbe5f52dd	-0.21808954
81	0xbe8e3633	-0.27775726
82	0x3e2f10b4	0.17096215
83	0xbe45aa29	-0.19303192
84	0x3e5fcad0	0.2185471
85	0xbdd4556d	-0.10367856
86	0x3e4d7537	0.20064245
87	0xbe9b930c	-0.30385625
88	0xbe49c1b7	-0.19702803
89	0x3de68f47	0.11257797
90	0x3da5bb6d	0.08092389
91	0x3d1684da	0.03674779
92	0x3e4e286d	0.20132609
93	0x3e618bba	0.22025958
94	0xbe90ed04	-0.2830583
95	0xbe4faa6f	-0.20279859
96	0x3eafd502	0.343422
97	0xbdf2f1b3	-0.11862507
98	0xbe32a8c7	-0.17447196
99	0xbe3f8749	-0.18703951
100	0xbd0147bd	-0.031562556
101	0x3e0a2178	0.1348933
102	0xbc37f425	-0.011227642
103	0xbe606563	-0.21913676
104	0x3d4d92ce	0.050188832
105	0xbe91d8e2	-0.2848578
106	0xbe6ec304	-0.2331658
107	0xbdeae9bc	-0.114703625
108	0xbe74bb1b	-0.238995
109	0xbe34e008	-0.17663586
110	0x3ecafce9	0.3964608
111	0x3dd49c82	0.10381414
112	0x3d6c6272	0.057711072
113	0xbe8b2bf7	-0.2718198
114	0xbe060091	-0.13086154
115	0xbc0be81b	-0.008539225
116	0x3d7735ca	0.06035403
117	0xbe647271	-0.22309281
118	0xbe123ff8	-0.14282215
119	0xbe88c8e8	-0.2671578
120	0xbd0c578b	-0.034263175
121	0xbd9f78a2	-0.07786681
122	0x3d3e2224	0.046419278
123	0xbd9d01d0	-0.07666361
124	0xbe02b821	-0.12765552
125	0xbe0ae663	-0.13564448
126	0xbdff79bc	-0.12474391
127	0xbe94002c	-0.2890638
128	0x3ea601b5	0.32423177
129	0xbd89c7ee	-0.06727587
130	0x3ea8de5a	0.3298214
131	0x3df9f7b4	0.12205449
132	0xbea0af5a	-0.31383783
133	0x3e57561f	0.21028946
134	0xbdda8f60	-0.10671878
135	0xbe05db30	-0.13071895
136	0xbe711d00	-0.23546219
137	0xbe7696dc	-0.24080986
138	0x3d5bc0a1	0.053650502
139	0xbd6243b8	-0.055240363
140	0x3dd5521f	0.10416054
141	0xbea7e085	-0.32788482
142	0x3e8d9c04	0.27658093
143	0xbe8bf302	-0.27333838
144	0xbd832416	-0.06403367
145	0x3d9f0120	0.077638865
146	0x3e4da910	0.20084023
147	0x3e9d84e3	0.30765447
148	0x3eacffe6	0.33788985
149	0xbe974cee	-0.2955088
150	0x3dcf0f69	0.10110361
151	0xbe16c69e	-0.14724204
152	0xbcf47f36	-0.029845815
153	0xbe900451	-0.28128293
154	0x3ea075d5	0.313399
155	0xbe99b7bf	-0.30023
156	0x3db6275e	0.088942274
157	0xbbb1f4b2	-0.0054307813
158	0x3ba4d465	0.005030202
159	0xbe75104f	-0.23932002
160	0x3ea39691	0.3195081
161	0x3d0b9b3a	0.034083582
162	0x3cc7cffa	0.024391163
163	0xbeabdf63	-0.33568868
164	0x3e26b4d6	0.16279921
165	0xbd55c91a	-0.05219374
166	0xbe2efce7	-0.17088662
167	0x3ea8d8e8	0.32977986
168	0x3dbd88be	0.09254597
169	0xbe24f535	-0.16109164
170	0xbddfcda3	-0.10927894
171	0x3d81d763	0.0633991
172	0x3e823a96	0.25435323
173	0xbd58a0bc	-0.052887663
174	0xbe56ca37	-0.20975576
175	0xbde7eb42	-0.11324169
176	0xbe82d557	-0.2555339
177	0x3e1bb81f	0.15206955
178	0x3e959a0d	0.29219094
179	0xbebb511d	-0.36585322
180	0x3d9d6354	0.07684961
181	0x3e528a34	0.20560533
182	0x3c976f2a	0.018485624
183	0xbe3c0b4b	-0.18363683
184	0x3e1122a4	0.1417337
185	0x3e2dde4e	0.16979334
186	0x3e02efff	0.12786864
187	0xbd9e6a96	-0.077351734
188	0xbdf729fd	-0.120685555
189	0xbc52edf2	-0.012874113
190	0xbde9bc07	-0.114128165
191	0xbe20159b	-0.15633242
192	0x3e45dac4	0.19321734
193	0x3e907a77	0.28218433
194	0xbd74f21b	-0.059801202
195	0xbdceed1b	-0.10103818
196	0x3c38de7b	0.011283512
197	0xbc6eed0c	-0.014582884
198	0x3dc9a423	0.0984576
199	0x3de263e6	0.1105421
200	0xbeaf4b53	-0.34237155
201	0xbe13d8a5	-0.14438112
202	0x3e9ffa14	0.31245482
203	0x3d91731a	0.07102032
204	0xbd74a501	-0.059727672
205	0xbe53df80	-0.20690727
206	0xbe276ed5	-0.16350873
207	0xbe6a931e	-0.22907683
208	0xbd1671d8	-0.036729664
209	0x3e510808	0.2041322
210	0x3e606c08	0.2191621
211	0x3e196066	0.1497818
212	0xbeb66b85	-0.35628906
213	0xbe806941	-0.25080302
214	0xbdab9665	-0.08378295
215	0x3eaebc0d	0.34127846
216	0x3d1f0967	0.038827326
217	0xbe3128b5	-0.17300685
218	0x3dfba23c	0.12286803
219	0xbdb46857	-0.08808964
220	0xbe3abd34	-0.18236238
221	0x3e8ed3fd	0.2789611
222	0xbdfd0514	-0.12354484
223	0xbce9d2c9	-0.028542893

features.0.bias f4 [32]
0	0x374a3f5e	1.2054892e-05
1	0x374ebf47	1.2323092e-05
2	0x36a1ca13	4.8216984e-06
3	0xb71c95a5	-9.333166e-06
4	0xb8be4218	-9.072217e-05
5	0xb7681798	-1.3833771e-05
6	0x37288c10	1.0046191e-05
7	0x35973fe3	1.126897e-06
8	0xb84360fa	-4.658194e-05
9	0xb7ec023f	-2.8134438e-05
10	0x36a34b81	4.8665684e-06
11	0x37983122	1.8142691e-05
12	0x37a25f50	1.9356288e-05
13	0x3586de98	1.0048561e-06
14	0xb6ea4185	-6.981371e-06
15	0x367ef058	3.7988848e-06
16	0x35d86099	1.6121368e-06
17	0xb593ba0c	-1.10065e-06
18	0xb8da2677	-0.00010402215
19	0x339e4370	7.369715e-08
20	0x388114af	6.155052e-05
21	0xb70042ea	-7.644974e-06
22	0xb68eb075	-4.252472e-06
23	0x381d0082	3.743219e-05
24	0xb720e6cc	-9.59048e-06
25	0x37155ebf	8.903152e-06
26	0x38223ad2	3.867859e-05
27	0x360e0374	2.116166e-06
28	0x381167f1	3.4667497e-05
29	0x36e50158	6.8248883e-06
30	0x37e85066	2.7693994e-05
31	0x375b81e6	1.30836615e-05

features.1.weight f4 [32]
0	0x3f67b726	0.9051384
1	0x3f6b49df	0.91909593
2	0x3f7e2592	0.9927608
3	0x3f679ba5	0.9047187
4	0x3f7894a1	0.9710179
5	0x3f6cc3bc	0.92486167
6	0x3f6bc5f8	0.9209895
7	0x3f761514	0.9612591
8	0x3f726916	0.946916
9	0x3f6be717	0.9214949
10	0x3f70796d	0.9393528
11	0x3f71f627	0.94516224
12	0x3f7d8897	0.99036545
13	0x3f6d01e2	0.92581
14	0x3f6c38f4	0.92274404
15	0x3f73c025	0.95215064
16	0x3f5cbffe	0.86230457
17	0x3f6b0499	0.9180389
18	0x3f79ba26	0.97549665
19	0x3f5d502d	0.86450464
20	0x3f825d6e	1.0184762
21	0x3f7878b3	0.9705917
22	0x3f6b8bba	0.9201008
23	0x3f7b7a40	0.98233414
24	0x3f6bc3b7	0.9209551
25	0x3f830e2f	1.0238703
26	0x3f6d8c2c	0.9279201
27	0x3f6fd6c5	0.9368709
28	0x3f7cd027	0.98755115
29	0x3f66c620	0.90146065
30	0x3f780c5b	0.9689385
31	0x3f69c0b0	0.9130964

features.1.bias f4 [32]
0	0x3d08c075	0.033386666
1	0xbcb06c4b	-0.021536013
2	0xbda1d6ce	-0.07902299
3	0xbb0f874f	-0.0021900719
4	0x3c844876	0.016147833
5	0xbb63ed5b	-0.0034778926
6	0xbc8c3175	-0.017113427
7	0xbc1f8950	-0.009737328
8	0xbdc0d865	-0.09416274
9	0x3d3bed4a	0.045880593
10	0x3d4d3689	0.050100837
11	0xbce08806	-0.027408611
12	0xbcb1e91f	-0.021717606
13	0xbd31792b	-0.043328445
14	0xbc60b97a	-0.013716096
15	0x3c695d05	0.014243369
16	0x3af2c012	0.0018520376
17	0xbc04e7a1	-0.008111865
18	0x3d18105b	0.037124973
19	0x3ceb61eb	0.028733214
20	0x3d9843b8	0.07434791
21	0x3c8a0bf0	0.016851395
22	0xbd9059f7	-0.070484094
23	0x3d106ab7	0.03525802
24	0xbd1045d0	-0.03522283
25	0xbce0869b	-0.027407935
26	0xbd3af7cd	-0.045646477
27	0xbd0361ff	-0.03207588
28	0xbd51f9be	-0.051263563
29	0xbc9aa3f7	-0.018877013
30	0xbdd5ad2e	-0.10433422
31	0x3c678ebd	0.014133153

features.1.running_mean f4 [32]
0	0xba826887	-0.0009949364
1	0xbabb478e	-0.0014288293
2	0xb82671a6	-3.9683327e-05
3	0x3aa0ea4d	0.0012276858
4	0x386d4c71	5.6576395e-05
5	0xba07cf10	-0.0005180696
6	0xbaa27d58	-0.0012396974
7	0x3aaa4ff4	0.0012993799
8	0xb8785aca	-5.921236e-05
9	0x399b5cdd	0.00029633092
10	0x3a55d40c	0.00081569026
11	0x3686ec04	4.020987e-06
12	0xb62ed104	-2.6049684e-06
13	0xb9f61ca0	-0.00046942104
14	0x3a86ad8d	0.0010275111
15	0x3aaf8e09	0.001339377
16	0x3aca1260	0.0015416853
17	0x3aceee80	0.0015787631
18	0xb8978c78	-7.2264054e-05
19	0x3a9c73d0	0.001193637
20	0x38c3868d	9.3233866e-05
21	0xb7ad4462	-2.065505e-05
22	0xb9db0121	-0.00041771776
23	0x38644f1e	5.443312e-05
24	0x398a1aec	0.0002634147
25	0x3852fbe0	5.030248e-05
26	0xb92f3954	-0.00016710657
27	0xb8a77798	-7.9854566e-05
28	0xb8926ac4	-6.981709e-05
29	0x3a8602a8	0.001022418
30	0xb8c998cc	-9.6128875e-05
31	0x39f05bce	0.00045844767

features.1.running_var f4 [32]
0	0x3e5a210d	0.2130167
1	0x3e9e7b05	0.3095323
2	0x3d18f3ad	0.037341762
3	0x3e744e4a	0.2385799
4	0x3b9d3deb	0.004798641
5	0x3da782c1	0.08179236
6	0x3e6c112d	0.23053427
7	0x3ed0d3f1	0.40786698
8	0x3cc6306a	0.024193007
9	0x3d154e7e	0.03645181
10	0x3ed14062	0.40869433
11	0x3d4de0db	0.050263267
12	0x3c2300bf	0.009948908
13	0x3d268657	0.04065546
14	0x3e2a1e7b	0.1661319
15	0x3ed4b54c	0.4154457
16	0x3ec075ae	0.37589782
17	0x3ebd9775	0.37029615
18	0x3c78906d	0.015171153
19	0x3e8a0f7c	0.2696494
20	0x3c91004b	0.017700335
21	0x3e0752a4	0.13215119
22	0x3cc1b61d	0.023646409
23	0x3c9b353a	0.018946279
24	0x3c4c10ae	0.012455149
25	0x3cd8da82	0.02647138
26	0x3c5d5c1c	0.01351073
27	0x3c0afd9d	0.008483318
28	0x3b444687	0.0029949264
29	0x3e4d1709	0.20028318
30	0x3c43742a	0.011929551
31	0x3d028c70	0.031872213

features.5.weight f4 [64, 32, 5]
0	0xbd36e088	-0.044647723
1	0xbdca4a45	-0.09877447
2	0xbb3d4339	-0.002887918
3	0x3c9f5713	0.0194507
4	0x3d180ecc	0.037123486
5	0xbdf789b6	-0.12086813
6	0xbbb3fa4f	-0.0054924856
7	0xbcf566e3	-0.029956287
8	0x3c0ad3b5	0.008473326
9	0x3d2c31d3	0.042039704
10	0x3c3bb056	0.011455616
11	0x3cb546e3	0.022128528
12	0xbce5d745	-0.02805675
13	0xbd7fa9c5	-0.062417764
14	0x3cc2ae69	0.023764806
15	0xbde4e616	-0.11176698
16	0xbc1b664b	-0.009484838
17	0x3d2eb1eb	0.042650145
18	0x3d8064fc	0.06269261
19	0x3ba5d5d8	0.0050608926
20	0xbdd0456a	-0.1016949
21	0xbd8438c9	-0.064561434
22	0xbca73055	-0.020408789
23	0xbd9cd949	-0.07658631
24	0xbd5621d3	-0.05227835
25	0xbdd89078	-0.1057443
26	0xbd9871f1	-0.074436076
27	0xbd7f3e55	-0.062315304
28	0xbd206e2e	-0.039167576
29	0xbcf11d3a	-0.029432882
30	0xbdfab547	-0.12241607
31	0xbb63d958	-0.0034766998
32	0x3cc319c5	0.023815999
33	0xbce6e5d4	-0.028185762
34	0xbc260c9e	-0.010134844
35	0xbdb24e11	-0.08706296
36	0xbdd999a8	-0.10625011
37	0xbdc0d910	-0.094164014
38	0x3c6870a4	0.014187012
39	0xbb676936	-0.0035310513
40	0xbd13df00	-0.03610134
41	0x3c634277	0.013870827
42	0xbce7ca10	-0.028294593
43	0xbd251150	-0.040299714
44	0xbbb706db	-0.005585534
45	0xbcce812a	-0.025208075
46	0xbbc00b35	-0.005860711
47	0xbba17d15	-0.004928241
48	0xbd38c074	-0.045105413
49	0x3daa8fb1	0.08328188
50	0xbd036d15	-0.03208645
51	0x3d652b15	0.05594929
52	0x3c08dea7	0.008353866
53	0x3cdf775e	0.027278598
54	0x3da4b75b	0.08042785
55	0x3d63a588	0.055577785
56	0x3bcdc00e	0.006278998
57	0x3d2a67c1	0.041602854
58	0x3d5d7858	0.054069847
59	0x3c89ad88	0.016806379
60	0x3d1951be	0.03743147
61	0x3daa5e8f	0.08318817
62	0xbc038ca9	-0.008029141
63	0xba4ba9b7	-0.0007769125
64	0xbcfdb915	-0.030972043
65	0xbdc7afa5	-0.097502984
66	0xbd192afa	-0.0373945
67	0x3abbb0d5	0.0014319668
68	0xbcd5eb54	-0.02611319
69	0xbd526ab8	-0.051371306
70	0xbe0069f0	-0.12540412
71	0xbddd3a49	-0.10802133
72	0xbd2eaa0d	-0.04264264
73	0xbb9d41b4	-0.004799092
74	0x3d64c3f8	0.055850953
75	0xbd8f65db	-0.07001849
76	0xbdddfca2	-0.108392015
77	0xbd9f6d28	-0.07784492
78	0x3cacbfd6	0.021087568
79	0xbccafef8	-0.024779782
80	0xbdacce23	-0.08437755
81	0xbcc01b15	-0.023450414
82	0xbcb41966	-0.021984767
83	0x3b88fb7d	0.0041803704
84	0x3bef138b	0.007296031
85	0xbdc340e0	-0.09533858
86	0xbd975e63	-0.0739105
87	0xbd47958e	-0.04872661
88	0xbd18334b	-0.03715829
89	0xbc656d73	-0.0140031455
90	0x3dc5523f	0.09634828
91	0xbbe749ac	-0.007058343
92	0xbc980ef9	-0.018561827
93	0x3cab39a9	0.020901518
94	0xba32d14a	-0.00068213476
95	0xbd45c80b	-0.04828648
96	0x3c93f97b	0.018063297
97	0x3d2868dc	0.041115627
98	0xbcf32579	-0.029680954
99	0x3cf7bf95	0.03024272
100	0x3d48192e	0.04885214
101	0x3b8ee1fc	0.0043604355
102	0xbd085b0b	-0.03328995
103	0x3d060633	0.032720756
104	0x3b5c9d98	0.003366327
105	0x3c9e6760	0.019336402
106	0x3c85f80b	0.016353628
107	0x3d21c973	0.039498758
108	0x3d1bc4a8	0.038029343
109	0x3c4ccd0c	0.012500059
110	0xbda68739	-0.081312604
111	0xbd8d9599	-0.06913299
112	0xbd834604	-0.06409839
113	0xbc41638e	-0.011803521
114	0x3d51c363	0.051211726
115	0x3d85f8eb	0.06541618
116	0xbc6cad8b	-0.014445673
117	0xbc6951de	-0.01424071
118	0xbd50e476	-0.050999127
119	0x3cc4bd62	0.024016086
120	0xbd86eecc	-0.06588516
121	0x3b0d77db	0.0021586332
122	0x3d4d8ba5	0.050182004
123	0xbd1cc981	-0.038278107
124	0x3d65c5ee	0.056096964
125	0xbce40f39	-0.02783929
126	0x3cfa5e47	0.030562533
127	0x3d48726f	0.048937257
128	0xbcf36f76	-0.029716235
129	0x3e048402	0.12940982
130	0xbdcb2c5f	-0.099205725
131	0xbd924b8d	-0.071433164
132	0x3c87a35b	0.016557386
133	0xbc5fcc8b	-0.013659607
134	0xbcecc8c2	-0.028904323
135	0xbd0656b8	-0.032797545
136	0x3d16662d	0.036718536
137	0x3d13d690	0.036093295
138	0x3ca24e32	0.019812677
139	0xbcd40c81	-0.025884869
140	0xbd29d3be	-0.0414617
141	0x3acd4c42	0.0015662985
142	0x3bc91aba	0.0061372193
143	0xbd0ee0c3	-0.03488232
144	0x3cb1f22e	0.021721926
145	0xbd5f5062	-0.05452002
146	0xbd66a027	-0.056305077
147	0xbbcf65c0	-0.006329268
148	0x39b8c4e3	0.00035241907
149	0xbcc95cc0	-0.02458036
150	0xbda38f73	-0.07986345
151	0xbce5a841	-0.028034331
152	0xbcc04289	-0.023469226
153	0x3b04fdeb	0.0020292948
154	0x3c4cf9f3	0.012510764
155	0xbdb4b91f	-0.088243715
156	0xbc254851	-0.010088042
157	0x3c34d8eb	0.011038045
158	0x3d509180	0.05092001
159	0xbc311122	-0.010807307
160	0xbce0efa9	-0.027458029
161	0x3c80730d	0.01567986
162	0xbcf6b12e	-0.030113783
163	0xbc77f256	-0.015133461
164	0xbc16a70a	-0.009195099
165	0xbc893063	-0.016746705
166	0xbd14a0dd	-0.036286224
167	0x3d1b79a4	0.037957802
168	0x3ce8a2a3	0.028397864
169	0x3c204ef9	0.009784454
170	0xbc8f1d25	-0.017469952
171	0xbd643dec	-0.055723116
172	0xbd18adb2	-0.037275024
173	0x3c517010	0.012783065
174	0x3d1ccd74	0.038281873
175	0xbe1293fe	-0.14314267
176	0xbd97f6ef	-0.07420146
177	0x3d0426f1	0.0322637
178	0xbd4ddc6b	-0.050259035
179	0x3d84c230	0.06482351
180	0xbe004721	-0.12527134
181	0xbdd287b3	-0.10279789
182	0xbd4c1ad2	-0.049830265
183	0xbc22cfc2	-0.009937229
184	0xbcf82881	-0.030292751
185	0x3d225626	0.03963294
186	0xbb6d6ba8	-0.0036227498
187	0x3d2677bf	0.040641543
188	0x3d659288	0.056047946
189	0xbc8e1274	-0.017342784
190	0xbd3134af	-0.043263134
191	0x3d25fef8	0.04052636
192	0x3d1d3c73	0.038387727
193	0xbd091c50	-0.033474267
194	0xbc7ac733	-0.015306282
195	0xbe30a079	-0.17248715
196	0xbe1df7cf	-0.15426563
197	0xbd83eb97	-0.064414196
198	0x3bade7b8	0.005307164
199	0x3bf69ba8	0.00752588
200	0xbd02698c	-0.03183894
201	0x3d00b64a	0.031423844
202	0xbce51a3c	-0.027966611
203	0xbd3f5e18	-0.046720594
204	0x3c602edd	0.013683048
205	0xbd8fb8b7	-0.070176534
206	0xbc34b478	-0.011029355
207	0xbd3f8a7e	-0.046762936
208	0x3d05879f	0.03260004
209	0x3cd2f1ba	0.02575003
210	0xbde952ad	-0.11392722
211	0xbd3cdb7a	-0.046107747
212	0x3d581e52	0.05276329
213	0x3d7bdfd5	0.06149276
214	0x3dc2b61e	0.09507392
215	0x3cec459e	0.02884179
216	0x3d2534ee	0.04033368
217	0xbc9f8751	-0.019473704
218	0xbd2c6a7f	-0.04209375
219	0x3d220907	0.03955939
220	0xbd807a20	-0.062732935
221	0xbd61e190	-0.055146754
222	0xbd2e9a35	-0.042627532
223	0x3bfaf38e	0.0076584285
224	0x3d0a2263	0.0337242
225	0xbce24675	-0.027621487
226	0xbd1f0e77	-0.038832154
227	0x3b2804da	0.0025637657
228	0xbcf2051d	-0.029543454
229	0xbcd4fc25	-0.025999138
230	0xbe0317aa	-0.12801996
231	0xbdd2912a	-0.10281594
232	0x3ca3abc6	0.019979369
233	0x3d8a71ba	0.06759973
234	0x3d20110e	0.039078765
235	0xbe06885f	-0.13137959
236	0xbde84d5e	-0.113428816
237	0xbd5017ca	-0.050803937
238	0xbc69a931	-0.01426153
239	0x390f4b4d	0.00013665594
240	0xbe049a88	-0.12949574
241	0xbcbf14dc	-0.023325376
242	0xbc8d35b3	-0.01723752
243	0xbcbb5e97	-0.022872252
244	0x3bee0fe4	0.007265078
245	0xbe172088	-0.14758503
246	0xbd8bc8da	-0.06825419
247	0x3d2dc9a6	0.042428635
248	0x3d5e7917	0.0543147
249	0x3d4f20ed	0.05056851
250	0xbc81358a	-0.0157726
251	0xbd553f01	-0.05206204
252	0xbca03c39	-0.019559966
253	0xba1a0fbb	-0.0005876978
254	0x3a91b7b1	0.0011117366
255	0xbe31c7ec	-0.1736142

features.5.bias f4 [64]
0	0x34c56f59	3.6775126e-07
1	0x35c07333	1.4338642e-06
2	0x360628db	1.9991337e-06
3	0xb5c81631	-1.490762e-06
4	0x3581670d	9.641241e-07
5	0x360e1522	2.117195e-06
6	0xb501f995	-4.8419435e-07
7	0xb5ddd79e	-1.6528536e-06
8	0x368836d4	4.0594987e-06
9	0xb622d8e2	-2.4266124e-06
10	0x35b3eeb4	1.3406011e-06
11	0xb63313e5	-2.6684659e-06
12	0x36ba1c29	5.5465102e-06
13	0xb595f9ba	-1.1174045e-06
14	0xb704cc50	-7.915383e-06
15	0x350676b0	5.0091603e-07
16	0x35f4338a	1.8194416e-06
17	0xb4e66208	-4.2912166e-07
18	0x36b0e577	5.271922e-06
19	0xb5ed4607	-1.7678257e-06
20	0x36754a2b	3.6551016e-06
21	0x343fc773	1.786082e-07
22	0x34e7d1a6	4.3179642e-07
23	0xb60dcb69	-2.1129038e-06
24	0xb4f43f98	-4.5494812e-07
25	0x3601a7e8	1.9320232e-06
26	0xb525057a	-6.147526e-07
27	0x364253b2	2.895697e-06
28	0x35c5bbd1	1.4732306e-06
29	0x34e8647a	4.3286474e-07
30	0xb61ff43b	-2.3835007e-06
31	0xb608840c	-2.034244e-06
32	0x3474d4ba	2.280166e-07
33	0x35fb055a	1.8702515e-06
34	0x36d587a8	6.363687e-06
35	0x36d5a428	6.367005e-06
36	0xb53dbc62	-7.068212e-07
37	0x3542170d	7.2304175e-07
38	0xb5e0b729	-1.6742607e-06
39	0x3628d1e4	2.5156123e-06
40	0x3510a81a	5.38888e-07
41	0xb5a4506b	-1.2242357e-06
42	0x35fe63d6	1.8953531e-06
43	0x3607adb9	2.0217688e-06
44	0xb617c848	-2.2617332e-06
45	0xb48147de	-2.4080413e-07
46	0x36611fac	3.3546048e-06
47	0x35292c67	6.302202e-07
48	0x35f4bce7	1.8234394e-06
49	0xb5db3894	-1.6333238e-06
50	0xb611e74f	-2.1741323e-06
51	0x35bb15bd	1.3938912e-06
52	0xb684aeb4	-3.9542447e-06
53	0x354b198e	7.566058e-07
54	0xb6d68a80	-6.3938205e-06
55	0x357a01c0	9.3134804e-07
56	0xb5765aad	-9.177409e-07
57	0xb61d2236	-2.3414736e-06
58	0x360e9b62	2.1250094e-06
59	0x366f5727	3.5664505e-06
60	0xb6338d32	-2.6755265e-06
61	0x35098307	5.1227147e-07
62	0xb5d4fb4a	-1.5868366e-06
63	0xb559cf5b	-8.114054e-07

features.6.weight f4 [64]
0	0x3f6f7e94	0.9355252
1	0x3f640380	0.8906784
2	0x3f6c3e73	0.9228279
3	0x3f5531d5	0.8327916
4	0x3f6beded	0.9215992
5	0x3f4b5b99	0.7943664
6	0x3f56652a	0.83748114
7	0x3f627fca	0.8847624
8	0x3f7561ef	0.9585256
9	0x3f66672d	0.90001184
10	0x3f6f2c4d	0.9342697
11	0x3f606716	0.87657297
12	0x3f7e98fc	0.99452186
13	0x3f6d931f	0.92802614
14	0x3f7751c8	0.96609163
15	0x3f623c85	0.88373595
16	0x3f5a437a	0.8525921
17	0x3f6f60f5	0.9350732
18	0x3f5ed5e7	0.8704514
19	0x3f6bfb00	0.9217987
20	0x3f66d17f	0.90163416
21	0x3f60c01f	0.87793154
22	0x3f70872f	0.93956274
23	0x3f571d48	0.84029055
24	0x3f6f506f	0.93482107
25	0x3f4ab958	0.7918906
26	0x3f7c812d	0.98634607
27	0x3f61d30f	0.88212675
28	0x3f5a85c1	0.8536034
29	0x3f4ee4e6	0.8081802
30	0x3f55a971	0.8346167
31	0x3f5932ee	0.8484334
32	0x3f5f273e	0.87169254
33	0x3f577676	0.8416513
34	0x3f50a7c6	0.81506
35	0x3f6f9dba	0.93600047
36	0x3f5aeddb	0.8551919
37	0x3f715543	0.94270724
38	0x3f6e4325	0.93071204
39	0x3f6a6bfb	0.91571015
40	0x3f549382	0.8303758
41	0x3f58ebb9	0.84734684
42	0x3f709bb7	0.939876
43	0x3f60464f	0.8760728
44	0x3f6d7f36	0.92772233
45	0x3f6e1926	0.93007123
46	0x3f5bf9f9	0.85928303
47	0x3f6988c3	0.91224307
48	0x3f817a15	1.0115381
49	0x3f5d2d76	0.8639749
50	0x3f697bce	0.91204536
51	0x3f59a175	0.8501199
52	0x3f601750	0.8753557
53	0x3f6fb422	0.93634236
54	0x3f5b3294	0.8562405
55	0x3f47bbb3	0.7802078
56	0x3f5528db	0.83265465
57	0x3f61239f	0.8794498
58	0x3f5bafa3	0.85814875
59	0x3f55f3d0	0.83575153
60	0x3f6a2058	0.914556
61	0x3f688e8f	0.9084253
62	0x3f7856c2	0.9700738
63	0x3f7af268	0.9802613

features.6.bias f4 [64]
0	0xbe62f236	-0.22162709
1	0xbe0bd0df	-0.13653897
2	0xbe238ee9	-0.15972485
3	0xbe2155ed	-0.15755434
4	0xbe260bba	-0.16215411
5	0xbe00af54	-0.12566882
6	0xbe20e32a	-0.15711656
7	0xbeaaf736	-0.33391732
8	0xbd9f6e41	-0.07784701
9	0xbe51cffc	-0.20489496
10	0xbe16a630	-0.14711833
11	0xbe82a67e	-0.25517648
12	0xbd997610	-0.07493222
13	0xbe29912d	-0.16559286
14	0xbe3f1be6	-0.18662986
15	0xbe4cd37d	-0.20002551
16	0xbde0af7e	-0.109709725
17	0xbe86b5ca	-0.2631057
18	0xbde9b83f	-0.11412095
19	0xbe47da75	-0.19516928
20	0xbe27ba00	-0.16379547
21	0xbe5b1544	-0.21394831
22	0xbdb51ed0	-0.08843768
23	0xbe5582ff	-0.20850752
24	0xbe29314a	-0.16522709
25	0xbe59b766	-0.21261367
26	0xbe2e4b4b	-0.1702091
27	0xbe9a92bc	-0.30190074
28	0xbe3ba16e	-0.183233
29	0xbe1e4feb	-0.15460174
30	0xbe40747e	-0.18794438
31	0xbe29131a	-0.16511193
32	0xbe032825	-0.12808283
33	0xbe2fb88f	-0.17160247
34	0xbe5fe86c	-0.21866006
35	0xbe40aacb	-0.18815152
36	0xbe633571	-0.22188355
37	0xbddb5907	-0.1071034
38	0xbe349215	-0.17633851
39	0xbe63a291	-0.22229983
40	0xbe36b1c8	-0.17841256
41	0xbe1927ca	-0.14956585
42	0xbe311f3b	-0.1729707
43	0xbe2a365d	-0.166223
44	0xbe5c6b06	-0.21525201
45	0xbdcbd120	-0.09951997
46	0xbe54bdd1	-0.20775534
47	0xbe18eaf1	-0.14933373
48	0xbd9be5fa	-0.07612224
49	0xbe2ee331	-0.17078854
50	0xbe3701df	-0.17871808
51	0xbe67b977	-0.22629343
52	0xbe4c117b	-0.19928543
53	0xbe05e25e	-0.13074633
54	0xbe3e4289	-0.18580069
55	0xbe3e8792	-0.18606403
56	0xbe3e657f	-0.18593405
57	0xbe0a359f	-0.13497017
58	0xbe413394	-0.18867332
59	0xbe4cf9e5	-0.20017202
60	0xbe229a94	-0.1587928
61	0xbe0fab04	-0.14030081
62	0xbe1ab0d6	-0.1510652
63	0xbe57d5df	-0.21077679

features.6.running_mean f4 [64]
0	0xbf426dfb	-0.75949067
1	0xbf78aeeb	-0.97141904
2	0xbf178e90	-0.5920191
3	0xbe8c6e63	-0.27427968
4	0xbedc768b	-0.4305919
5	0xbeb438b1	-0.35199502
6	0xbf306e84	-0.68918633
7	0x3f257603	0.64633197
8	0xbf187502	-0.5955354
9	0xbf1f79bb	-0.6229512
10	0xbf0a62f4	-0.5405724
11	0xbe9f4ed2	-0.31114823
12	0xbf1f6444	-0.6226237
13	0xbf1b1279	-0.6057506
14	0xbf4981f4	-0.7871392
15	0xbf3eb364	-0.7449248
16	0x3e8e3b17	0.27779457
17	0xbed17021	-0.4090586
18	0xbed4dc24	-0.41574204
19	0xbf4e1063	-0.80493754
20	0xbead7e9d	-0.3388566
21	0xbefc3216	-0.49256963
22	0xbf376ced	-0.7165058
23	0xbe672900	-0.22574234
24	0xbf2899fb	-0.65859956
25	0xbeffddab	-0.49973807
26	0xbf497aa8	-0.78702784
27	0x3f4daf0e	0.8034524
28	0xbe7bdae0	-0.24595213
29	0xbeee807f	-0.4658241
30	0xbeb221e3	-0.3479148
31	0xbf092a0c	-0.53579783
32	0xbea9dc05	-0.33175674
33	0x3ee213fb	0.4415587
34	0xbed8e448	-0.42361665
35	0xbed3a282	-0.4133492
36	0xbf0c4b64	-0.54802537
37	0xbf306d92	-0.6891719
38	0xbf9063f5	-1.1280504
39	0xbe980a9e	-0.296956
40	0xbf00ed71	-0.50362307
41	0xbf2556f1	-0.6458579
42	0xbf6e9b09	-0.93205315
43	0xbf013669	-0.5047365
44	0xbf203109	-0.6257482
45	0xbf5cc9f4	-0.86245656
46	0xbf30ca88	-0.6905904
47	0xbf16e896	-0.5894865
48	0xbf1c3e97	-0.61033005
49	0xbf0a9d5e	-0.54146373
50	0xbf083409	-0.532044
51	0xbf05f5ca	-0.5232817
52	0xbf1c1323	-0.609667
53	0xbf90704e	-1.1284273
54	0xbf018810	-0.5059824
55	0x3e946e7b	0.2899054
56	0xbf2c83bf	-0.6738853
57	0xbf6604b3	-0.8985092
58	0xbef75a09	-0.4831088
59	0xbee32cc5	-0.44370094
60	0xbf1429e2	-0.5787641
61	0xbee84a1e	-0.45369047
62	0xbee41c51	-0.44552854
63	0xbf2a5dc2	-0.66549313

features.6.running_var f4 [64]
0	0x3f83b893	1.0290703
1	0x402c82cc	2.6954832
2	0x3fe4d77f	1.7878264
3	0x3f9699e5	1.1765715
4	0x3faadfd6	1.3349559
5	0x3f3ca928	0.7369561
6	0x3fa1df5a	1.2646286
7	0x3f285f27	0.6577019
8	0x3fb877dd	1.4411579
9	0x3fa708aa	1.3049519
10	0x3fc86712	1.5656455
11	0x3fd1594f	1.635538
12	0x3fb7f65e	1.437206
13	0x3fc360fd	1.5263973
14	0x3fa964fd	1.3233944
15	0x3fd2f594	1.6481194
16	0x3f790db8	0.9728656
17	0x3f8001ee	1.0000589
18	0x3fa2af20	1.2709694
19	0x3fc73640	1.5563431
20	0x3fcbc7c1	1.5920335
21	0x3ff2804f	1.8945407
22	0x3fdd64fd	1.7296444
23	0x3ef7b5df	0.48380944
24	0x3f8a07bb	1.0783609
25	0x3f8599ae	1.0437524
26	0x3fd5610a	1.6670239
27	0x3f8fb613	1.122744
28	0x3f8d0183	1.1016086
29	0x3f9bc4ec	1.2169471
30	0x3fcbcdb0	1.5922146
31	0x3f95b7b0	1.1696682
32	0x3f8ed89c	1.1159854
33	0x3f9498e6	1.1609161
34	0x3f8c59bc	1.0964885
35	0x3f4cb2d6	0.7996038
36	0x3fd9245e	1.6964223
37	0x3ff40436	1.9063785
38	0x403bf78a	2.9369836
39	0x3f8bda3d	1.0925976
40	0x3febfc28	1.8436327
41	0x3fe2b80d	1.7712418
42	0x40062263	2.0958488
43	0x3fdbee0b	1.718202
44	0x3fd18adf	1.6370505
45	0x3fdb3700	1.712616
46	0x3fd258b1	1.6433316
47	0x3ffc53e0	1.9713097
48	0x3fc1b4c9	1.5133296
49	0x3fa519f1	1.2898542
50	0x3f95470f	1.166231
51	0x3f6437f7	0.89147896
52	0x3ff3659c	1.9015384
53	0x400e9287	2.2276933
54	0x3f916da9	1.1361591
55	0x3f4bfaae	0.7967938
56	0x3f9b3176	1.2124469
57	0x3fe67e68	1.8007326
58	0x3f73cd6d	0.9523533
59	0x3f757de7	0.95895237
60	0x3fa55fc6	1.2919853
61	0x3f98e943	1.1946186
62	0x3f9d8907	1.2307442
63	0x3fac3ae7	1.3455476

features.10.weight f4 [128, 64, 3]
0	0xbd0dfd96	-0.034665667
1	0x3c5253c1	0.012837351
2	0x3c7fc52c	0.015610974
3	0xbdaa2769	-0.08308298
4	0xbc78fa91	-0.015196458
5	0x3d22add4	0.039716557
6	0x3ce2daf2	0.027692292
7	0xbbac7f7e	-0.0052642217
8	0xbc5755aa	-0.0131429825
9	0xbb66b77d	-0.0035204582
10	0xbca9e8e3	-0.020740932
11	0xbd9707ed	-0.073745586
12	0x3d791c30	0.060817897
13	0xbc7edd1d	-0.015555647
14	0xbcd4b60f	-0.025965719
15	0x3cd9c7e9	0.026584582
16	0x3d0be968	0.03415814
17	0x39c4c9a3	0.00037534264
18	0xbcdf71e0	-0.02727598
19	0x3b819cbb	0.0039554513
20	0xbbcb2bde	-0.0062002977
21	0x3c9ee7e4	0.019397683
22	0xbcc825cd	-0.024432087
23	0xbc17cf07	-0.009265668
24	0x3c6bc37c	0.014389869
25	0xbca6cff3	-0.02036283
26	0xbd0eef3f	-0.03489613
27	0xbd75f62e	-0.06004923
28	0xbca80149	-0.020508425
29	0x3cf2df25	0.02964742
30	0x3d1a5bac	0.03768508
31	0xbc30f11e	-0.010799674
32	0xbce431cc	-0.027855776
33	0xbcb3ce2e	-0.0219489
34	0xbd39f558	-0.045399994
35	0xbd8f2ab6	-0.06990568
36	0x3d7c6977	0.061624017
37	0xbc6f291a	-0.014597202
38	0xbc2a7e37	-0.0104060685
39	0xbda3e3b6	-0.08002417
40	0x3c183120	0.009289056
41	0x3da5ac4f	0.08089506
42	0xbc688308	-0.014191397
43	0x3d8f5bbd	0.069999196
44	0x3d4770ad	0.04869144
45	0xbd490797	-0.049079504
46	0x3b9a2049	0.0047035557
47	0xbc508d1a	-0.012728954
48	0x3d3a4333	0.045474242
49	0x3c1aea24	0.009455238
50	0xbce7be4f	-0.028288988
51	0xbcc1a350	-0.023637444
52	0xbb712ba4	-0.0036799693
53	0xbb1dc47f	-0.002407342
54	0x3cf7f487	0.030267967
55	0x3b18f23b	0.002333774
56	0xbd286370	-0.041110456
57	0xbd9aa51e	-0.07551025
58	0x3aa54d6c	0.0012611574
59	0x3d03428b	0.032045882
60	0x3c972d74	0.01845429
61	0xbc83e93b	-0.016102424
62	0xbd3126c3	-0.043249857
63	0x3cbf4202	0.023346905
64	0xbc00de76	-0.007865539
65	0xbceabe11	-0.028655084
66	0x3cd0b55c	0.025477104
67	0xbad2049b	-0.0016023101
68	0xbcc8ceda	-0.024512697
69	0x3add32b4	0.0016876073
70	0xb95d8fca	-0.00021129768
71	0xbc84f0c6	-0.016228091
72	0x3d36a794	0.04459341
73	0x3d403c93	0.046932768
74	0xbd2b8b10	-0.041880667
75	0xbca17ea3	-0.019713705
76	0x3c05c007	0.008163459
77	0xbae49cad	-0.0017441713
78	0x3d44a6e6	0.04801073
79	0x3d8bba43	0.06822636
80	0x3c9ad425	0.018899987
81	0x3b8d4c0b	0.0043120435
82	0xbc82ee9a	-0.015982915
83	0x3c7b9891	0.015356199
84	0x3bc89cfd	0.00612223
85	0x3a3250f1	0.00068022223
86	0xbb9ccd1c	-0.004785193
87	0xbd3689e4	-0.044565096
88	0xbce350b3	-0.027748441
89	0xbccb63a5	-0.024827788
90	0xbcd1245f	-0.025530038
91	0xbc976b1e	-0.018483695
92	0xbd2762d1	-0.040865723
93	0x3d9dcf08	0.07705504
94	0x3c44d73b	0.012014206
95	0xbd149b61	-0.036280993
96	0xbca09d17	-0.019606156
97	0x3b57a556	0.0032904944
98	0x3b6eb05b	0.0036421034
99	0x3d006d0a	0.031353988
100	0x3cbb9c4e	0.02290168
101	0xbbe68158	-0.007034462
102	0xbd172155	-0.036897022
103	0xbd725e14	-0.05917175
104	0xbd899596	-0.067179844
105	0x3d946b1c	0.07246992
106	0x3d1d4256	0.03839334
107	0x3bd207c3	0.0064096167
108	0x3ce7e303	0.02830649
109	0x3c1fecd8	0.009761058
110	0xbccb633c	-0.024827592
111	0x3d11ceda	0.03559766
112	0x3cf85671	0.030314656
113	0xbc657734	-0.014005471
114	0xbdf82cfb	-0.12117954
115	0x3c278338	0.010224156
116	0x3d9040ac	0.07043585
117	0xbd44d079	-0.048050378
118	0xbceb0ae5	-0.028691718
119	0xba57ede6	-0.0008237049
120	0x3ba67662	0.0050800303
121	0xbd23d67a	-0.039999463
122	0xbb70d78b	-0.0036749567
123	0x3a341346	0.0006869327
124	0xbc3e22a3	-0.011604938
125	0xbc5eb932	-0.013593959
126	0x3d4b3c3d	0.049617995
127	0x3d13efb6	0.036117278
128	0x3caadb91	0.02085665
129	0x3c8e8c30	0.017400831
130	0x3cb8d675	0.022563199
131	0x3b44657a	0.0029967711
132	0x3cca81cb	0.024720093
133	0xb867011a	-5.5075718e-05
134	0xbbd3056e	-0.0064398563
135	0x3c374a3b	0.0111871315
136	0xbd0048d6	-0.03131946
137	0xbd367ea4	-0.044554368
138	0x3d48c2cf	0.04901391
139	0x3ca1e16f	0.019760815
140	0x3bdd5064	0.006753968
141	0x3d012463	0.03152884
142	0x3cd621e3	0.026139205
143	0x3c0d34eb	0.008618574
144	0x3d0fbd79	0.035092805
145	0x3c3cb734	0.011518288
146	0x3b940229	0.004516859
147	0xbcdacb5d	-0.0267083
148	0xbd000ff0	-0.0312652
149	0x3c85976f	0.01630756
150	0x3b62097c	0.0034490516
151	0xbcb7abf0	-0.022420853
152	0x3ab7afcd	0.0014014185
153	0x3d12b411	0.035816256
154	0x3d96a2f2	0.07355298
155	0xbc9d514c	-0.019203804
156	0x3c830048	0.015991345
157	0x3c3986fe	0.011323689
158	0xbcfe5c55	-0.031049887
159	0xbda03067	-0.07821732
160	0x3b3ef5c2	0.0029138182
161	0x3d079972	0.03310532
162	0x3d134977	0.035958733
163	0xbb5ac1c6	-0.0033379658
164	0xbd6a08f7	-0.057137456
165	0x3c94473f	0.018100379
166	0x3cf9aefe	0.03047895
167	0xbc88309e	-0.016624745
168	0xbd3eec19	-0.04661188
169	0xbc3a6302	-0.011376144
170	0x3d1387e1	0.036018256
171	0xbdb420cf	-0.0879532
172	0xbccb3758	-0.024806663
173	0x3c4f4bc1	0.0126523385
174	0x3db115c7	0.08646732
175	0xbc95ae8e	-0.01827171
176	0xbd755961	-0.05989969
177	0xbd49c4d4	-0.049259976
178	0xbb97852d	-0.00462403
179	0xbb803c29	-0.0039134216
180	0x3d593670	0.05303043
181	0xbc21692f	-0.009851738
182	0xbcf6461f	-0.030062733
183	0x3cfdfc35	0.03100405
184	0x3cc976a5	0.024592707
185	0xbd12f591	-0.03587872
186	0x3c937c9b	0.018003752
187	0x3c5db285	0.013531332
188	0xbc89aaa4	-0.016805
189	0x3d62ee92	0.0554033
190	0x3dc129f3	0.09431829
191	0x3d345404	0.044025436
192	0x3d5fb1fa	0.05461309
193	0x3c8edb0c	0.017438434
194	0xbd7c7a31	-0.06163997
195	0x3c723e34	0.014785338
196	0xbb76c7b1	-0.0037655646
197	0xbd4b4ff7	-0.049636807
198	0xbcff28d2	-0.031147394
199	0xbc924436	-0.017854791
200	0xbc85f818	-0.016353652
201	0xbda13b5c	-0.0787265
202	0xbd2497bb	-0.040183764
203	0xbcb5fca0	-0.022215188
204	0x3c892be2	0.016744558
205	0x3cde3088	0.02712275
206	0xbd0d059f	-0.03442919
207	0xbd0e5da3	-0.034757268
208	0x3d413d91	0.047177855
209	0x3d6b9aff	0.057520863
210	0x3d922e6d	0.07137761
211	0xbb1e2349	-0.0024129918
212	0xbd5aca7b	-0.053415757
213	0xbd0b214b	-0.033967298
214	0xbc57b0ec	-0.01316474
215	0xbd0a58cf	-0.0337761
216	0xbdbc6233	-0.091984175
217	0x3d279254	0.040911034
218	0xbc8cef55	-0.017203966
219	0xbd505391	-0.050860945
220	0x3c388c11	0.011263863
221	0x3c6861c5	0.014183466
222	0x3ba277a4	0.00495811
223	0x3bcca188	0.006244842
224	0xbd15db17	-0.036585893
225	0xbc9ee37e	-0.019395586
226	0xbc9bc66c	-0.019015513
227	0xbd213d27	-0.03936496
228	0xbc5d69f8	-0.013514034
229	0xbc0c4332	-0.0085609425
230	0xbd42ca9d	-0.04755651
231	0x3d8ad340	0.06778574
232	0x3ce4bd0f	0.027922181
233	0xbc872aa2	-0.016499821
234	0x3d60a88d	0.054848243
235	0xbdcc81d0	-0.09985697
236	0x3c7145b7	0.014726094
237	0x3dae8180	0.08520794
238	0x3bdbfefe	0.006713747
239	0xbd7c7ab7	-0.061640467
240	0x3b2fca66	0.002682352
241	0x3cd9fc5e	0.026609596
242	0x3c97f034	0.018547155
243	0x3d3c26e7	0.045935538
244	0xbd0caa8d	-0.034342337
245	0x3d2bc018	0.04193124
246	0x3beb7798	0.0071858875
247	0x3ca8cc07	0.0206051
248	0xbcd33ea7	-0.02578671
249	0x3d4d8858	0.050178856
250	0xbcfae32c	-0.030625902
251	0xbdbf6102	-0.09344675
252	0x3ca3e3b4	0.020006038
253	0x3b24eff7	0.0025167444
254	0xbca9c075	-0.020721653
255	0x3cad47dd	0.021152431

features.10.bias f4 [128]
0	0x36a291ab	4.844934e-06
1	0x36b7dd05	5.479555e-06
2	0x36ae58d6	5.195946e-06
3	0xb6b9fab3	-5.542615e-06
4	0x35c31572	1.4534874e-06
5	0xb51a8363	-5.7560663e-07
6	0x36727682	3.612979e-06
7	0xb6699df5	-3.4811649e-06
8	0xb626963e	-2.482338e-06
9	0xb5d83efd	-1.6111586e-06
10	0x3744f7a9	1.1740173e-05
11	0xb705dad5	-7.978369e-06
12	0x358f3c98	1.0671965e-06
13	0xb6165564	-2.2401446e-06
14	0x36cc0cf8	6.0811835e-06
15	0x36d90e95	6.4688015e-06
16	0xb70dc1c0	-8.449366e-06
17	0x35d28836	1.5685862e-06
18	0xb5cad248	-1.5111373e-06
19	0xb68b2015	-4.1462577e-06
20	0x34598a4b	2.026001e-07
21	0xb6b7e477	-5.480422e-06
22	0x35dccc4a	1.6450733e-06
23	0x35cbecc2	1.5193584e-06
24	0xb64501ec	-2.9356406e-06
25	0xb64eb8ce	-3.0803963e-06
26	0x367a8b04	3.733382e-06
27	0x368e36e6	4.238321e-06
28	0x367dcda1	3.781963e-06
29	0xb640cc03	-2.872898e-06
30	0xb74cc122	-1.2204315e-05
31	0x36535e16	3.1496215e-06
32	0x34c3d92c	3.6479594e-07
33	0xb50d55ff	-5.2651734e-07
34	0xb526e24d	-6.216913e-07
35	0xb7a0d1a7	-1.9171113e-05
36	0xb605ad3c	-1.991938e-06
37	0xb5b015f8	-1.3119416e-06
38	0x35cd6e66	1.530582e-06
39	0x369a6370	4.6011337e-06
40	0x35ed4344	1.7677453e-06
41	0xb6dc1ddd	-6.5599875e-06
42	0x35b4d16a	1.3471993e-06
43	0x36472d02	2.9679509e-06
44	0xb75126ae	-1.2466377e-05
45	0x35fba551	1.8749071e-06
46	0x352689a0	6.204009e-07
47	0xb5fae56a	-1.869322e-06
48	0xb68bd7d0	-4.1676467e-06
49	0xb6f0f64a	-7.181229e-06
50	0xb646695a	-2.9565622e-06
51	0x368b94b8	4.159836e-06
52	0x3688ffbf	4.0828886e-06
53	0x34e530e9	4.269016e-07
54	0x35881cb7	1.0141147e-06
55	0xb5f52e2c	-1.826736e-06
56	0xb68cdde3	-4.198156e-06
57	0x365ff276	3.337072e-06
58	0x34f397d8	4.5372758e-07
59	0xb4d1a161	-3.9046702e-07
60	0x35d1c42a	1.5628805e-06
61	0x342c2b4e	1.6034502e-07
62	0xb5de46cd	-1.6560895e-06
63	0x362f6d7e	2.6140765e-06
64	0x36b2816e	5.319881e-06
65	0xb7001c10	-7.635928e-06
66	0x3582feb8	9.759888e-07
67	0xb63dc778	-2.82793e-06
68	0xb6ae2ae8	-5.190599e-06
69	0x36e75814	6.89459e-06
70	0x35511ebf	7.790331e-07
71	0xb6988262	-4.5451316e-06
72	0xb6371a0f	-2.7284293e-06
73	0xb5371ea7	-6.821742e-07
74	0x370d99bb	8.440048e-06
75	0xb60c03ad	-2.0863765e-06
76	0x36c7581c	5.9409194e-06
77	0x3730d365	1.0539637e-05
78	0xb55594b1	-7.956506e-07
79	0xb5f4f2f4	-1.8250125e-06
80	0x364f967c	3.0932997e-06
81	0xb72f5a3d	-1.0451823e-05
82	0x3612541a	2.180465e-06
83	0xb5eb3e1d	-1.7526942e-06
84	0xb5432d62	-7.27092e-07
85	0x367a8538	3.7330447e-06
86	0x366cf76f	3.5310766e-06
87	0xb60f8a19	-2.1389044e-06
88	0x373b83fa	1.1176797e-05
89	0x366e68b7	3.5525716e-06
90	0xb4d11360	-3.894338e-07
91	0x366f089f	3.5618793e-06
92	0xb60ba0f6	-2.0806306e-06
93	0x35ce6d68	1.5380037e-06
94	0x3783879f	1.567957e-05
95	0x355aae2b	8.1464776e-07
96	0xb5a7ba37	-1.2496665e-06
97	0xb69529d3	-4.445415e-06
98	0x35d4546f	1.5819804e-06
99	0xb6dd44ea	-6.594336e-06
100	0x36a29228	4.844991e-06
101	0xb6a55622	-4.9274104e-06
102	0xb686424f	-4.0012305e-06
103	0xb60abb16	-2.06725e-06
104	0x35fe591c	1.8950409e-06
105	0x35863596	9.999374e-07
106	0x36ff2e1b	7.6049596e-06
107	0x3596deec	1.124075e-06
108	0xb4a6c3cd	-3.1062373e-07
109	0x373ed6ea	1.1374921e-05
110	0xb6b29324	-5.321943e-06
111	0xb6d86195	-6.4486617e-06
112	0x36c98667	6.0059133e-06
113	0xb6fc5b2c	-7.520799e-06
114	0x36a0fee9	4.798047e-06
115	0xb60b684e	-2.0773327e-06
116	0xb5f1085a	-1.795833e-06
117	0x36c475d1	5.854971e-06
118	0x36daf465	6.5253575e-06
119	0x3693fb1e	4.4101753e-06
120	0xb5c2c61c	-1.4511784e-06
121	0xb54f0ff0	-7.71367e-07
122	0x36a40872	4.888564e-06
123	0x36d4355e	6.324305e-06
124	0x36eab0e3	6.9943358e-06
125	0xb6e5b4a6	-6.845762e-06
126	0x351ee011	5.9185646e-07
127	0x34ae20be	3.243385e-07

features.11.weight f4 [128]
0	0x3f876e2d	1.0580498
1	0x3f893ea5	1.0722243
2	0x3f768799	0.96300656
3	0x3f80985e	1.0046499
4	0x3f7b34f1	0.9812766
5	0x3f7e2ddc	0.99288726
6	0x3f76d275	0.9641488
7	0x3f827bb4	1.0194001
8	0x3f81088e	1.0080736
9	0x3f803343	1.0015644
10	0x3f8dfe0f	1.1093158
11	0x3f7c9961	0.9867154
12	0x3f839411	1.0279561
13	0x3f880a3c	1.0628123
14	0x3f85d321	1.0455056
15	0x3f801e1e	1.0009191
16	0x3f7eb613	0.99496573
17	0x3f7ec5e0	0.99520683
18	0x3f83c5a0	1.0294685
19	0x3f8e3278	1.1109152
20	0x3f85f86d	1.0466439
21	0x3f7d3aa9	0.98917633
22	0x3f872f1e	1.0561254
23	0x3f88f406	1.069947
24	0x3f8565b3	1.0421661
25	0x3f8ad5c1	1.0846483
26	0x3f85f562	1.046551
27	0x3f84bd2a	1.0370228
28	0x3f8ec10f	1.1152667
29	0x3f6e3d52	0.9306232
30	0x3f858ef9	1.0434257
31	0x3f82b2fa	1.0210869
32	0x3f86c432	1.0528624
33	0x3f8ba518	1.0909758
34	0x3f899820	1.074955
35	0x3f874f89	1.0571147
36	0x3f849dda	1.0360672
37	0x3f892c95	1.071673
38	0x3f7624c6	0.9614986
39	0x3f8cada9	1.0990497
40	0x3f8512cb	1.039636
41	0x3f89a80c	1.0754409
42	0x3f8264ba	1.0186989
43	0x3f8b1ffd	1.0869137
44	0x3f852a15	1.0403467
45	0x3f7f4c4f	0.9972581
46	0x3f87b8a0	1.0603218
47	0x3f836034	1.0263734
48	0x3f864dd3	1.04925
49	0x3f85ccc2	1.0453112
50	0x3f821596	1.0162838
51	0x3f8372d8	1.0269423
52	0x3f893f8a	1.0722516
53	0x3f7e19d6	0.9925817
54	0x3f81779d	1.0114628
55	0x3f81d5de	1.0143392
56	0x3f84533e	1.0337903
57	0x3f920d7b	1.1410364
58	0x3f839865	1.0280882
59	0x3f8539bd	1.0408245
60	0x3f84b4af	1.036764
61	0x3f812c65	1.0091673
62	0x3f87e256	1.0615947
63	0x3f7d5340	0.98955154
64	0x3f818923	1.0119976
65	0x3f8a3bb6	1.0799472
66	0x3f836adc	1.0266986
67	0x3f798f2f	0.97484106
68	0x3f89eb3c	1.0774913
69	0x3f83793e	1.0271375
70	0x3f8223dc	1.0167193
71	0x3f850242	1.0391314
72	0x3f7ef895	0.99598056
73	0x3f7a0602	0.9766542
74	0x3f856172	1.0420363
75	0x3f870537	1.0548466
76	0x3f8bceeb	1.0922521
77	0x3f8a4a2c	1.0803885
78	0x3f88cbb9	1.0687171
79	0x3f86bbf9	1.0526115
80	0x3f826fe1	1.0190393
81	0x3f86e1fc	1.0537715
82	0x3f8734ba	1.0562966
83	0x3f8431f3	1.0327743
84	0x3f87ccbd	1.0609356
85	0x3f867e11	1.0507222
86	0x3f853221	1.0405923
87	0x3f802dd7	1.0013989
88	0x3f849c47	1.0360192
89	0x3f84fbb0	1.0389309
90	0x3f818306	1.011811
91	0x3f865f9b	1.0497926
92	0x3f8222ae	1.0166833
93	0x3f7dd480	0.99152374
94	0x3f805c67	1.0028199
95	0x3f85c639	1.0451118
96	0x3f6b850c	0.9199989
97	0x3f842bb8	1.0325842
98	0x3f83016d	1.023481
99	0x3f88e178	1.0693808
100	0x3f88384e	1.0642183
101	0x3f88edbd	1.0697552
102	0x3f7668a9	0.9625345
103	0x3f768d76	0.963096
104	0x3f8902ec	1.0704017
105	0x3f85ff1a	1.0468476
106	0x3f86df6e	1.0536935
107	0x3f79c398	0.9756408
108	0x3f7e6749	0.9937635
109	0x3f86f3dc	1.054317
110	0x3f85ed66	1.0463073
111	0x3f80f680	1.0075226
112	0x3f86564b	1.0495085
113	0x3f8af427	1.0855759
114	0x3f845848	1.0339441
115	0x3f851fbd	1.0400311
116	0x3f7a13e2	0.9768659
117	0x3f8213d9	1.0162307
118	0x3f89e8b8	1.0774145
119	0x3f8a68c4	1.0813222
120	0x3f81a89a	1.0129578
121	0x3f875188	1.0571756
122	0x3f862b1c	1.0481906
123	0x3f86870b	1.0509962
124	0x3f899b27	1.0750474
125	0x3f875f60	1.0575981
126	0x3f7b07b3	0.98058623
127	0x3f87cd00	1.0609436

features.11.bias f4 [128]
0	0x3cfdc164	0.030976005
1	0x3c9d8c02	0.0192318
2	0x3d21528c	0.039385363
3	0x3d0c8d3b	0.034314375
4	0x3d036d63	0.03208674
5	0xbc04be25	-0.008101975
6	0xbcb7e2cc	-0.022447012
7	0x3c825e02	0.015913967
8	0x3aa1f92c	0.0012357584
9	0x3cb4ba80	0.022061586
10	0x3d3f52a3	0.046709668
11	0x3d20465f	0.03912961
12	0x3ba7447a	0.0051045986
13	0xbbc9843f	-0.006149798
14	0xbc66595c	-0.014059391
15	0x3ce92fef	0.02846524
16	0x3d0d27fc	0.03446196
17	0x3cf76817	0.030201001
18	0x3c448689	0.011994966
19	0xbd0605e7	-0.032720473
20	0xbbebd41a	-0.0071969153
21	0x3d1fa6ad	0.038977314
22	0x3c842cad	0.016134584
23	0x3d02f510	0.03197199
24	0xbbd67210	-0.006544359
25	0xbc86a4cb	-0.016436001
26	0x3d22b689	0.03972486
27	0x3cced92e	0.025250044
28	0xbc61b54b	-0.013776134
29	0x3cd19cd5	0.025587479
30	0x3d3c0af2	0.045908876
31	0x3c034f20	0.00801447
32	0x3cf12171	0.029434891
33	0xbb7e8978	-0.0038839262
34	0x3d53ad21	0.05167878
35	0x3d6c277e	0.05765485
36	0xbbf4a9ef	-0.0074665467
37	0x3c80ad70	0.015707701
38	0x3c971a5e	0.01844519
39	0x3d8f3c36	0.06993906
40	0x3d1d6910	0.038430274
41	0x3ccc9513	0.024973428
42	0xbce8319b	-0.028343966
43	0x3d249846	0.04018428
44	0x3d45a3a7	0.048251774
45	0xbb5b6c98	-0.0033481475
46	0x3d229380	0.03969145
47	0x3d5936e2	0.053030856
48	0xbc8726c5	-0.016497979
49	0xbaef7e95	-0.0018271977
50	0x3d19ee1f	0.037580606
51	0x3d9bd60b	0.07609185
52	0xbbbf7c48	-0.005843673
53	0x3d41cd25	0.04731478
54	0x3b8349c9	0.0040065986
55	0x3b010bd4	0.0019690888
56	0xb9650e4d	-0.0002184447
57	0xbcc7c697	-0.024386687
58	0x3b552f22	0.0032529314
59	0xbd1657cb	-0.03670482
60	0x3c1048a9	0.008806386
61	0x3bd811ba	0.00659391
62	0x3d03a6dd	0.032141555
63	0x3c9b5c8e	0.018965032
64	0x3c8db4f1	0.017298194
65	0x3d31d789	0.04341844
66	0xbbe4da96	-0.0069840653
67	0xbce1c703	-0.027560716
68	0xbace2120	-0.0015726425
69	0x3d1bc616	0.038030706
70	0x3bbc723e	0.0057509234
71	0x3d1edc41	0.03878427
72	0x3c9f128d	0.019418025
73	0xbba63273	-0.005071932
74	0x3c65667c	0.014001485
75	0x3ca3caec	0.019994222
76	0x3d2fe568	0.04294339
77	0x3cf9dc46	0.030500542
78	0x3c5497fc	0.012975689
79	0x3d4978fe	0.049187653
80	0xbc4a1285	-0.012333517
81	0x3cfcbb3c	0.030850999
82	0xbbc6e73b	-0.0060700453
83	0x3d8299d9	0.06377
84	0xbbdcba7e	-0.006736099
85	0xbc6723ef	-0.014107688
86	0x3c67cd45	0.014148061
87	0x3d373dda	0.04473672
88	0x3d5d34fe	0.054005615
89	0x3a2d61bf	0.00066139916
90	0x3d2c7ed1	0.04211313
91	0x3d0db9a3	0.034600865
92	0xbd1fb53f	-0.03899121
93	0x3c8f640b	0.017503759
94	0x3d0d0b25	0.034434456
95	0x3a935b81	0.001124248
96	0x3b5856c5	0.0033010703
97	0x3d6a1712	0.057150908
98	0xbc8149f2	-0.01578233
99	0x3d928b33	0.071554564
100	0x3bae259b	0.0053145415
101	0xbd68f1a7	-0.056871083
102	0xbb3f2338	-0.002916528
103	0x3cd1ea0c	0.025624298
104	0x3c86066b	0.016360482
105	0x3b6c19cf	0.0036026125
106	0x3d96ef53	0.07369866
107	0xbc508790	-0.012727633
108	0x3d0177cc	0.031608388
109	0x3c673d0c	0.014113676
110	0x3d14183f	0.036155935
111	0xbc9deef1	-0.019278975
112	0x3d1a65d6	0.037694775
113	0xbd207b87	-0.039180305
114	0x3d2de692	0.042456217
115	0xbc99c058	-0.018768474
116	0x3c69e658	0.01427611
117	0x3d747bdd	0.059688438
118	0x3d098a0c	0.033578917
119	0x3d3ad264	0.0456108
120	0xbd44e7c9	-0.04807261
121	0x3be1f09c	0.006895138
122	0xbc9b4882	-0.018955473
123	0xbc05684b	-0.008142541
124	0x3d36207f	0.044464584
125	0x3d1466e2	0.03623093
126	0xbce07b9c	-0.027402692
127	0xba99f4d0	-0.0011745933

features.11.running_mean f4 [128]
0	0x3bc7bf34	0.0060957912
1	0xbe58a49f	-0.21156548
2	0xbefba4e3	-0.49149236
3	0xbef46f1e	-0.47741026
4	0xbf260fcf	-0.6486787
5	0x3e4ef93a	0.2021226
6	0x3ea82ca7	0.32846567
7	0x3d62a2ec	0.055331156
8	0xbebbf802	-0.36712652
9	0xbd7715c8	-0.060323507
10	0x3e711aef	0.2354543
11	0xbf2bb230	-0.6706877
12	0x3e47a1ee	0.19495365
13	0x3dde11ee	0.108432636
14	0xbea21459	-0.3165615
15	0xbf8e46c1	-1.1115342
16	0xbf6f60e4	-0.9350722
17	0xbf51ba03	-0.81924456
18	0x3e04917c	0.12946123
19	0x3ece59ac	0.4030279
20	0x3e605660	0.2190795
21	0xbedae32f	-0.42751452
22	0x3d9be8c4	0.07612756
23	0xbe6afdcf	-0.22948383
24	0x3c3c9e20	0.011512309
25	0x3ec0c651	0.37651303
26	0xbdd929ef	-0.10603701
27	0x3da2fa24	0.07957867
28	0x3ea7ea7e	0.3279609
29	0xbeae3973	-0.34028205
30	0xbf0e2c93	-0.55536765
31	0xbeef4da4	-0.46738923
32	0xbe0d7cc1	-0.13817121
33	0x3e70fde8	0.23534358
34	0xbd56909a	-0.052383997
35	0xbd84f789	-0.06492526
36	0x3e6d6986	0.23184785
37	0x3ea1e69b	0.3162125
38	0xbe5f5485	-0.21809585
39	0xbd07a507	-0.033116367
40	0xbf08e952	-0.5348102
41	0xbe4623fa	-0.19349661
42	0x3e80575a	0.25066644
43	0x3dcd013c	0.10010001
44	0xbe391e01	-0.18077852
45	0x3e359043	0.17730813
46	0xbe404008	-0.18774426
47	0xbf265cb2	-0.6498519
48	0x3e5f8fbc	0.21832174
49	0xbf1bb7ed	-0.60827523
50	0xbed9cbb6	-0.42538232
51	0xbe65c22a	-0.22437349
52	0x3e6e184c	0.23251456
53	0xbf68093c	-0.9063909
54	0x3e202031	0.1563728
55	0xbe9eec83	-0.3103982
56	0x3e8e4095	0.27783647
57	0x3efc7140	0.49305153
58	0x3e3371ae	0.17523834
59	0xbdbece7c	-0.093167275
60	0x3e98fde7	0.29881212
61	0xbe209995	-0.15683587
62	0x3bb37b7c	0.005477367
63	0xbe8a7889	-0.27045086
64	0x3dc73963	0.097277425
65	0x3dc02424	0.09381893
66	0x3e90c30a	0.28273803
67	0x3e5dbde7	0.21654473
68	0x3db227da	0.08699007
69	0xbe9d5910	-0.30732012
70	0x3e807c90	0.25095034
71	0xbdc22f68	-0.09481698
72	0xbeb40e97	-0.3516738
73	0x3dfa38de	0.12217878
74	0x3d592b6b	0.053019922
75	0xbe158cf4	-0.1460455
76	0x3c92d77c	0.017925017
77	0xbe095f33	-0.13415222
78	0x3dbb70df	0.09152388
79	0xbdf6f4a1	-0.12058378
80	0x3e1f4e69	0.15557255
81	0xbde486ed	-0.111585476
82	0x3df1e8c0	0.11811972
83	0x3c327e4b	0.010894368
84	0x3e702675	0.2345217
85	0x3e4a9e59	0.19786967
86	0x3e540779	0.20705976
87	0xbf1e621f	-0.6186847
88	0xbf102181	-0.5630112
89	0x3dcc6922	0.0998099
90	0x3d8e2b26	0.06941824
91	0xbd4e9810	-0.050437987
92	0x3e6d66a6	0.23183689
93	0xbf426644	-0.75937295
94	0xbf4d3cd0	-0.8017092
95	0x3e36c52c	0.17848653
96	0x3d842364	0.06452063
97	0xbe7a6470	-0.24452376
98	0x3e3688d4	0.17825633
99	0xbda5da4c	-0.080982774
100	0x3e650d6c	0.22368401
101	0x3cfd3fba	0.030914176
102	0xbd3def5e	-0.046370856
103	0x3dd30522	0.103037134
104	0x3e7262d6	0.23670515
105	0x3d44810c	0.04797463
106	0xbe85e63b	-0.26152214
107	0x3e64c60c	0.22341174
108	0xbf510921	-0.81654555
109	0xbe81f107	-0.25379202
110	0xbe80ce0b	-0.25157198
111	0x3df72684	0.12067893
112	0x3e9d80ca	0.3076232
113	0x3e0235ec	0.12715882
114	0xbe6f5210	-0.23371148
115	0x3e571d2f	0.21007226
116	0xbe5ea3af	-0.21742128
117	0xbf1054d2	-0.56379426
118	0x3df2ac38	0.11849254
119	0x3e1943a5	0.1496721
120	0xbcb23bbe	-0.021757003
121	0x3e5c7829	0.21530212
122	0x3edb56ee	0.4283976
123	0x3dd0e428	0.10199767
124	0xbe6fbd95	-0.23412164
125	0x3d48dcc9	0.049038682
126	0x3e3cd865	0.18441923
127	0xbce90ac4	-0.028447516

features.11.running_var f4 [128]
0	0x3de2963f	0.110638134
1	0x3df38003	0.11889651
2	0x3dcd3397	0.100196056
3	0x3de2e898	0.1107952
4	0x3e276f71	0.16351105
5	0x3e3dd2fd	0.18537517
6	0x3e466a8c	0.19376582
7	0x3dbd9e5e	0.09258722
8	0x3dd786c5	0.10523752
9	0x3dd6d130	0.10489118
10	0x3de2cb63	0.11073949
11	0x3ddc7e2b	0.10766252
12	0x3e32261f	0.17397355
13	0x3dc33f49	0.09533555
14	0x3e01d27c	0.1267795
15	0x3e0791fc	0.13239282
16	0x3db144a0	0.08655667
17	0x3e4f8567	0.20265733
18	0x3ddbcb7a	0.107321694
19	0x3e0a1e79	0.13488187
20	0x3e2be3aa	0.16786066
21	0x3db47d26	0.08812933
22	0x3e572421	0.21009876
23	0x3ddd7769	0.10813791
24	0x3ddeb4e0	0.10874343
25	0x3ea84931	0.3286834
26	0x3dbf036d	0.09326825
27	0x3e5afdb8	0.21385849
28	0x3e195d97	0.14977108
29	0x3d7153b4	0.058917716
30	0x3e2115d5	0.15730985
31	0x3d8d40f1	0.06897152
32	0x3e079a83	0.13242535
33	0x3e63a85f	0.22232197
34	0x3e0e7f97	0.13915859
35	0x3d94bb5f	0.07262301
36	0x3e9f5194	0.31116927
37	0x3e8b433f	0.27199742
38	0x3d91c10f	0.07116901
39	0x3ddee54d	0.108835794
40	0x3e19cc98	0.15019453
41	0x3e3a2e01	0.18181612
42	0x3e1f7432	0.15571669
43	0x3de5f214	0.11227813
44	0x3e0eefea	0.13958707
45	0x3e310da3	0.17290358
46	0x3dcd116d	0.10013089
47	0x3dbf1623	0.09330394
48	0x3dd5b695	0.104352154
49	0x3dbdf6d2	0.09275593
50	0x3dedf2f3	0.116186045
51	0x3da33784	0.07969573
52	0x3e14b9a5	0.14523943
53	0x3e6ec1aa	0.23316064
54	0x3e38820b	0.18018357
55	0x3de3991a	0.11113186
56	0x3e705af6	0.23472199
57	0x3e1c82f3	0.15284328
58	0x3e5c90f5	0.21539672
59	0x3e2ff940	0.17184925
60	0x3e77d4a8	0.24202216
61	0x3db6fcd3	0.08934941
62	0x3de76434	0.11298409
63	0x3dbcf05f	0.09225535
64	0x3e328781	0.17434503
65	0x3e0eb37f	0.1393566
66	0x3e86481a	0.26226884
67	0x3e20ecda	0.15715352
68	0x3dc90a8c	0.09816465
69	0x3dcb0dfe	0.09914778
70	0x3e2c1821	0.1680608
71	0x3dbe9f42	0.0930772
72	0x3db79cfe	0.08965491
73	0x3de15a00	0.11003494
74	0x3dc03f53	0.09387078
75	0x3e762eac	0.24041241
76	0x3ddb258c	0.10700521
77	0x3defd860	0.11711192
78	0x3e60e5ae	0.21962616
79	0x3d8dadb9	0.069179006
80	0x3e3d9a6c	0.18515939
81	0x3ded9cbc	0.1160216
82	0x3e7c15d6	0.24617705
83	0x3daa02a6	0.083012864
84	0x3e7e53c9	0.24836649
85	0x3e0bd930	0.13657069
86	0x3e78330a	0.2423822
87	0x3dca7a0a	0.09886558
88	0x3dd55cdc	0.10418102
89	0x3e1d7a12	0.15378597
90	0x3db89bae	0.090140685
91	0x3dbc0d95	0.09182278
92	0x3df0fcf7	0.11766999
93	0x3dfa3d23	0.12218692
94	0x3e00212a	0.12512651
95	0x3df2520b	0.11832055
96	0x3e363f93	0.17797689
97	0x3da0737f	0.07834529
98	0x3e2c31ec	0.16815919
99	0x3dbe1102	0.09280588
100	0x3ea0e774	0.31426585
101	0x3e30826b	0.1723725
102	0x3da3a0a2	0.07989623
103	0x3d433167	0.047654536
104	0x3e80e036	0.2517106
105	0x3d8b004d	0.06787167
106	0x3ddf7970	0.10911834
107	0x3e2290f0	0.15875602
108	0x3de7473a	0.11292882
109	0x3dadf226	0.08493452
110	0x3dcd872c	0.100355476
111	0x3d269abc	0.04067491
112	0x3de23e4b	0.11047038
113	0x3e0e52fa	0.1389884
114	0x3e1bec58	0.15226877
115	0x3dee71ea	0.11642821
116	0x3da76122	0.081728235
117	0x3e0a0ea3	0.13482146
118	0x3dfc12de	0.12308286
119	0x3da5e1f2	0.08099736
120	0x3dd5e193	0.104434155
121	0x3e4212fb	0.18952553
122	0x3e4c8c40	0.19975376
123	0x3de1a888	0.11018473
124	0x3de3ae3c	0.11117217
125	0x3dc859cd	0.09782753
126	0x3e424255	0.18970616
127	0x3dc5876d	0.09644971
