checkpoints/ultra_v3_seed42_20251128_153656.pt (torch, 515203 bytes, 16 tensors)

cnn.0.weight f4 [32, 1, 7]
0.270348 0.29055217 -0.11378089 0.3126611 -0.12276083 0.022262208 -0.25038934 0.19833782
0.3147766 -0.28655332 0.31558192 0.057002302 0.2573343 0.022694102 0.17730084 -0.057914563
0.2758536 0.03364351 -0.20333752 0.06470223 -0.19959953 -0.021953402 -0.12823962 0.27318576
-0.27342868 -0.15348017 -0.09065019 -0.21426345 -0.0013633447 -0.40147412 0.3076036 -0.33490163
0.27669594 0.065399304 -0.10165594 0.23763114 0.060598757 0.30101416 0.035032075 -0.12977089
0.07839812 -0.1364792 0.119063936 0.2997821 0.18748155 -0.18631443 0.19880563 0.05487475
0.1798148 -0.22218399 -0.36288914 -0.13017105 -0.26100266 0.34665626 0.15931283 0.2151065
0.14908957 0.02461833 0.31963253 -0.24468818 0.039616577 -0.24123286 0.13105008 -0.12032288
0.13260938 -0.051590864 0.3392452 -0.1911085 -0.19697692 -0.2051436 0.3495964 0.13841596
0.37033972 -0.2979586 -0.3642164 -0.2908362 -0.25383294 0.16112818 0.13901964 0.30512452
-0.20992939 -0.28192493 0.16635472 -0.17879863 0.2503717 -0.08283851 0.20328237 -0.3147158
-0.21520942 0.09457117 0.0720627 -0.07114866 0.24692583 0.27492416 -0.2574391 -0.19692725
0.32610095 -0.1638017 -0.1040452 -0.3355832 -0.1874752 0.1231001 -0.013139392 -0.22653379
0.0611024 -0.2477424 -0.30862328 -0.19330099 -0.31014556 -0.21465982 0.40497565 0.10305812
0.13291934 -0.3254612 -0.21806128 -0.09491741 0.0881845 -0.30184102 -0.1372593 -0.21279222
0.014113683 -0.12474533 -0.012023512 -0.23971249 -0.24373318 -0.20552883 -0.15498419 -0.3081097
0.31776577 -0.057242077 0.3452277 0.1380068 -0.3032737 0.29598895 -0.07606668 -0.12526856
-0.29777417 -0.36032388 0.12190329 -0.059656795 0.07875515 -0.36701903 0.23119539 -0.29283354
-0.053323217 0.1182439 0.25623164 0.32794207 0.35822532 -0.28809386 0.09509127 -0.16765383
-0.057951644 -0.30823433 0.32430905 -0.28716695 0.18945146 0.12422928 0.11788243 -0.2019138
0.34252897 0.08463388 0.047737684 -0.3320486 0.15661654 -0.055192895 -0.16839582 0.32749513
0.09173213 -0.19821855 -0.17852135 -0.004486446 0.22456056 -0.07942326 -0.19659705 -0.14590557
-0.29310274 0.12551829 0.2873247 -0.34983405 0.0956521 0.20808107 0.063984536 -0.13988174
0.18308233 0.17946804 0.11697294 -0.09506081 -0.13740702 0.019841023 -0.080437094 -0.12245906
0.2311833 0.3151822 -0.044188756 -0.093595855 -0.035064425 -0.05527701 0.06846487 0.09690431
-0.33261535 -0.1144 0.3501006 0.16936818 -0.002007949 -0.2152056 -0.22157557 -0.32898602
-0.112931475 0.13981918 0.23559417 0.16339384 -0.33932075 -0.22818086 -0.049686074 0.38775218
0.09859847 -0.1131686 0.13793609 -0.1612578 -0.26141205 0.25625473 -0.18774554 -0.0910944
00000000: 0e6b 8a3e 41c3 943e f505 e9bd 1e15 a03e
00000010: 086a fbbd 3c5f b63c 0833 80be 1219 4b3e
00000020: 662a a13e 1eb7 92be f493 a13e 3f7b 693d
00000030: 52c1 833e fbe8 b93c 5a8e 353e d237 6dbd
00000040: af3c 8d3e c7cd 093d b637 50be 9a82 843d
00000050: d263 4cbe 9fd7 b3bc 3f51 03be 01df 8b3e
00000060: d8fe 8bbe e829 1dbe cfa6 b9bd e167 5bbe
00000070: 42b2 b2ba 048e cdbe 387e 9d3e 3a78 abbe
00000080: 17ab 8d3e 12f0 853d fd30 d0bd 9455 733e
00000090: 6736 783d 871e 9a3e cb7d 0f3d a9e2 04be
000000a0: 328f a03d 34c1 0bbe cbd7 f33d 0a7d 993e
000000b0: 2afb 3f3e 36c9 3ebe b493 4b3e 59c4 603d
000000c0: 5f21 383e 3384 63be 9bcc b9be 8f4b 05be
000000d0: 24a2 85be ee7c b13e e722 233e e144 5c3e
000000e0: f0aa 183e 61ac c93c e0a6 a33e 8a8f 7abe
000000f0: fe44 223d bf05 77be fe31 063e d86b f6bd
00000100: c1ca 073e f150 53bd 8cb1 ad3e f2b1 43be
00000110: 51b4 49be 2a11 52be 4dfe b23e eabc 0d3e
00000120: 2b9d bd3e 088e 98be 927a babe 7be8 94be
00000130: 64f6 81be c9fe 243e 2a5b 0e3e 4839 9c3e
00000140: bbf7 56be 7758 90be e458 2a3e fd16 37be
00000150: b830 803e 3da7 a9bd 4129 503e 6e22 a1be
00000160: dc5f 5cbe 88ae c13d 9c95 933d 63b6 91bd
00000170: 20da 7c3e dcc2 8c3e 0fcf 83be 4ca7 49be
00000180: b4f6 a63e a2bb 27be a615 d5bd 90d1 abbe
00000190: 80f9 3fbe e81b fc3d 9b46 57bc 79f8 67be
000001a0: 8346 7a3d 2fb0 7dbe df03 9ebe b2f0 45be
000001b0: 66cb 9ebe c9cf 5bbe f858 cf3e 2310 d33d
000001c0: 021c 083e daa2 a6be 754b 5fbe 0f64 c2bd
000001d0: 139a b43d e88a 9abe b48d 0cbe 34e6 59be
000001e0: 143d 673c 7b7a ffbd 44fe 44bc 3177 75be
000001f0: 3195 79be 2676 52be 2db4 1ebe 8ec0 9dbe
00000200: 32b2 a23e ab76 6abd afc1 b03e a851 0d3e
00000210: b146 9bbe dd8b 973e d9c8 9bbd 6746 00be
00000220: db75 98be 5f7c b8be 6fa8 f93d af5a 74bd
00000230: 614a a13d ebe9 bbbe 7cbe 6c3e 47ee 95be
00000240: 7269 5abd dc29 f23d cb30 833e 06e8 a73e
00000250: 4f69 b73e 0a81 93be 36bf c23d 72ad 2bbe
00000260: b45e 6dbd e4d0 9dbe d60b a63e 8c07 93be
00000270: 90ff 413e ec6b fe3d 586c f13d 7ec2 4ebe
00000280: f55f af3e 8754 ad3d 9788 433d 4602 aabe
00000290: 1660 203e f211 62bd f46f 2cbe 71ad a73e
000002a0: 0ede bb3d cef9 4abe 4dce 36be 0903 93bb
000002b0: 34f3 653e aaa8 a2bd bd50 49be 4568 15be
000002c0: 9011 96be de87 003e 391c 933e 731d b3be
000002d0: 40e5 c33d 3413 553e 530a 833d 293d 0fbe
000002e0: ef79 3b3e 78c6 373e 828f ef3d 3eaf c2bd
000002f0: 6db4 0cbe a489 a23c 34bc a4bd d1cb fabd
00000300: 51bb 6c3e 905f a13e 45ff 34bd 2faf bfbd
00000310: b79f 0fbd 256a 62bd 4f37 8c3d c475 c63d
00000320: 8f4c aabe 8c4a eabd 6340 b33e da6e 2d3e
00000330: cb97 03bb db5e 5cbe b5e4 62be db70 a8be
00000340: 9e48 e7bd c22c 0f3e 993f 713e b750 273e
00000350: 73bb adbe 3ea8 69be a083 4bbd 7487 c63e
00000360: ffed c93d f0c4 e7bd 1e3f 0d3e c420 25be
00000370: cdd7 85be d233 833e 5e40 40be b38f babd

cnn.0.bias f4 [32]
-0.4115779 0.24592055 0.27064115 0.12349068 -0.24915692 -0.3963609 -0.3407599 0.2689014
0.18184106 0.27875662 0.19378567 0.08440549 0.010889169 -0.2833376 -0.36506528 -0.37488082
0.13768461 -0.17934589 -0.01983538 -0.22862762 -0.017483106 -0.31027928 -0.25759944 0.11268191
-0.13837743 0.22649783 -0.14676684 -0.31179875 -0.09596747 -0.20002542 -0.09588858 -0.35128015
00000000: 57ba d2be 99d2 7b3e 7a91 8a3e aee8 fc3d
00000010: fe22 7fbe d1ef cabe 1578 aebe 72ad 893e
00000020: 8b34 3a3e 30b9 8e3e c06f 463e c9dc ac3d
00000030: 7c68 323c a011 91be d6e9 babe 61f0 bfbe
00000040: 32fd 0c3e 73a6 37be cf7d a2bc 5c1d 6abe
00000050: bb38 8fbc eddc 9ebe 13e4 83be c6c5 e63d
00000060: d0b2 0dbe 0cef 673e 0c4a 16be 16a4 9fbe
00000070: 988a c4bd 77d3 4cbe 3b61 c4bd feda b3be

cnn.4.weight f4 [64, 32, 5]
0.0146197155 -0.063517764 0.025320435 0.020939535 0.045046873 -0.051484037 0.059492648 -0.035752214
0.024671968 0.07189288 -0.004321681 0.0048627807 -0.010136029 -0.058705125 0.039574344 -0.0801386
0.042619366 0.057070915 0.07732197 -0.01228248 -0.007862612 -0.0026334312 -0.004420441 -0.0014511026
5.1224306e-05 -0.057080325 -0.012369613 -0.04324028 -0.037197717 -0.030810641 -0.07423412 0.049059816
0.047902897 -0.027387196 -0.0179801 -0.035708617 -0.072344854 -0.07677421 0.024773981 -0.039926376
-0.040055387 0.00045108135 -0.018322147 -0.020625524 0.007312316 -0.0144611355 -0.018964922 -0.030302348
-0.054195214 0.07556028 -0.035781834 0.017033039 -0.01798341 0.013280951 0.08586262 0.036911488
-0.06055802 0.04089775 0.08117143 0.023818417 0.022648301 0.046040673 -0.018110001 0.011587499
-0.05702115 -0.0089652855 0.02112285 0.028367192 -0.015590675 -0.025082137 -0.04537932 -0.054052427
-0.047228117 -0.02110779 0.04322083 -0.022437375 -0.058469392 -0.06814518 0.0067321924 -0.057640485
-0.012381371 0.029964935 -0.039575316 -0.0072029997 -0.00011677506 -0.04430615 -0.059302293 -0.079192236
-0.0647883 -0.030111214 -0.008809921 -0.058857236 -0.058273766 -0.014673251 -0.012480528 0.007782148
0.017926557 0.014932329 -0.06625244 0.022619672 0.0010640105 -0.04163683 -0.062469106 0.052556865
-0.0077976054 -0.075728804 -0.075027965 -0.003417113 0.03064846 0.0103498865 0.0022505892 -0.06663445
-0.086729035 -0.012296078 0.06167407 0.04669321 -0.042015802 -0.0066198492 -0.05327103 -0.0303116
-0.00020838348 0.011792014 0.026943902 -0.048502997 0.0547595 -0.057100195 0.028631842 0.06801801
0.0040421314 0.07495313 -0.07127023 -0.039777555 0.027116861 -0.026203008 -0.027287176 -0.029727418
0.035481106 0.02358831 0.016380599 -0.051870704 -0.022072213 0.008559108 0.016909076 0.019382969
0.059145667 0.016019318 -0.029711306 -0.021559166 -0.016474685 -0.055464793 -0.08764298 -0.049739555
-0.06291804 0.011977645 -0.020862317 0.0006347915 0.001196408 -0.00016522696 0.017986428 -0.011510041
-0.025620528 0.030415729 -0.04759048 -0.03709083 0.017945515 -0.031347755 -0.060993172 0.03845948
0.058072947 0.012636516 -0.018850341 -0.07864975 -0.034039035 0.015233393 0.03423772 -0.014328715
-0.032851316 0.042346552 -0.060144845 0.05523113 -0.041355483 -0.011515885 -0.014626133 0.011555533
-0.01027069 0.06956248 0.006346605 0.07040364 0.09072478 -0.020766033 -0.061631534 0.059077278
0.05982456 -0.059912715 -0.0005094464 -0.08464962 -0.06786142 0.008659353 0.020208562 0.01743061
-0.025780695 0.0644769 0.0024095257 -0.050282918 -0.009629853 0.015338373 0.02381155 -0.055947814
0.028742576 -0.036425162 -0.06776162 -0.045009475 0.069157556 0.06649375 0.07894932 0.036492985
0.04450015 -0.022042865 -0.047567923 0.042794257 -0.06006449 -0.075077005 -0.052092142 -0.0064182645
0.030316273 0.03296644 0.015460599 0.062717974 0.011928654 0.007152073 0.023262585 -0.028157173
0.054101136 0.060340352 0.014502107 0.0013577867 -0.006694746 -0.016922766 -0.023563622 -0.010144217
0.02260802 0.0687742 -0.022660395 -0.034441713 -0.015922407 -0.04435551 0.00608943 0.0536224
0.06010242 0.04240585 -0.09180377 -0.06348051 -0.03178822 -0.038786363 -0.016200567 -0.08862589
00000000: 8887 6f3c 9a15 82bd cd6c cf3c 6389 ab3c
00000010: 1283 383d ede0 52bd 90ae 733d ea70 12bd
00000020: de1c ca3c 933c 933d e39c 8dbb f657 9f3b
00000030: 9611 26bc c974 70bd b518 223d b51f a4bd
00000040: a591 2e3d 31c3 693d fb5a 9e3d 743c 49bc
00000050: 2fd2 00bc a595 2cbb 59d9 90bb ec32 beba
00000060: aed9 5638 0fcd 69bd eba9 4abc b81c 31bd
00000070: a25c 18bd 9966 fcbc 0f08 98bd f2f2 483d
00000080: d435 443d 1d5b e0bc 014b 93bc 3343 12bd
00000090: 8a29 94bd cc3b 9dbd cef2 ca3c d789 23bd
000000a0: 1e11 24bd 1d7f ec39 5418 96bc dcf6 a8bc
000000b0: 279c ef3b 66ee 6cbc 535c 9bbc a13c f8bc
000000c0: cdfb 5dbd 59bf 9a3d f98f 12bd df88 8b3c
000000d0: f251 93bc 5998 593c bed8 af3d 8030 173d
000000e0: b00b 78bd 6684 273d 353d a63d d71e c33c
000000f0: ee88 b93c 2595 3c3d 6d5b 94bc 7ed9 3d3c
00000100: 028f 69bd 22e3 12bc d409 ad3c 5062 e83c
00000110: 0870 7fbc 0e79 cdbc aadf 39bd 1466 5dbd
00000120: 4572 41bd 3eea acbc 5308 313d 96ce b7bc
00000130: 9a7d 6fbd b38f 8bbd b999 dc3b 6e18 6cbd
00000140: 3cdb 4abc 0679 f53c ba19 22bd 2407 ecbb
00000150: 22e5 f4b8 5e7a 35bd f6e6 72bd 8a2f a2bd
00000160: baaf 84bd cbab f6bc 7d57 10bc 4914 71bd
00000170: 79b0 6ebd 1368 70bc 217b 4cbc 6401 ff3b
00000180: b7da 923c baa6 743c 5caf 87bd e44c b93c
00000190: 4576 8b3a 618b 2abd 9bdf 7fbd de45 573d
000001a0: 0e83 ffbb b417 9bbd 43a8 99bd a5f1 5fbb
000001b0: 7b12 fb3c 9292 293c 9f7e 133b a477 88bd
000001c0: fe9e b1bd 7d75 49bc f39d 7c3d 6141 3f3d
000001d0: c318 2cbd 52eb d8bb b932 5abd 0850 f8bc
000001e0: 8481 5ab9 4b33 413c 75b9 dc3c 14ab 46bd
000001f0: 7f4b 603d e5e1 69bd 538d ea3c 074d 8b3d
00000200: db73 843b 0781 993d 20f6 91bd caed 22bd
00000210: 2e24 de3c b1a7 d6bc 5b89 dfbc ea86 f3bc
00000220: a354 113d 463c c13c 9b30 863c 6076 54bd
00000230: c9d0 b4bc 803b 0c3c e784 8a3c 08c9 9e3c
00000240: ba42 723d f23a 833c 2065 f3bc d99c b0bc
00000250: ebf5 86bc 0d2f 63bd 2a7e b3bd b4bb 4bbd
00000260: 2cdb 80bd e23d 443c 73e7 aabc 2368 263a
00000270: cad0 9c3a c640 2db9 4658 933c 9c94 3cbc
00000280: 24e2 d1bc 682a f93c 3cee 42bd 8eec 17bd
00000290: 7902 933c 8166 00bd fad3 79bd b087 1d3d
000002a0: e6dd 6d3d 6409 4f3c 086c 9abc 1f13 a1bd
000002b0: 846c 0bbd 7b95 793c da3c 0c3d fdc2 6abc
000002c0: 1a8f 06bd 9473 2d3d 715a 76bd 0a3a 623d
000002d0: 5e64 29bd 1fad 3cbc 73a2 6fbc 6b53 3d3c
000002e0: 6546 28bc c676 8e3d 2ef7 cf3b c92f 903d
000002f0: eacd b93d 871d aabc 5971 7cbd 04fb 713d
00000300: 990a 753d 0967 75bd 5f8c 05ba c85c adbd
00000310: eefa 8abd f5df 0d3c 6d8c a53c a3ca 8e3c
00000320: 0932 d3bc 770c 843d 22e9 1d3b 76f5 4dbd
00000330: 88c6 1dbc cd4d 7b3c 7110 c33c 8929 65bd
00000340: 8d75 eb3c 8d32 15bd 9bc6 8abd db5b 38bd
00000350: 7aa2 8d3d e02d 883d 2eb0 a13d ab79 153d
00000360: ca45 363d 3d93 b4bc 95d6 42bd 0849 2f3d
00000370: 2f06 76bd f9c1 99bd 925e 55bd 4e50 d2bb
00000380: d559 f83c d107 073d 744e 7d3c 4872 803d
00000390: 6770 433c f05b ea3b 2d91 be3c dfa9 e6bc
000003a0: 2799 5d3d 7227 773d 3f9a 6d3c c3f7 b13a
000003b0: 9a5f dbbb 9da1 8abc 7f08 c1bc ee33 26bc
000003c0: 7434 b93c 7dd9 8c3d 4ba2 b9bc c112 0dbd
000003d0: b56f 82bc 20ae 35bd d789 c73b 29a3 5b3d
000003e0: f52d 763d c2b1 2d3d 9d03 bcbd 1202 82bd
000003f0: 5d34 02bd 73de 1ebd 0db7 84bc 7e81 b5bd

cnn.4.bias f4 [64]
0.07870767 -0.027998677 0.0056167874 -0.0055845473 0.0489941 0.018052906 -0.01210979 0.008725913
-0.006348592 -0.030165026 -0.026421778 -0.06388011 0.06577798 -0.07192152 -0.10683555 -0.036224846
0.010483746 -0.015251664 0.031008555 0.055258237 0.02208872 -0.08304344 0.025108948 0.03244118
-0.052895322 -0.024933202 0.024544967 -0.0023480852 0.041470572 0.060908105 0.06589356 0.019102043
0.035925396 0.01368851 -0.044359844 0.05635865 -0.008425303 0.014120076 -0.058236968 0.048802182
0.011345941 0.011480022 -0.07103412 -0.013812324 -0.037224337 0.06963071 -0.07641902 -0.015149959
-0.043624554 -0.062304728 0.027355373 -0.059849218 0.04431714 0.011931253 -0.04549011 -0.03407252
0.017314104 -0.024797408 -0.081301585 -0.04245762 0.018878456 -0.06983669 0.04145032 0.058614027
00000000: 7d31 a13d 7b5d e5bc 070d b83b 94fe b6bb
00000010: 0aae 483d b0e3 933c 2468 46bc 22f7 0e3c
00000020: da07 d0bb a51c f7bc 7c72 d8bc 93d3 82bd
00000030: 9bb6 863d 974b 93bd 99cc dabd 8160 14bd
00000040: 05c4 2b3c 1ee2 79bc a705 fe3c 7656 623d
00000050: 67f3 b43c ae12 aabd 48b1 cd3c 0be1 043d
00000060: c4a8 58bd b740 ccbc 8712 c93c 55e2 19bb
00000070: 0cdd 293d c77a 793d 34f3 863d e37b 9c3c
00000080: 8226 133d c645 603c abb2 35bd 54d8 663d
00000090: 480a 0abc e457 673c e389 6ebd cce4 473d
000000a0: 53e4 393c b416 3c3c 567a 91bd 164d 62bc
000000b0: 8c78 18bd 8c9a 8e3d 9381 9cbd 8937 78bc
000000c0: a9af 32bd 3e33 7fbd 6018 e03c 7424 75bd
000000d0: e485 353d 4d7b 433c d653 3abd a08f 0bbd
000000e0: 4fd6 8d3c ef23 cbbc 7281 a6bd 0be8 2dbd
000000f0: fea6 9a3c 8a06 8fbd d0c7 293d 4315 703d

cnn.8.weight f4 [128, 64, 3]
0.06871929 0.061361413 -0.036339134 -0.025211288 0.043212283 -0.020819342 -0.030122733 -0.029376207
-0.003795664 -0.033421677 0.006512591 -0.05041676 0.039933935 0.010719612 0.020015324 0.0070741535
0.036434602 0.052356604 0.006364344 -0.02868699 -0.036886435 0.03521908 0.0019024853 0.0010397852
-0.05019896 -0.032199875 0.0060005747 -0.05960877 -0.027836548 0.06721662 -0.021872388 -0.0331946
0.016115693 -0.041877955 -0.048740864 -0.0004939983 0.018036159 -0.027787575 0.042249534 -0.0029495757
0.0012438536 0.021843135 0.016387276 0.016368095 -0.0388077 -0.0484704 0.008781332 -0.01496964
0.031175066 0.034175098 -0.052031618 0.017573638 -0.04924094 -0.03283444 0.0374377 0.013126491
-0.036993023 0.019135943 0.044058073 -0.06322473 0.0375562 0.018121393 -0.005113887 -0.046116393
-0.01947543 -0.009294173 -0.020079628 -0.016121438 -0.042773418 0.064231224 0.058821466 -0.05958536
-0.016843546 0.009139997 -0.029817648 -0.02861664 -0.023988621 -0.01813251 -0.002011798 -0.013618432
-0.0032149283 0.041959826 -0.006742635 0.05096124 0.005200117 -0.010560458 0.0104181385 -0.0023971496
-0.053821426 -0.05260497 -0.063072406 -0.016071256 -0.055985782 0.0064527835 -6.158518e-05 0.035995122
0.010117979 0.004021794 0.021068335 -0.012436542 -0.032051932 -0.055814706 -0.054655433 0.00956221
-0.03183822 0.012098301 0.015156958 0.053094678 -0.026206987 -0.0148665905 0.016314164 -0.014513833
-0.0032222196 -0.017478453 -0.021077503 0.0298763 0.02266525 -0.026724305 0.007556645 -0.06727353
-0.006050601 -0.06504467 0.036005795 -0.052832253 -0.013523737 0.041796066 0.0013064819 -0.016559022
0.043691043 0.0010491133 0.032809906 0.035542794 0.013025681 -0.049517743 0.02847038 0.024563612
-0.04490651 -0.043429494 -0.0013628362 0.0098669315 0.008225433 0.017859844 0.039685838 0.0730861
-0.023569347 0.0031140554 0.012568446 0.03199312 0.02922663 0.050335605 0.04861925 0.042767808
-0.033181503 -0.004363676 -0.02563722 -0.057265628 -0.009626256 0.0347472 0.0051988373 -0.018141404
-0.00080952956 -0.05065719 -0.054104052 -0.015705403 -0.062512435 -0.00033370193 0.053765915 0.007635072
0.048700955 -0.05022112 -0.017827753 -0.06595949 -0.011749232 -0.06531707 0.010846066 -0.015223581
0.013093882 -0.033335198 0.025743412 0.0045830016 -0.028035033 -0.043381386 0.010674707 0.016613748
0.036337018 -0.003504646 -0.0047539575 -0.015356764 0.04381111 0.06721174 -0.034371443 -0.008833886
0.023580182 0.039839562 -0.002557824 0.011839221 -0.012058367 0.002887828 -0.07063354 -0.061245363
-0.014257446 -0.041403875 -0.053146753 -0.008567907 0.025379866 0.035763763 -0.03295086 0.0016380969
0.073039435 0.016399676 0.049214005 0.012978854 -0.03896493 -0.0288687 0.010997691 -0.0047257915
-0.039618917 0.074403614 -0.07604479 0.018210305 0.029441793 -0.013707085 0.025298463 -0.023003265
-0.05052546 -0.0330633 -0.018628448 -0.0464561 0.009076584 0.08940897 0.016526021 -0.00059208786
0.03174782 0.019464847 -0.042925473 -0.03854888 0.055828072 0.026844101 0.06795266 0.062457662
-0.016878417 0.060982153 -0.00076225825 -0.018866885 -0.028709305 0.07322025 0.014133586 0.007458378
-0.018180717 0.022010474 -0.047757614 -0.026344288 -0.00012922159 0.017459229 -0.0010435042 0.009472105
00000000: b3bc 8c3d 1b56 7b3d 58d8 14bd e787 cebc
00000010: 5dff 303d 538d aabc f3c3 f6bc 5fa6 f0bc
00000020: adc0 78bb 2be5 08bd 9367 d53b ce81 4ebd
00000030: c491 233d 50a1 2f3c 2df7 a33c 4dce e73b
00000040: 733c 153d e173 563d fd8b d03b fa00 ebbc
00000050: 3b16 17bd e241 103d d05c f93a 6749 883a
00000060: 6d9d 4dbd 04e4 03bd 78a0 c43b 5328 74bd
00000070: 7909 e4bc dea8 893d b92d b3bc 10f7 07bd
00000080: 0f05 843c 3888 2bbd 80a4 47bd aa7f 01ba
00000090: 91c0 933c c5a2 e3bc d90d 2d3d ab4d 41bb
000000a0: cd08 a33a 60f0 b23c 9c3e 863c 6216 863c
000000b0: d3f4 1ebd e688 46bd 93df 0f3c 3943 75bc
000000c0: da62 ff3c 30fb 0b3d 1b1f 55bd 97f6 8f3c
000000d0: deb0 49bd 687d 06bd 4658 193d 7e10 573c
000000e0: ff85 17bd fbc2 9c3c 3d76 343d f87b 81bd
000000f0: 88d4 193d 5173 943c 6592 a7bb 8be4 3cbd
00000100: f08a 9fbc 9646 18bc 087e a4bc 1b11 84bc
00000110: 2e33 2fbd a98b 833d c7ee 703d c70f 74bd
00000120: 7afb 89bc edbf 153c 2444 f4bc 726d eabc
00000130: c983 c4bc a18a 94bc 5fd8 03bb d81f 5fbc
00000140: 8cb1 52bb 11de 2b3d 52f1 dcbb bcbc 503d
00000150: be65 aa3b c505 2dbc d7b0 2a3c 7f19 1dbb
00000160: db73 5cbd 4f78 57bd 1b2c 81bd dea7 83bc
00000170: 5951 65bd df71 d33b 4b27 81b8 9f6f 133d
00000180: e1c5 253c 41c9 833b 8097 ac3c a3c2 4bbc
00000190: e348 03bd f69d 64bd 60de 5fbd d1aa 1c3c
000001a0: cb68 02bd f437 463c e454 783c ce79 593d
000001b0: 09b0 d6bc 0093 73bc 48a5 853c 6ecb 6dbc
000001c0: e02b 53bb f92e 8fbc baaa acbc 24bf f43c
000001d0: 79ac b93c eeec dabc bc9d f73b b4c6 89bd
000001e0: 1f44 c6bb 2436 85bd d07a 133d a266 58bd
000001f0: aa92 5dbc 5a32 2b3d 423e ab3a c9a6 87bc
00000200: 61f5 323d 6782 893a ae63 063d 5295 113d
00000210: aa69 553c 1ed3 4abd b73a e93c a139 c93c
00000220: e3ef 37bd 20e3 31bd 32a1 b2ba e9a8 213c
00000230: f7c3 063c cf4e 923c 9e8d 223d 2aae 953d
00000240: 8114 c1bc 2e15 4c3b e2eb 4d3c 380b 033d
00000250: b06c ef3c b52c 4e3d fb24 473d 4c2d 2f3d
00000260: 54e9 07bd 2bfd 8ebb 2605 d2bc 5d8f 6abd
00000270: 72b7 1dbc 1453 0e3d 025b aa3b 489d 94bc
00000280: 9c36 54ba ea7d 4fbd 369c 5dbd 9ea8 80bc
00000290: 8506 80bd b7f4 aeb9 a639 5c3d a02f fa3b
000002a0: a77a 473d a9b4 4dbd 820b 92bc c515 87bd
000002b0: da7f 40bc f5c4 85bd b3b3 313c 546c 79bc
000002c0: b987 563c 7d8a 08bd d9e3 d23c 012d 963b
000002d0: baa9 e5bc aeb0 31bd f7e4 2e3c 8e19 883c
000002e0: 20d6 143d 34ae 65bb 16c7 9bbb f09a 7bbc
000002f0: 4773 333d 4fa6 893d 12c9 0cbd 01bc 10bc
00000300: 3a2b c13c cf2e 233d 2aa1 27bb 4bf9 413c
00000310: 7590 45bc b741 3d3b 51a8 90bd 6bdc 7abd
00000320: 1098 69bc 1c97 29bd 69b0 59bd 6860 0cbc
00000330: 70e9 cf3c 067d 123d 7bf7 06bd 69b5 d63a
00000340: b395 953d 9d58 863c a094 493d 42a5 543c
00000350: b199 1fbd 0d7e ecbc a92f 343c d0da 9abb
00000360: 7247 22bd ec60 983d 5fbd 9bbd c72d 953c
00000370: ea2f f13c ae93 60bc b93e cf3c 5871 bcbc
00000380: c9f3 4ebd 626d 07bd b09a 98bc c048 3ebd
00000390: f4b5 143c 0d1c b73d 9461 873c 5836 1bba
000003a0: 010a 023d be74 9f3c 9fd2 2fbd 6ee5 1dbd
000003b0: faab 643d 29e8 db3c c42a 8b3d 9bd3 7f3d
000003c0: 9b44 8abc 6cc8 793d 49d2 47ba ba8e 9abc
000003d0: c72f ebbc 80f4 953d 8e90 673c 6965 f43b
000003e0: baef 94bc 4f4f b43c 7d9d 43bd facf d7bc
000003f0: a87f 07b9 a806 8f3c 31c6 88ba e330 1b3c

cnn.8.bias f4 [128]
0.024669984 -0.041378167 0.04686132 0.00024311274 -0.007630041 0.030047849 -0.013537639 0.026529638
0.058476225 -0.06438119 0.044948008 0.054815542 0.017247463 -0.062128082 0.03673849 0.033632178
-0.057263378 0.059842046 0.0014226027 -0.018033426 -0.028461069 -0.039083425 -0.049166176 0.033206284
-0.034438796 -0.039865766 -0.007631409 0.054411385 -0.08166842 -0.02227359 -0.00013118499 0.032983072
-0.040814083 0.002234213 0.0577032 -0.04083799 0.052482273 0.044490874 -0.054783553 -0.011362274
0.034916118 -0.008318491 -0.049566295 -0.045744367 -0.016073175 -0.075544864 -0.020422924 0.015617042
0.03968357 -0.022085667 0.027046753 -0.025831703 -0.044598006 -0.047873646 -0.023241106 0.0024235412
0.040926583 0.045829866 0.039147127 0.03743129 0.011792712 -0.026352141 0.042778395 -0.020296939
0.042436484 -0.021293055 -0.009170829 0.01836524 0.020525958 -0.010745355 0.039466936 0.061636582
0.043671396 0.02947425 -0.043059193 0.04492174 -0.047318045 -0.0066856104 0.017116433 -0.002117248
0.05692236 -0.010328652 0.042002328 0.06767725 0.03081309 -0.038618665 0.0062198057 -0.072719954
0.018222066 0.02154954 -0.01507342 0.0088131735 -0.057169896 0.038195875 -0.0054147905 0.007341528
-0.013493956 0.025202 -0.029365744 0.006659969 -0.02569199 0.05247622 0.05728113 -0.010156381
-0.021727964 0.05115314 0.0229907 0.018354347 0.07191682 -0.018833825 -0.026102476 -0.028088652
0.06554894 0.0064025954 0.041030955 -0.019848619 -0.04151706 0.013661493 -0.03220167 0.035201345
-0.035554625 0.044505887 0.029871581 -0.031426575 -0.05191273 -0.061461087 -0.024866354 -0.017947529
00000000: b518 ca3c 277c 29bd a8f1 3f3d 14ec 7e39
00000010: 6c05 fabb e826 f63c f9cc 5dbc af54 d93c
00000020: c484 6f3d 49da 83bd 671b 383d 4386 603d
00000030: 8d4a 8d3c 047a 7ebd 197b 163d e5c1 093d
00000040: 018d 6abd ef1c 753d a076 ba3a d6ba 93bc
00000050: 3027 e9bc f115 20bd 7962 49bd 5003 083d
00000060: b20f 0dbd 494a 23bd e610 fabb 79de 5e3d
00000070: c641 a7bd 1b77 b6bc b48e 09b9 4219 073d
00000080: ab2c 27bd e06b 123b 315a 6c3d bc45 27bd
00000090: a7f7 563d 103c 363d b864 60bd d528 3abc
000000a0: 3404 0f3d 484a 08bc 0706 4bbd 725e 3bbd
000000b0: e4ab 83bc 44b7 9abd fa4d a7bc 9fde 7f3c
000000c0: 3d8b 223d 00ed b4bc 2791 dd3c 029d d3bc
000000d0: 66ac 36bd 2817 44bd 2264 bebc 46d4 1e3b
000000e0: a2a2 273d 19b8 3b3d bd58 203d 8d51 193d
000000f0: 3836 413c 72e0 d7bc 6638 2f3d c445 a6bc
00000100: e1d1 2d3d c66e aebc 3f41 16bc b372 963c
00000110: 0e26 a83c 490d 30bc 15a8 213d a476 7c3d
00000120: c7e0 323d fb73 f13c d65e 30bd dcff 373d
00000130: 91d0 41bd f712 dbbb c337 8c3c 87c1 0abb
00000140: 6c27 693d 8239 29bc a20a 2c3d 5f9a 8a3d
00000150: bc6b fc3c 9b2e 1ebd 83cf cb3b 33ee 94bd
00000160: 7146 953c a988 b03c 81f6 76bc 2165 103c
00000170: fb2a 6abd 4773 1c3d 8e6e b1bb 3391 f03b
00000180: c115 5dbc 6d74 ce3c 6e90 f0bc df3b da3b
00000190: 0278 d2bc 4ef1 563d 9e9f 6a3d f366 26bc
000001a0: d8fe b1bc f485 513d fe56 bc3c db5b 963c
000001b0: 2049 933d 6549 9abc dcd4 d5bc 2c1a e6bc
000001c0: 863e 863d ddcc d13b 1310 283d 9299 a2bc
000001d0: cb0d 2abd 74d4 5f3c e6e5 03bd 492f 103d
000001e0: baa1 11bd ce4b 363d 3fb5 f43c 27b9 00bd
000001f0: 71a2 54bd 9fbe 7bbd 86b4 cbbc b206 93bc

layer_norm.weight f4 [128]
0.9913797 0.9998436 0.99574786 0.99815 0.99004996 0.99967647 0.99933267 0.99283206
1.001126 0.9996401 0.99515647 0.9924125 1.0016694 0.9945425 0.9971727 0.99163216
1.0038893 0.99653405 0.9957289 0.99943286 0.989808 1.0012367 0.9949575 0.9966577
0.999038 0.99530286 0.9989331 0.997211 0.999302 0.9961752 0.9910934 1.0022817
0.9956061 1.001452 0.99894774 0.9949056 0.99675983 0.98798746 0.9907422 0.9984809
0.99795115 0.9966337 0.9995214 0.9958976 0.99766725 0.9990206 1.0001224 0.99794334
1.0004451 0.99427354 1.0011449 1.0021513 0.9989171 0.9940958 0.99995756 0.99709016
0.9952639 0.9959696 1.0000328 0.99342465 0.988823 0.9971715 0.99612194 0.9943085
0.99607116 0.9950467 0.998104 0.9929389 0.9957541 0.9975169 0.9950095 0.99884045
0.9987201 0.9936958 0.9971542 1.0015111 0.9924831 0.9995412 0.9935317 0.9895194
0.99691844 0.9895611 0.9906933 1.0027324 0.9982813 0.9941051 1.0005443 0.9948477
0.99976176 0.9981292 0.99581337 0.9987999 0.99659836 0.9967137 0.9943896 0.99684113
0.99460506 0.9952824 0.9945076 0.9964089 0.99287045 0.99576944 0.99858624 0.9858187
0.99596167 0.99651545 0.99951506 0.985818 0.9980025 0.99931484 1.0006413 1.000752
0.9980526 0.9924312 0.99861467 1.0051552 0.99708235 0.9881503 0.9967333 0.9938856
0.99717706 0.99873406 0.98489326 0.999519 0.99037474 0.9975654 0.9924417 0.9949552
00000000: 0fcb 7d3f c0f5 7f3f 55e9 7e3f c286 7f3f
00000010: ea73 7d3f ccea 7f3f 44d4 7f3f 3e2a 7e3f
00000020: e624 803f 6ae8 7f3f 93c2 7e3f bf0e 7e3f
00000030: b436 803f 569a 7e3f b646 7f3f 9bdb 7d3f
00000040: 727f 803f db1c 7f3f 17e8 7e3f d5da 7f3f
00000050: 0f64 7d3f 8628 803f 89b5 7e3f f624 7f3f
00000060: f4c0 7f3f 2bcc 7e3f 14ba 7f3f 3849 7f3f
00000070: 42d2 7f3f 5705 7f3f 4cb8 7d3f c44a 803f
00000080: 0be0 7e3f 942f 803f 0abb 7f3f 22b2 7e3f
00000090: a72b 7f3f bfec 7c3f 48a1 7d3f 729c 7f3f
000000a0: ba79 7f3f 6323 7f3f a2e0 7f3f 25f3 7e3f
000000b0: 1f67 7f3f d0bf 7f3f 0304 803f 3779 7f3f
000000c0: 960e 803f b688 7e3f 8425 803f 7e46 803f
000000d0: 08b9 7f3f 107d 7e3f 38fd 7f3f 4d41 7f3f
000000e0: 9dc9 7e3f ddf7 7e3f 1301 803f 1451 7e3f
000000f0: 8123 7d3f a246 7f3f d901 7f3f 008b 7e3f
00000100: 85fe 7e3f 61bb 7e3f be83 7f3f 3e31 7e3f
00000110: bee9 7e3f 445d 7f3f f1b8 7e3f 02b4 7f3f
00000120: 1fac 7f3f d962 7e3f 7f45 7f3f 8431 803f
00000130: 5f13 7e3f efe1 7f3f 1858 7e3f 2551 7d3f
00000140: 0c36 7f3f e053 7d3f 139e 7d3f 8959 803f
00000150: 5d8f 7f3f ac7d 7e3f d611 803f 57ae 7e3f
00000160: 63f0 7f3f 6585 7f3f a0ed 7e3f 5ab1 7f3f
00000170: 1221 7f3f a128 7f3f 5190 7e3f fb30 7f3f
00000180: 709e 7e3f d4ca 7e3f 0d98 7e3f a714 7f3f
00000190: c22c 7e3f bfea 7e3f 59a3 7f3f 9d5e 7c3f
000001a0: 58f7 7e3f a31b 7f3f 38e0 7f3f 925e 7c3f
000001b0: 187d 7f3f 19d3 7f3f 0415 803f a418 803f
000001c0: 6080 7f3f f90f 7e3f 36a5 7f3f eda8 803f
000001d0: ca40 7f3f 6bf7 7c3f ea29 7f3f 496f 7e3f
000001e0: ff46 7f3f 09ad 7f3f f721 7c3f 7ae0 7f3f
000001f0: 3389 7d3f 7260 7f3f a910 7e3f 62b5 7e3f

layer_norm.bias f4 [128]
-0.0013854622 -0.0011514254 -0.001022078 -0.0019024424 0.00476642 0.0007875921 -0.00114109 0.003117494
0.00315183 -0.0031007673 0.0033474574 -0.00022433615 0.004095722 -0.00044828767 0.0013468028 -0.0009906825
0.000877612 -0.001066512 0.0005078703 -0.0019182577 0.0045969416 -0.0052858 -0.0012367945 -0.0054182014
-0.0015434598 -0.0024021808 0.0014426196 0.0008063985 -0.0023147704 -0.0014600139 0.003844555 0.005390261
0.0002916011 0.0021834355 0.0033853145 0.001343739 -0.0010262512 0.0013375172 -0.0011499779 -0.0037147796
-0.00012206319 -0.0013480721 -0.0017429345 -0.0019764025 -0.0001069915 -0.002750694 -0.0017468341 -0.00029298692
0.003997694 -0.003077408 0.002969608 0.0010617179 -0.0015379934 0.0031305528 0.003487906 -0.0018287603
-0.0006602584 -0.0014566609 0.0008336621 -0.0007466319 0.001359781 -0.0022873678 0.0021310942 0.0026519569
0.0004179406 0.0003791109 -0.005280073 -0.0021348938 -0.0040458404 0.0009842446 -0.00019628608 0.00032638074
0.002212189 1.6933245e-06 -0.000638604 -0.0010720352 0.0006344497 -0.0020676085 0.0004681711 0.00013063723
-0.0043208324 0.0005921595 0.0012327573 0.005260428 0.003949333 3.818619e-05 0.00082788744 -0.0022798346
-0.0006495526 -0.0013894759 0.0005472099 -0.0017540053 0.0011778403 0.0014980738 -0.0022067213 -0.0040086815
-0.00044364852 0.0014853732 -0.0037384634 -0.003134949 -0.0012088945 -0.0014918112 0.0029784169 -0.00013017416
-0.0027187327 -7.329346e-05 0.0011295413 -0.0011167906 0.0035844485 -0.00073091703 0.00034021793 -0.0005575554
0.0010172148 9.218067e-05 -0.00094487885 0.0031258145 5.1418167e-05 0.0014077134 0.0020782799 -0.00035830186
-0.00016244837 -0.0009273313 0.0006538438 -0.001160278 -0.0005329783 -0.004156037 0.001766175 0.00046614994
00000000: 6698 b5ba 6deb 96ba 3ff7 85ba 605b f9ba
00000010: a12f 9c3b 6976 4e3a a090 95ba df4e 4c3b
00000020: ef8e 4e3b 3e36 4bbb 0461 5b3b c73b 6bb9
00000030: 6835 863b 2708 ebb9 3487 b03a cad9 81ba
00000040: 8b0f 663a 34ca 8bba 9922 053a 0c6e fbba
00000050: f1a1 963b 8134 adbb f01b a2ba 2b8b b1bb
00000060: eb4d caba e86d 1dbb 4816 bd3a 7d64 533a
00000070: 67b3 17bb f05d bfba eef4 7b3b c9a0 b03b
00000080: 0ae2 9839 f817 0f3b 27dc 5d3b 6620 b03a
00000090: 4783 86ba a14f af3a dbba 96ba a973 73bb
000000a0: 2dfc ffb8 cbb1 b0ba 2d73 e4ba 8886 01bb
000000b0: a060 e0b8 fd44 34bb 07f6 e4ba 0a9c 99b9
000000c0: 16ff 823b 57ae 49bb c19d 423b 5729 8b3a
000000d0: 7f96 c9ba f629 4d3b 5a95 643b 03b3 efba
000000e0: 3115 2dba 6eed beba 1e8a 5a3a 9eb9 43ba
000000f0: ae3a b23a aae7 15bb d4a9 0b3b 74cc 2d3b
00000100: 0a1f db39 67c3 c639 7604 adbb 93e9 0bbb
00000110: f892 84bb c501 813a 25d2 4db9 151e ab39
00000120: 5ffa 103b 3046 e335 fd67 27ba 8883 8cba
00000130: 3351 263a b780 07bb dd74 f539 aafb 0839
00000140: c595 8dbb 273b 1b3a 7994 a13a ab5f ac3b
00000150: 6869 813b 1c2a 2038 9606 593a 4769 15bb
00000160: bd46 2aba 131f b6ba a272 0f3a a7e6 e5ba
00000170: c361 9a3a 045b c43a a49e 10bb 425b 83bb
00000180: 7f99 e8b9 dbb0 c23a 0201 75bb b773 4dbb
00000190: c573 9eba e188 c3ba 8b31 433b 5c7f 08b9
000001a0: c42c 32bb 20b5 99b8 1e0d 943a 4661 92ba
000001b0: 11e9 6a3b 039b 3fba 475f b239 e928 12ba
000001c0: 1154 853a 1f51 c138 bfb1 77ba 77da 4c3b
000001d0: d6a9 5738 0683 b83a c033 083b 76da bbb9
000001e0: e756 2ab9 2618 73ba b766 2b3a 7814 98ba
000001f0: 91b7 0bba 5d2f 88bb 007f e73a 9665 f439

lstm.weight_ih_l0 f4 [384, 128]
-0.062316075 0.044522025 0.042260334 0.021785138 0.036166634 -0.027721206 -0.06355879 0.053907707
-0.062656626 -0.05975869 0.022677677 0.011451773 -0.08164418 -0.014264034 0.01642167 -0.0064321687
-0.021143144 -0.0538335 0.06156019 -0.075295985 -0.03590155 -0.06702128 0.066205844 -0.0073645636
-0.038866553 0.0546493 0.06453938 0.051868837 -0.089663446 0.0025230108 -0.043917336 -0.09406315
0.095904306 0.0512191 0.043180928 -0.083280526 -0.017943026 -0.06417785 -0.08284284 -0.098220274
-0.025724955 -0.023233518 0.05271949 0.043542538 -0.046171665 0.022491466 0.02132608 -0.07823639
0.04924952 0.052245233 -0.0480506 0.011499548 0.04859714 -0.09484619 -0.089929014 -0.1034658
0.024173273 -0.045097046 0.042970467 0.03292898 -0.064804986 -0.033752363 0.011288244 0.011399927
-0.016118968 0.019061873 0.0026082783 0.039497938 0.010546484 0.06371008 -0.0069901235 0.07044505
0.0434764 -0.0861514 0.059644133 -0.04884176 0.052623477 0.09632315 -0.08324254 0.0036181312
-0.034052964 0.092545584 0.008428831 0.013015664 0.101527914 0.0110238 0.0060419845 -0.10342987
0.040031236 0.066781856 0.07937227 0.09072698 -0.01885883 -0.026832644 0.06723409 0.082184896
0.05162391 -0.05381093 0.086817 0.04298123 0.028525412 0.0667011 -0.011848279 0.011331839
-0.03527312 -0.007052385 -0.07765887 -0.057643387 -0.06798979 0.08710584 -0.028440367 -6.079549e-05
0.069113076 0.052451488 -0.07625907 0.023276031 -0.065650955 -0.03475435 0.05150673 0.002927616
0.08942737 0.057837952 -0.07762262 -0.0782462 -0.08039872 -0.033918887 0.053214833 0.032480713
0.088910155 0.09452475 0.08298197 0.04120692 -0.041833233 0.09004901 0.083677866 0.093803786
0.0846317 0.096630245 0.043426435 -0.023587165 0.01297161 -0.101344846 -0.04230957 -0.03864217
0.074906185 0.009440302 0.08465268 -0.07950548 -0.027300652 -0.083661616 0.09389345 -0.061541717
-0.04450688 0.02225794 0.06553834 -0.03481927 0.09276034 -0.037309133 -0.094637595 -0.04415882
-0.016450861 0.019534865 -0.038094956 -0.017845921 0.099564746 -0.026879875 0.08587383 -5.1711686e-05
0.0602903 -0.08273952 0.02375786 -0.01143971 -0.062460255 0.07018912 0.07569494 -0.028596899
0.002263207 -0.09221241 0.023559738 0.09533931 0.05918273 0.016287085 0.035598494 0.054233525
0.07674013 -0.07948551 -0.04041959 0.026975427 -0.02423075 -0.07650209 0.08734338 -0.038371626
0.020597199 -0.08972616 -0.04241937 0.023358472 0.082577094 0.013417014 -0.03270642 -0.049922027
-0.064983524 -0.016418315 0.054172896 0.05099968 -0.0071767014 0.060385197 0.053167302 -0.033533946
0.08485442 -0.00071633974 0.00090096274 0.053082973 -0.017849227 -0.019842956 0.045146104 -0.07933557
-0.06485816 0.0420136 0.08556912 -0.026798343 -0.06807349 -0.011509645 -0.032747384 -0.02166756
0.055029336 -0.045757465 0.055111926 -0.08383905 0.02222809 -0.08121944 0.0021910223 -0.02352829
-0.017322397 -0.067636244 0.03249782 0.07121419 -0.08524437 -0.095531255 -0.04758791 -0.06844911
-0.075327955 0.08157893 -0.025478108 -0.08327303 -0.072513685 0.06405576 0.012974915 0.015640525
0.015135998 -0.10153819 0.03360011 -0.0015727112 0.03130828 0.0864198 0.06210903 -0.019791367
00000000: 243f 7fbd ba5c 363d 2c19 2d3d bf76 b23c
00000010: 7723 143d 9517 e3bc 1c2b 82bd 54ce 5c3d
00000020: 1e52 80bd 87c5 74bd 89c6 b93c 38a0 3b3c
00000030: 1035 a7bd b2b3 69bc bd86 863c f1c4 d2bb
00000040: 6334 adbc 8480 5cbd 8a26 7c3d c834 9abd
00000050: 810d 13bd 7442 89bd ee96 873d 7052 f1bb
00000060: 8932 1fbd f2d7 5f3d 392d 843d 6b74 543d
00000070: 78a1 b7bd 1959 253b aae2 33bd 2ea4 c0bd
00000080: 7a69 c43d 1ecb 513d 7cde 303d fb8e aabd
00000090: 41fd 92bc ad6f 83bd 82a9 a9bd b627 c9bd
000000a0: 24bd d2bc 3854 bebc 64f0 573d a959 323d
000000b0: 801e 3dbd 0640 b83c 08b4 ae3c 673a a0bd
000000c0: ddb9 493d 19ff 553d b5d0 44bd 9a68 3c3c
000000d0: cb0d 473d b83e c2bd b42c b8bd e1e5 d3bd
000000e0: 0707 c63c aeb7 38bd cd01 303d 8ae0 063d
000000f0: 7ab8 84bd eb3f 0abd 54f2 383c c2c6 3a3c
00000100: ed0b 84bc a527 9c3c a6ef 2a3b 97c8 213d
00000110: 29cb 2c3c 6e7a 823d 680d e5bb 7f45 903d
00000120: 4f14 323d 2570 b0bd 684d 743d 4c0e 48bd
00000130: b78b 573d 1245 c53d 117b aabd 2b1e 6d3b
00000140: 1f7b 0bbd 8a88 bd3d 1419 0a3c a73f 553c
00000150: deed cf3d 2b9d 343c d7fb c53b 0ad3 d3bd
00000160: cbf7 233d edc4 883d ee8d a23d 11cf b93d
00000170: d57d 9abc 22d0 dbbc 07b2 893d 8e50 a83d
00000180: 9873 533d da68 5cbd 1ccd b13d 160d 303d
00000190: 20ae e93c 969a 883d 491f 42bc 2da9 393c
000001a0: 8c7a 10bd b117 e7bb 9d0b 9fbd 791b 6cbd
000001b0: 3b3e 8bbd 8c64 b23d c6fb e8bc a9fe 7eb8
000001c0: 288b 8d3d 5fd7 563d b72d 9cbd 60ad be3c
000001d0: 0274 86bd 945a 0ebd b9f8 523d 3fdd 3f3b
000001e0: b225 b73d 7de7 6c3d 9cf8 9ebd 8b3f a0bd
000001f0: 16a8 a4bd 88ee 0abd ccf7 593d 7f0a 053d
00000200: 8716 b63d 3196 c13d 73f2 a93d 96c8 283d
00000210: 5359 2bbd 9e6b b83d 4d5f ab3d 331c c03d
00000220: 6253 ad3d 14e6 c53d ebdf 313d df39 c1bc
00000230: e086 543c e38d cfbd cd4c 2dbd 4147 1ebd
00000240: 6a68 993d 7fab 1a3c 625e ad3d c5d3 a2bd
00000250: 9ea5 dfbc c856 abbd 364b c03d 2b13 7cbd
00000260: d94c 36bd 4956 b63c f738 863d a79e 0ebd
00000270: 22f9 bd3d 76d1 18bd 5bd1 c1bd e1df 34bd
00000280: f5c3 86bc 9507 a03c 7509 1cbd 9c31 92bc
00000290: 9ae8 cb3d 2f33 dcbc 9ede af3d 00e5 58b8
000002a0: f6f2 763d 5673 a9bd d89f c23c 9f6d 3bbc
000002b0: 53d6 7fbd 50bf 8f3d f305 9b3d 0b44 eabc
000002c0: 5052 143b dcd9 bcbd 5a00 c13c 4241 c33d
000002d0: 9769 723d 7e6c 853c bacf 113d f923 5e3d
000002e0: ee29 9d3d 4dc9 a2bd 038f 25bd 92fb dc3c
000002f0: 917f c6bc 21ad 9cbd 16e1 b23d 912b 1dbd
00000300: 75bb a83c 59c2 b7bd efbf 2dbd 445a bf3c
00000310: 2e1e a93d 09d3 5b3c 2bf7 05bd 0a7b 4cbd
00000320: 1516 85bd b47f 86bc 66e4 5d3d 0ae5 503d
00000330: 892a ebbb 7856 773d f5c5 593d e45a 09bd
00000340: 27c8 ad3d bfc8 3bba 962e 6c3a 886d 593d
00000350: 8b38 92bc b28d a2bc 1feb 383d b07a a2bd
00000360: 5bd4 84bd 7416 2c3d dd3e af3d 3388 dbbc
00000370: 1d6a 8bbd f392 3cbc 1f22 06bd 2b80 b1bc
00000380: 7166 613d 2e6c 3bbd 0bbd 613d cfb3 abbd
00000390: af17 b63c 6156 a6bd 4197 0f3b 67be c0bc
000003a0: b3e7 8dbc df84 8abd 6f1c 053d bfd8 913d
000003b0: 9a94 aebd e4a5 c3bd 8aeb 42bd 0c2f 8cbd
000003c0: 8b45 9abd db12 a73d 77b7 d0bc 0d8b aabd
000003d0: 0e82 94bd ab2f 833d bd94 543c 8f20 803c
000003e0: fafc 773c 41f3 cfbd 45a0 093d 6e23 ceba
000003f0: 1c3d 003d ddfc b03d 0a66 7e3d 8121 a2bc

lstm.weight_hh_l0 f4 [384, 96]
-0.09924407 0.09863559 -0.021087388 -0.055918593 -0.0046476945 0.010154428 -0.01652839 -0.04697224
-0.050753266 -0.08036348 -0.0809211 0.019462746 -0.01630778 0.05594484 -0.0747995 0.073215075
-0.05650685 -0.056046963 -0.05176696 0.06942024 0.06897141 -0.0699551 0.006370079 0.044474922
-0.094345845 -0.022851752 0.0023931912 -0.09893699 -0.0067732246 0.027649289 0.0087104505 -0.07694436
-0.08298825 -0.07783822 -0.008257717 0.07061197 -0.06854602 -0.06675574 0.05852752 0.040221296
-0.088278525 0.039123677 -0.045349993 -0.038382884 -0.05714316 0.07369714 -0.054797117 0.04752644
-0.019708414 -0.080328256 0.08000393 0.053917162 -0.011090588 -0.02148194 -0.0024691978 -0.02077171
-0.089971244 0.08448295 -0.030396823 0.0001299423 -0.04612777 0.07462702 -0.10483903 0.08297377
0.017923258 0.050102524 -0.065259784 0.039348833 -0.01062675 0.061598208 -0.0018500923 -0.062380724
-0.009933322 0.063603595 0.08318486 -0.08749191 0.08523926 0.05496796 0.008731329 -0.07156859
-0.105198905 0.07552835 0.018835897 0.07987185 -0.08015954 -0.068524756 -0.04284608 0.082639635
-0.094444826 -0.08085096 0.0050372137 0.02030755 -0.06747303 0.0278755 -0.052014723 -0.036038596
0.021981394 0.095921196 0.061199244 -0.0030437566 0.043110624 -0.06168434 -0.004588651 -0.057943065
-0.058613498 0.040125895 -0.046843126 -0.07087457 -0.093088284 0.07358131 0.064412035 0.07558546
0.06733791 0.002504929 -0.02184492 -0.0034645242 0.003922728 0.03796691 0.008028977 -0.08123068
-0.034957644 0.06388777 0.06962015 -0.022017367 -0.08169523 0.0844042 0.0390384 -0.01204293
-0.020168712 -0.050400984 0.054701984 0.070215195 0.003909119 0.00868741 -0.08257414 -0.008294461
-0.097165614 0.05449604 0.08960384 0.007043842 -0.09343157 -0.006863857 0.03911855 -0.03832165
-0.030164186 0.063861996 0.043311954 -0.0743433 0.05287617 0.03984512 -0.015734922 0.042519804
0.059637453 0.03574353 -0.07912249 -0.10256197 0.08625999 -0.08674256 -0.058776498 0.0458318
-0.03843188 -0.088033564 -0.048398364 0.067808546 -0.054835115 -0.079996355 0.034501832 -0.05808328
0.015091494 0.054890815 -0.042489633 -0.046425864 0.0548073 -0.059375662 -0.08058867 -0.06923994
-0.045454692 -0.032167386 0.07517208 0.04333677 0.08640672 0.055827934 -0.00262374 -0.00010322098
-0.053605333 0.02811017 -0.069106646 -0.091112405 -0.03102102 0.01858152 0.0116120465 0.029677438
0.010854915 -0.05243017 -0.026127296 -0.0075528626 -0.026838984 0.030645894 -0.011928622 -0.026659198
-0.02256502 -0.05385282 0.02273137 0.0027744384 -0.015720868 -0.017421631 0.04910492 -0.011823155
0.0029934857 0.001556282 -0.03891884 -0.045890026 -0.056021046 0.01730992 -0.000453716 -0.032093883
-0.047369704 -0.028766222 -0.04494116 0.06960188 -0.01730904 -0.026632776 -0.05238301 0.0130960485
-0.052887775 0.015199352 -0.025744705 -0.024631664 0.061948203 0.023250395 -0.010770875 0.020950895
-0.01920689 0.035218615 0.034174487 -0.041560557 0.023200532 -0.040236436 -0.02348313 -0.06032261
-0.055792265 0.060208194 0.03975591 -0.0073262188 -0.017033383 -0.0076478557 0.024185644 -0.03486004
0.04262872 -0.039192837 -0.064468 -0.025456743 0.06029878 -0.06264476 -0.07733929 0.007884834
00000000: 7a40 cbbd 7501 ca3d 75bf acbc e50a 65bd
00000010: b04b 98bb c25e 263c 8c66 87bc f765 40bd
00000020: a8e2 4fbd 9c95 a4bd f6b9 a5bd 5670 9f3c
00000030: e597 85bc 6b26 653d 7b30 99bd c9f1 953d
00000040: ba73 67bd 8091 65bd 9809 54bd 332c 8e3d
00000050: e240 8d3d 9f44 8fbd 18bc d03b 562b 363d
00000060: 6538 c1bd 9933 bbbc 16d7 1c3b 7a9f cabd
00000070: edf1 ddbb c380 e23c 47b6 0e3c 0195 9dbd
00000080: bef5 a9bd a569 9fbd 604b 07bc 029d 903d
00000090: db61 8cbd 3cb7 88bd 8eba 6f3d 16bf 243d
000000a0: 5fcb b4bd 2640 203d eac0 39bd 5f37 1dbd
000000b0: f20e 6abd 87ee 963d f172 60bd 16ab 423d
000000c0: 8a73 a1bc 2483 a4bd 1ad9 a33d 3ed8 5c3d
000000d0: 4cb5 35bc e5fa afbc 44d2 21bb 6f29 aabc
000000e0: d842 b8bd 6605 ad3d c202 f9bc 1f41 0839
000000f0: 79f0 3cbd 0dd6 983d d8b5 d6bd 27ee a93d
00000100: ccd3 923c 4e38 4d3d eca6 85bd 3e2c 213d
00000110: d21b 2ebc 674e 7c3d cc7e f2ba ee82 7fbd
00000120: 5fbf 22bc 9a42 823d d35c aa3d f52e b3bd
00000130: ec91 ae3d 1526 613d d90d 0f3c 8e92 92bd
00000140: 8672 d7bd 9cae 9a3d bd4d 9a3c da93 a33d
00000150: af2a a4bd b556 8cbd 5f7f 2fbd f83e a93d
00000160: 4a6c c1bd 3095 a5bd 360f a53b 055c a63c
00000170: 4d2f 8abd 295b e43c 640d 55bd 359d 13bd
00000180: 5312 b43c 5572 c43d 0fac 7a3d c379 47bb
00000190: c494 303d b8a8 7cbd 655c 96bb b555 6dbd
000001a0: b514 70bd 0d5b 243d 94de 3fbd b026 91bd
000001b0: 12a5 bebd ccb1 963d 75ea 833d 8dcc 9a3d
000001c0: 75e8 893d bc29 243b 1ef4 b2bc 120d 63bb
000001d0: 3a8a 803b 3183 1b3d f88b 033c 455c a6bd
000001e0: bf2f 0fbd 97d7 823d 0295 8e3d c45d b4bc
000001f0: d44f a7bd 1cdc ac3d bbe6 1f3d b64f 45bc
00000200: db38 a5bc 4371 4ebd 300f 603d fccc 8f3d
00000210: 1118 803b a355 0e3c a11c a9bd 7ee5 07bc
00000220: c4fe c6bd 3d37 5f3d 3882 b73d 08d0 e63b
00000230: 0d59 bfbd 35ea e0bb c63a 203d 2af7 1cbd
00000240: e21a f7bc 14ca 823d e067 313d 4d41 98bd
00000250: af94 583d a334 233d 86e6 80bc 3f29 2e3d
00000260: 6746 743d cf67 123d f90a a2bd 030c d2bd
00000270: 14a9 b03d 15a6 b1bd a0bf 70bd 20ba 3b3d
00000280: bf6a 1dbd f14a b4bd 5d3d 46bd 35df 8a3d
00000290: c99a 60bd 21d5 a3bd cb51 0d3d bce8 6dbd
000002a0: 5042 773c 31d5 603d 9c09 2ebd 0c29 3ebd
000002b0: 9f7d 603d e533 73bd ac0b a5bd abcd 8dbd
000002c0: b32e 3abd f3c1 03bd d2f3 993d e681 313d
000002d0: 02f6 b03d d5ab 643d 0df3 2bbb 5778 d8b8
000002e0: 4491 5bbd 4d47 e63c c987 8dbd 2499 babd
000002f0: cb1f febc 4638 983c 7440 3e3c 191e f33c
00000300: d0d8 313c 05c1 56bd e908 d6bc 017e f7bb
00000310: 6edd dbbc 190d fb3c 4470 43bc 6464 dabc
00000320: 47da b8bc c694 5cbd 2337 ba3c 5ad3 353b
00000330: 0dc9 80bc cfb7 8ebc 3e22 493d e8b5 41bc
00000340: 5b2e 443b 29fc cb3a 5d69 1fbd 2ef7 3bbd
00000350: 5376 65bd 89cd 8d3c bbe0 edb9 e074 03bd
00000360: bc06 42bd 24a7 ebbc 3914 38bd 6e8b 8e3d
00000370: b0cb 8dbc fb2c dabc 918f 56bd cf90 563c
00000380: daa0 58bd b406 793c 8fe6 d2bc 58c8 c9bc
00000390: 66bd 7d3d 9d77 be3c 5378 30bc 36a1 ab3c
000003a0: c557 9dbc 6541 103d 8cfa 0b3d 673b 2abd
000003b0: 0b0f be3c f6ce 24bd b15f c0bc d714 77bd
000003c0: 6e86 64bd de9c 763d 18d7 223d c710 f0bb
000003d0: 9889 8bbc dd9a fabb f920 c63c 67c9 0ebd
000003e0: 749b 2e3d ab88 20bd cc07 84bd a98a d0bc
000003f0: dbfb 763d e54b 80bd 1064 9ebd 642f 013c

lstm.bias_ih_l0 f4 [384]
-0.061190605 -0.07310807 0.008616354 -0.07443038 0.056995485 -0.0824644 -0.044068646 0.041414734
-0.010108345 -0.081504256 -0.052218888 -0.05573232 -0.0090728635 0.08440483 -0.07077775 0.0930355
0.06738836 -0.037318658 0.07507356 0.058845427 -0.017423056 -0.0077146553 -0.056178324 0.050278835
-0.07092039 0.09392482 -0.08666463 0.024595674 -0.042470776 0.013740083 0.0018686106 0.013661804
0.01952699 0.032122415 -0.023205359 -0.00717639 -0.026044361 0.06992917 0.08176004 -0.010881052
-0.026280224 -0.066882074 -0.0052914917 0.0030561073 0.06254173 0.054902665 -0.01419567 0.08475786
0.0067185126 -0.08182125 0.025566831 -0.010226829 0.0102067245 0.03248805 0.03380954 0.07894134
-0.06941139 0.0269992 0.063627325 0.048953 -0.071045995 0.010802405 -0.043463312 -0.094565034
0.049759712 -0.06913201 0.006264975 0.069188915 -0.06556443 -0.069934845 -0.081358604 -0.042966038
0.02496655 -0.051638767 0.044953767 -0.0016041023 0.006029291 0.040320657 0.08095909 0.09645667
0.01785982 0.04533118 -0.0023492866 0.03062231 -0.057672694 0.00557203 0.053093914 -0.049819272
0.0040546264 -0.033515725 -0.0848461 0.07873647 0.037085243 -0.021407023 -0.012651606 -0.045823034
0.052192736 -0.09668202 -0.0070611457 0.011423146 0.011057421 0.033928264 -0.049493745 -0.0683468
-0.062158648 0.10183335 -0.02412605 0.050576627 -0.041796774 0.043320768 -0.01304642 0.023790624
0.018728334 0.07836771 0.10341505 0.0145403445 -0.05252035 0.001788521 0.073094495 0.060768403
0.038707376 -0.058887087 0.020660726 0.10120479 -0.08637293 -0.09331547 0.031432025 0.08581259
0.09425256 0.09327781 0.047460366 0.09154318 0.03695924 0.025318356 0.09290264 -0.024856206
0.032437548 -0.042590328 -0.07060302 -0.089090236 0.059095506 0.033466842 -0.034069464 -0.08051325
0.0233056 0.10100044 -0.08271114 0.0623368 0.0034759636 -0.055786766 -0.032327186 -0.06753069
0.04677678 -0.009716774 0.041549116 0.0997635 -0.08342157 -0.0719715 0.00093683123 0.026893627
-0.003621643 -0.057276823 -0.052744955 0.023796333 0.061262093 -0.045224946 0.094083786 0.03573432
0.06310866 0.031255506 0.09333607 0.011981442 -0.08225203 0.04111365 0.0076201297 -0.07463977
-0.051857535 -0.050540727 0.040037055 -0.06743542 -0.046647564 -0.053241957 0.09540088 -0.09008244
-0.06789936 -0.008028112 -0.03177648 0.040229928 -0.0032542767 0.051694 0.013257371 -0.0056861625
-0.02569409 -0.03974316 -0.04073384 0.042364236 0.07206284 -0.08378599 -0.076169364 0.09734773
-0.014825315 -0.06277412 -0.08564468 0.0463495 -0.020591358 0.070895605 0.046155922 -0.0054319026
0.099231236 0.040375408 0.03172553 -0.07259184 0.006679236 -0.01932891 0.040020425 0.086791076
0.029007724 -0.061045248 -0.027592463 -0.034118682 -0.030895326 0.044516433 0.066644 -0.047758292
-0.06135351 -0.020221315 0.00039518715 0.05817226 -0.01691112 -0.08250187 0.040641926 -0.033037685
0.1036478 -0.06981654 0.0041654464 -0.054765154 0.07585787 0.0674318 0.08080844 0.054137196
-0.01781941 0.037534907 -0.064172454 0.10046032 -0.09372018 0.061331127 0.016865622 -0.0056093764
0.053573754 0.07488612 0.03741837 0.092121065 0.041011706 -0.06677744 0.016263384 -0.09497312
00000000: 00a3 7abd afb9 95bd 9c2b 0d3c f46e 98bd
00000010: 1974 693d 18e3 a8bd 5381 34bd 7fa2 293d
00000020: 799d 25bc b4eb a6bd 79e3 55bd 9347 64bd
00000030: 59a6 14bc 71dc ac3d edf3 90bd 6589 be3d
00000040: e902 8a3d 73db 18bd 2bc0 993d e707 713d
00000050: ccba 8ebc 38cb fcbb 3e1b 66bd 2ef1 4d3d
00000060: b63e 91bd a85b c03d 3a7d b1bd de7c c93c
00000070: d6f5 2dbd 161e 613c 2bec f43a c2d5 5f3c
00000080: 11f7 9f3c cb92 033d 2a19 bebc ec27 ebbb
00000090: fc5a d5bc 0637 8f3d cf71 a73d 7146 32bc
000000a0: a049 d7bc 78f9 88bd 4064 adbb f948 483b
000000b0: e115 803d 9ee1 603d f594 68bc 8795 ad3d
000000c0: f826 dc3b e691 a7bd 8871 d13c 6e8e 27bc
000000d0: 1b3a 273c 3112 053d df7b 0a3d ffab a13d
000000e0: 8f27 8ebd 6d2d dd3c 0b4f 823d f182 483d
000000f0: 9080 91bd 92fc 303c 9606 32bd 50ab c1bd
00000100: d7d0 4b3d 1595 8dbd 6b4a cd3b ebb2 8d3d
00000110: a546 86bd 003a 8fbd 579f a6bd 28fd 2fbd
00000120: a686 cc3c 2c83 53bd 7121 383d be40 d2ba
00000130: 5c91 c53b 4627 253d e1cd a53d 138b c53d
00000140: c24e 923c 30ad 393d 7df6 19bb a3db fa3c
00000150: 343a 6cbd 9395 b63b 0179 593d 4b0f 4cbd
00000160: acdc 843b c947 09bd cbc3 adbd 9640 a13d
00000170: b2e6 173d c85d afbc af48 4fbc efb0 3bbd
00000180: 0dc8 553d 3901 c6bd 2f61 e7bb 2628 3b3c
00000190: 2f2a 353c 5df8 0a3d f4b9 4abd 68f9 8bbd
000001a0: 119a 7ebd 018e d03d fea3 c5bc 7029 4f3d
000001b0: 1833 2bbd 1e71 313d a7c0 55bc 8ee4 c23c
000001c0: 2a6c 993c 407f a03d 45cb d33d a03a 6e3c
000001d0: 941f 57bd ce6c ea3a 91b2 953d 4ae8 783d
000001e0: a08b 1e3d 9633 71bd af40 a93c 7544 cf3d
000001f0: 4ae4 b0bd 2e1c bfbd debe 003d 83be af3d
00000200: 7c07 c13d 7008 bf3d cd65 423d fe7a bb3d
00000210: 9262 173d 7168 cf3c bd43 be3d 3e9f cbbc
00000220: 3cdd 043d 3273 2ebd 5198 90bd f174 b6bd
00000230: 210e 723d 8714 093d 6c8c 0bbd 21e4 a4bd
00000240: 63eb be3c 52d9 ce3d 7564 a9bd df54 7f3d
00000250: fecc 633b aa80 64bd 8369 04bd 884d 8abd
00000260: 0299 3f3d 1b33 1fbc 682f 2a3d ce50 cc3d
00000270: eed8 aabd cb65 93bd ae95 753a 0650 dc3c
00000280: 1659 6dbb 1a9b 6abd 180b 58bd 87f0 c23c
00000290: f6ed 7a3d cb3d 39bd 00af c03d 265e 123d
000002a0: 1d3f 813d c605 003d fb26 bf3d cf4d 443c
000002b0: c173 a8bd c966 283d 48b2 f93b bcdc 98bd
000002c0: 9168 54bd cb03 4fbd e5fd 233d 951b 8abd
000002d0: 8411 3fbd 3d14 5abd 8961 c33d 247d b8bd
000002e0: d20e 8bbd 5888 03bc 0e28 02bd 23c8 243d
000002f0: b445 55bb 16bd 533d 7235 593c fd52 babb
00000300: 6a7c d2bc b9c9 22bd 87d8 26bd 1f86 2d3d
00000310: af95 933d fd97 abbd affe 9bbd 3f5e c73d
00000320: e1e5 72bc b88f 80bd 7a66 afbd f9d8 3d3d
00000330: 35af a8bc b731 913d fe0d 3d3d 1afe b1bb
00000340: bf39 cb3d af60 253d a1f2 013d 08ab 94bd
00000350: 7edd da3b aa57 9ebc 75ec 233d 85bf b13d
00000360: 9ba1 ed3c 950a 7abd 9709 e2bc 08c0 0bbd
00000370: 3218 fdbc dd56 363d a67c 883d 339e 43bd
00000380: d14d 7bbd 2ca7 a5bc 1f31 cf39 0946 6e3d
00000390: 3089 8abc bef6 a8bd 2678 263d 8652 07bd
000003a0: 4c45 d43d f9fb 8ebd 4c7e 883b 6d51 60bd
000003b0: 5f5b 9b3d af19 8a3d e57e a53d f7be 5d3d
000003c0: 03fa 91bc 34be 193d d96c 83bd 24be cd3d
000003d0: 5ef0 bfbd 5936 7b3d c629 8a3c dcce b7bb
000003e0: 2770 5b3d e55d 993d 0144 193d f8a9 bc3d
000003f0: e4fb 273d 9cc2 88bd ca3a 853c 4481 c2bd
