checkpoints/ultra_seed42_20251128_145114.pt (torch, 356097 bytes, 16 tensors)

cnn.0.weight f4 [32, 1, 7]
000000 b6 0b 8f 3e a1 f0 94 3e 9b b2 e6 bd 84 02 98 3e
       0.27938622 0.29089835 -0.11264535 0.2968942
000010 6e 08 07 be fb f9 70 3b 39 fd 87 be 6c 39 1f 3e
       -0.1318681 0.0036770094 -0.2656038 0.15549248
000020 22 dc 85 3e 7f a5 a8 be 97 e4 81 3e d6 f2 c4 39
       0.2614451 -0.32938763 0.25369713 0.0003756496
000030 6d d1 48 3e 6d c3 e6 bc 65 ae 4a 3e 76 5f 46 bd
       0.1961114 -0.028169358 0.19793089 -0.048430882
000040 48 e7 87 3e f2 b6 b8 3c e6 9a 58 be 31 f1 45 3d
       0.2654364 0.022548173 -0.21152839 0.04832572
000050 61 6d 5a be 43 3f 05 bd e6 70 fd bd bc fd 8e 3e
       -0.21330787 -0.032531034 -0.12375049 0.2792796
000060 b3 d8 76 be eb 09 f0 bd a2 93 5b bd c6 92 33 be
       -0.24106102 -0.11720642 -0.05360759 -0.17536458
000070 0b ae ec bc c3 b6 d1 be 3c 21 99 3e d1 be 9f be
       -0.028891584 -0.4095975 0.29908168 -0.3120027
000080 72 31 9b 3e 95 ed eb 3d a7 c2 fd bc 6b 60 6f 3e
       0.3031116 0.115199246 -0.030976607 0.23376624
000090 79 c9 57 3d 92 1a 92 3e 90 d3 9e 3c d5 c3 14 be
       0.052682374 0.28535897 0.01938799 -0.14527829
0000a0 82 b1 56 3d 67 c6 2e be 96 72 c0 3d 9e 38 86 3e
       0.05241538 -0.17067872 0.093968555 0.2621507
0000b0 fc 68 18 3e b8 de 5c be 82 79 22 3e 6b eb b1 3c
       0.14883798 -0.21569335 0.15866664 0.021718701
0000c0 b0 b6 16 3e 73 13 6b be 36 61 b4 be 27 06 f2 bd
       0.14718127 -0.22956638 -0.35230416 -0.1181758
0000d0 d1 b4 79 be 00 96 b1 3e 7f 1b 29 3e 77 63 66 3e
       -0.24385382 0.34684753 0.16514395 0.2249888
0000e0 ca 07 e6 3d e5 0d 2e bc c8 fc 8d 3e 29 13 87 be
       0.112319544 -0.01062343 0.2773192 -0.26381806
0000f0 d9 02 ad 3c ba dc 79 be 55 dd 02 3e 6d ad 00 be
       0.021119522 -0.24400607 0.12779744 -0.12566157
000100 6d 8e fc 3d ec c7 4d bd 5d 8c a9 3e 94 dc 36 be
       0.12331853 -0.05023949 0.331149 -0.17857581
000110 e4 2d 3d be 3f 5e 47 be cb 81 da 3e e2 6e 5e 3e
       -0.18474537 -0.19469546 0.4267715 0.21721986
000120 3d 22 dd 3e 5b 2b 73 be 88 d5 a6 be 7a 06 8e be
       0.43190184 -0.23747008 -0.32584786 -0.27739316
000130 d8 ae 84 be 53 97 3a 3e 13 f3 1a 3e af 59 9d 3e
       -0.25914645 0.18221788 0.15131788 0.30732486
000140 54 a7 5a be 3a 7a 97 be 77 c3 0b 3e c3 09 5e be
       -0.21352893 -0.2958544 0.13648783 -0.21683411
000150 07 73 8f 3e 64 25 86 bd 35 b1 50 3e 67 e8 a3 be
       0.28017446 -0.065501004 0.20380099 -0.32013246
000160 e9 e0 67 be 04 2b a7 3d 27 9a 84 3d 5c 18 1b bd
       -0.2264439 0.081625015 0.06474715 -0.037865028
000170 37 68 8a 3e b6 d3 93 3e 84 d3 80 be 4c 51 57 be
       0.27032635 0.2887246 -0.25161374 -0.21027106
000180 db f1 8c 3e 0a b5 7a be 8d b3 f1 bd 6a b1 aa be
       0.2752827 -0.24483123 -0.11801825 -0.3333848
000190 b1 f7 39 be e6 eb fd 3d fa 7c 2b bb 15 83 50 be
       -0.18160893 0.1239851 -0.002616702 -0.20362504
0001a0 ea eb 8a 3d 6c c4 8a be 12 4e a3 be 13 2a 46 be
       0.06783278 -0.27102983 -0.318955 -0.19351988
0001b0 e2 9b 96 be 3d e1 42 be 6c 89 d6 3e 33 d2 02 3e
       -0.29415804 -0.19031234 0.4190172 0.12775497
0001c0 c5 89 22 3e f0 e0 86 be e2 83 16 be b3 7e b0 bc
       0.15872867 -0.2634349 -0.14698747 -0.02154479
0001d0 c4 b6 1d 3e d3 93 67 be 79 68 a4 bd 8a b6 3f be
       0.15401751 -0.22614984 -0.08027739 -0.18721977
0001e0 e0 9f 11 3d ce 1a bc bd c0 1e 87 3c 6c 3a 50 be
       0.03555286 -0.091848 0.016494155 -0.20334786
0001f0 e4 f8 5b be 60 fc 41 be b7 e5 40 be 8d 1e 9f be
       -0.21481663 -0.1894393 -0.1883763 -0.31077996
000200 34 b2 a9 3e 98 61 e4 bc 4d 25 bc 3e 47 11 14 3e
       0.3314377 -0.027878568 0.36747208 0.14459716
000210 d3 94 a6 be 66 e5 94 3e 17 b7 94 bd 60 3b 03 be
       -0.3253542 0.29081267 -0.07261484 -0.12815619
000220 05 a7 9b be b2 bd c0 be 5f dc 93 3d a1 75 f0 bd
       -0.30400863 -0.37644726 0.07219767 -0.11741186
000230 6f c1 96 3d a8 45 bf be ac 0a 5f 3e 36 bf 98 be
       0.07361113 -0.3735783 0.21781415 -0.29833382
000240 2b 38 56 bd 5b 18 06 3e 94 e5 90 3e 32 57 9e 3e
       -0.05229966 0.13095228 0.28300154 0.309259
000250 21 31 aa 3e 6e bc 9c be ef 3b 9c 3d a2 94 31 be
       0.33240607 -0.3061251 0.07628619 -0.17341855
000260 47 e4 7c bd 07 95 9f be 9c 26 8c 3e d7 c8 9f be
       -0.06174114 -0.31168386 0.27373207 -0.31207916
000270 44 f3 17 3e 58 f1 b4 3d 07 3d b2 3d 00 87 5d be
       0.14838892 0.08835095 0.08703046 -0.2163353
000280 57 c7 a4 3e e9 1a ae 3d 93 e6 19 3d fc f4 ac be
       0.32183334 0.085012265 0.03757341 -0.33780658
000290 5d 47 0a 3e dd 76 85 bd 77 54 27 be 68 f3 ab 3e
       0.13503785 -0.06516812 -0.16340815 0.33584142
0002a0 a8 3a cb 3d 66 f3 39 be 9d f7 26 be c8 e0 56 3b
       0.09923297 -0.18159255 -0.16305394 0.0032787789
0002b0 05 84 60 3e 9f 3c a9 bd 3d 78 55 be 1f 1f 46 be
       0.21925361 -0.08263516 -0.20846649 -0.1934781
0002c0 04 c7 a4 be d8 9e d4 3d 75 37 8f 3e 1f 02 a6 be
       -0.32183087 0.103818595 0.27971998 -0.32423493
0002d0 a4 6e 02 3e a3 e4 81 3e 51 5d 8c 3d fa a7 06 be
       0.12737519 0.25369748 0.06853736 -0.13150015
0002e0 6d 1d 3a 3e 11 2f 33 3e 1e 13 dc 3d 29 56 e5 bd
       0.18175288 0.17498423 0.10745834 -0.11198074
0002f0 3c fe 36 be 85 19 1b 3d b9 2a 5f bd 7d 4a be bd
       -0.1787042 0.037866134 -0.054484103 -0.09291551
000300 57 a1 7d 3e 02 8c a6 3e 34 74 e4 bc 35 bb ad bd
       0.24768578 0.32528692 -0.027887441 -0.084829725
000310 05 22 69 bd 80 ed b8 bd 5e f3 ed 3c 08 d8 8a 3d
       -0.05691721 -0.090296745 0.02904671 0.06779486
000320 c4 13 a9 be fd b2 a7 bd ee d6 d5 3e 8c fe 26 3e
       -0.33022892 -0.08188436 0.4176554 0.1630804
000330 87 15 ac bb de d0 59 be ff d6 60 be 9e d7 a5 be
       -0.0052515897 -0.21271083 -0.21957015 -0.32391065
000340 36 29 ea bd b0 50 07 3e 31 88 80 3e fd 1b 31 3e
       -0.114336416 0.13214374 0.25103906 0.17295833
000350 9b c9 a8 be 0c f2 68 be 24 b0 5c bd 93 74 c2 3e
       -0.32966313 -0.22748584 -0.05387892 0.37979564
000360 20 76 d4 3d 38 fd e8 bd 8d 0b f9 3d 7c 3f 2c be
       0.10374093 -0.11376423 0.12160406 -0.16821092
000370 e3 ff 87 be aa 3c 6c 3e eb 9b 4a be 08 38 db bd
       -0.26562414 0.23070017 -0.1978604 -0.107040465

cnn.0.bias f4 [32]
000000 ef 9a d5 be 38 1a 5b 3e 4f 66 4e 3e 1b cc c7 3d
       -0.41719767 0.2139672 0.20156215 0.09755727
000010 21 f2 81 be d7 8c d9 be fb d9 b1 be b4 23 7a 3e
       -0.25380042 -0.42490265 -0.34736618 0.24427682
000020 de 1a 19 3e 12 65 51 3e 56 45 17 3e 4d 24 90 3d
       0.14951655 0.20448712 0.14772543 0.07038174
000030 9e 3a 63 3c 03 ec 8a be ec 5f af be b5 a0 b2 be
       0.013868956 -0.27133188 -0.3425287 -0.34888235
000040 71 1b dd 3d 1d 74 3f be bf be c8 bb d6 c7 40 be
       0.1079625 -0.18696637 -0.0061262543 -0.18826231
000050 85 19 4b bc 2a e7 b0 be 3c 7e 92 be aa 8f bb 3d
       -0.012396221 -0.34551364 -0.28611934 0.09158261
000060 90 b9 12 be 8c fe 16 3e 80 ce 0f be ff 74 88 be
       -0.14328599 0.1474554 -0.14043617 -0.2665176
000070 54 b8 d8 bc 84 18 3c be 8c 94 9d bd 8d 88 ae be
       -0.026455082 -0.18368727 -0.07694349 -0.34088555

cnn.4.weight f4 [64, 32, 5]
000000 33 c4 66 bc 58 b1 32 bd 04 5e 92 3c dc f5 09 3b
       -0.0140848635 -0.04362616 0.017867096 0.0021051085
000010 4a 93 90 3d ca 88 7d bd 9e 53 03 3d 2f f6 28 bd
       0.07059343 -0.06189803 0.032062165 -0.041250404
000020 9a 91 aa 3b 8e d3 1c 3d 6b 20 71 bc b6 ea 98 bb
       0.0052053453 0.03828769 -0.014717202 -0.0046666516
000030 d1 b6 97 bc 08 cc 8a bd 4a ae eb 3c de 08 99 bd
       -0.01851979 -0.06777197 0.028769631 -0.074723944
000040 43 f1 ec 3c 73 02 3a 3d 2f 5e b0 3d fe 28 33 3d
       0.028923636 0.045412492 0.08611714 0.043740265
000050 4d 69 c6 bc e8 52 f0 bb 0a 21 95 3b 1e 5f ce bb
       -0.024220133 -0.007334102 0.0045510577 -0.00629796
000060 e5 d5 60 3c d3 1b 13 bd 1c 01 5a ba eb e3 e4 bc
       0.013722871 -0.035915207 -0.00083162053 -0.027940711
000070 fd 9a fd bc 04 7a 74 bb a2 f8 c5 bd 61 38 13 3c
       -0.030957693 -0.0037304172 -0.096665636 0.00898561
000080 5a 8c e1 3c ef 24 fb bc fe 4d 43 bc 01 4e 56 bd
       0.027532745 -0.03065726 -0.01192045 -0.052320484
000090 59 cf 98 bd d2 33 91 bd 84 a6 a5 3c 0b fe 19 bd
       -0.074614234 -0.07089962 0.020221002 -0.03759579
0000a0 2e ab 2b bd 38 e6 a0 bb 4c c7 0a bd 2d d8 f7 bc
       -0.041911297 -0.0049102567 -0.03388147 -0.030254448
0000b0 f5 8e 56 3b 59 6e 72 bc 41 68 cd bc 61 cc d4 bc
       0.0032739018 -0.014796817 -0.025074126 -0.025976362
0000c0 73 45 27 bd 24 c6 ac 3d 40 8b 27 bc 4a 76 2d 3d
       -0.040837716 0.0843623 -0.010226071 0.042349137
0000d0 9c f0 f5 ba 67 3e c7 3c c0 3e e4 3d 71 ae 3a 3d
       -0.0018763724 0.024321748 0.11144781 0.045576517
0000e0 5a af 4b bd 04 77 c5 3c 38 30 87 3d c2 7b 16 3d
       -0.049727775 0.024104603 0.06600994 0.03673912
0000f0 bc 7d 63 3d aa 03 80 3d e4 44 98 bb 1c af 5c 3c
       0.05553983 0.06250699 -0.0046468843 0.013469484
000100 29 72 01 bd 41 7e 86 3b 40 15 ae 3c f8 4d 11 3d
       -0.031603012 0.004104406 0.021250367 0.035474747
000110 f9 e3 d8 3a f3 8c 1d 3c 94 8a 58 bd ed 07 97 bc
       0.0016547433 0.009616124 -0.052866533 -0.018436396
000120 ca 51 df bc 35 6a 01 bd 49 21 c5 3c 4a 52 6b bd
       -0.02726068 -0.031595428 0.024063723 -0.057451524
000130 5f 22 8d bd 29 7f 58 bd 9e a5 a9 3c 9b f4 56 bd
       -0.068913214 -0.052855644 0.020708855 -0.052479368
000140 84 3a 05 bd e9 bd 90 3c a9 1a 38 bd 54 27 1b 3c
       -0.032526508 0.017668681 -0.0449473 0.009469826
000150 cb a1 ef 3c f8 5c 88 bd 8a c5 78 bd bd 40 94 bd
       0.029251954 -0.066583574 -0.060735263 -0.0723891
000160 84 c2 31 bd b5 32 b0 3b df f8 c2 3c 75 3f 34 bd
       -0.043398395 0.0053771385 0.023800312 -0.04400583
000170 38 43 2f bd 71 82 a5 3c bb e5 c4 3c 6e b8 ce 3c
       -0.042788714 0.0202038 0.024035325 0.025234427
000180 e6 b6 37 3d 95 09 be 3c 2c a6 23 bd fb 77 69 3d
       0.04485216 0.023197928 -0.039953396 0.056999188
000190 47 e2 3d 3c 86 89 27 bc 84 dd cb bc fb 6c cc 3d
       0.011589593 -0.010225659 -0.0248859 0.09981724
0001a0 f2 36 96 3d 56 37 b3 bc 4e ee 65 bd 16 33 0f 3c
       0.07334699 -0.021876972 -0.05613547 0.008740207
0001b0 4c 66 21 3d 39 6f b0 3d 89 e3 ae bc e2 2d a2 bd
       0.0394042 0.08614964 -0.021348732 -0.07918908
0001c0 92 9e 94 bd 69 9f a7 bc 39 ea 8f 3d b9 3e a7 3c
       -0.072568074 -0.020461755 0.07027096 0.02041565
0001d0 9f 51 5e bd cf be 79 bc 83 a3 5f bd 12 54 07 bd
       -0.05427706 -0.015243246 -0.054599296 -0.03303916
0001e0 5c 4e c7 bb 59 f8 3d 3b e3 dd 7a 3b dd e5 15 bd
       -0.006082339 0.0028987138 0.0038279227 -0.036596168
0001f0 00 59 85 3d f8 09 a8 bd 5e 3e 4c ba a2 81 18 3d
       0.06511116 -0.082050264 -0.0007791276 0.037233002
000200 2e 19 4c bc 7f 84 8c 3d 69 2e f3 bc 30 6f 42 bc
       -0.012457175 0.06861209 -0.029685216 -0.0118673295
000210 7c 4c 9f 3c 41 3d c2 bb b2 49 72 3d 5c c2 22 bd
       0.01944565 -0.005927712 0.059152313 -0.039736137
000220 ba 3a 8c 3c 84 f6 4c 3c b5 97 89 3c 1b dd e9 bc
       0.017117847 0.012509946 0.016795972 -0.028547814
000230 3b 7a 3e bd 14 e5 d1 3b 36 36 bf 3c f6 d1 15 3d
       -0.046503287 0.006405482 0.02334128 0.036577187
000240 5c 7f e6 3d 52 5f 3c 3c a4 df e7 3b b3 8d c6 3b
       0.112547606 0.0114973355 0.0070762206 0.0060593723
000250 89 68 a4 bc 8a 00 f4 bc f7 11 aa bd e6 a7 70 bd
       -0.020069377 -0.029785413 -0.08304208 -0.05875387
000260 2f 11 6c bd 3b 42 d8 3c 3b 9a d6 3c e6 02 22 3b
       -0.057633575 0.026398769 0.02619659 0.0024720966
000270 5c 2c 9c 3b d4 99 15 bc 74 23 81 ba 6a 76 18 bc
       0.0047660302 -0.009130914 -0.0009852485 -0.009305576
000280 7b 1a 87 bd 86 a8 ed bc c9 c0 6f bd e3 6d 06 bd
       -0.065968476 -0.029011022 -0.058533464 -0.03281964
000290 fd 12 bc 3c 03 46 87 bd f1 03 90 bd 7c e4 36 3c
       0.022958273 -0.066051506 -0.07032002 0.011162873
0002a0 8e 4a 25 3d a5 3c b2 3c 34 6a 18 bd c5 40 a8 bd
       0.040354304 0.021757433 -0.03721066 -0.08215479
0002b0 cf ea 10 bd 3f e6 cd 39 08 db 8c 3c 67 1a ff bb
       -0.03538018 0.00039272194 0.017194286 -0.00778513
0002c0 a2 05 2c bc ec 38 e6 3c 2a 02 50 bd 25 ea 48 3c
       -0.01049939 0.028103314 -0.050783314 0.012262856
0002d0 d2 13 47 3b 19 b2 9f 3c ef 34 00 3d d6 86 85 3d
       0.0030376804 0.019494103 0.03130048 0.065198585
0002e0 65 23 97 3d 48 0c b6 bc 7a ae 23 bd 9c 4f 09 3d
       0.07379798 -0.022222653 -0.039961316 0.033523187
0002f0 d2 cc 7e 3d b4 c3 60 bc b8 03 8e bd af f5 32 3c
       0.06220705 -0.013718534 -0.06934303 0.010922833
000300 b7 ad 08 3d 69 65 53 bd 22 95 a0 3b 3a f0 6f bd
       0.033368792 -0.051610384 0.0049005905 -0.058578707
000310 d3 ee 40 bd 1a dd b9 3c 9e 9d ef 3c a2 1b 56 3d
       -0.04710276 0.022688437 0.029249962 0.052272446
000320 9e 6d 24 bd a3 a0 f8 3c da 56 83 bc 39 d7 55 bd
       -0.0401436 0.030350035 -0.016032625 -0.052207205
000330 14 e9 a5 bc 6c b1 a0 3b 81 d7 7c 3c 5c c2 48 bd
       -0.020252742 0.004903963 0.0154322395 -0.04901348
000340 43 d7 e3 39 ee d8 be bd 90 1d 6e bd 7b ce 1b bd
       0.00043457196 -0.0931872 -0.05813366 -0.038038712
000350 1a 75 7a 3d 25 7d 6e 3d ab 1a ac 3d 97 3d d7 bb
       0.061146833 0.058224816 0.08403524 -0.0065686214
000360 c3 e8 db 3b c0 c7 ce bc 96 ff 17 bd 3c d7 3a 3d
       0.006711097 -0.025241733 -0.03710898 0.04561542
000370 b5 72 06 bd a7 dd 04 bd bd 97 86 bc 1c 73 68 3c
       -0.032824237 -0.032437947 -0.016429776 0.0141876
000380 6d ea 30 3d 0f 75 f9 bc 09 cc b9 bc 1a 7d ae 38
       0.043192316 -0.030451326 -0.0226803 8.3202685e-05
000390 dc 3a 53 ba 42 0a 63 3c e0 de 4a bc 0d 73 1b bd
       -0.0008057782 0.013857426 -0.012382239 -0.037951518
0003a0 13 7d 28 3d b6 72 71 3d c9 b5 30 3c ea 99 e6 bc
       0.041134905 0.058947287 0.010785528 -0.028149564
0003b0 81 a3 f5 ba 9b 32 3f 3b 5d f2 77 3c 70 fd 34 3d
       -0.0018740745 0.002917445 0.0151334675 0.04418701
0003c0 3e dd 5b 3c 42 49 5a 3d ff 4d 8d bc 43 9b 17 bd
       0.0134194475 0.05329252 -0.017249105 -0.037013303
0003d0 be c7 09 bd 48 0e 55 bd 02 92 f0 bb 45 6f 08 3d
       -0.033637755 -0.052015573 -0.0073416242 0.03330924
0003e0 e4 da 21 3d 89 68 4a 3c ff 9b 23 bd 1f 3d bb 3a
       0.03951539 0.012354025 -0.03994369 0.0014285183
0003f0 32 fe 5a 3c 36 13 fd 3c b1 0d 59 3d aa d0 62 bd
       0.013366269 0.03089295 0.052991573 -0.05537478

cnn.4.bias f4 [64]
000000 ac eb 72 3d 76 ee 5e bd 3b 9b b1 3c 1a 3d 92 bc
       0.059306785 -0.054426633 0.021680465 -0.017851401
000010 15 cb f1 3c a9 6d d3 3c 91 b5 8b bc 33 40 fe 3c
       0.029515782 0.025809126 -0.017054351 0.031036472
000020 22 72 0e bc 9f 05 01 bd de f2 c9 bc a4 85 88 bd
       -0.008694204 -0.0314995 -0.02465194 -0.06666115
000030 26 c0 80 3d ab a6 d2 bd 86 d4 df bd 77 a8 1a bd
       0.062866494 -0.10285696 -0.109292075 -0.037758317
000040 1d fc 89 bc de 2c 79 bc 4e 6e 16 3d 39 c4 20 3d
       -0.01684385 -0.015208451 0.03672629 0.039249633
000050 14 7a 17 3d cb 37 c8 bd da ef c0 3b e5 6c bc 3c
       0.036981657 -0.09776267 0.0058879675 0.023001144
000060 37 43 a6 bd d0 31 39 bd 04 f7 91 bc 4c 26 d9 3a
       -0.08118289 -0.04521352 -0.017817982 0.00165672
000070 52 3c 2e 3d 31 e5 2c 3d 47 05 88 3d 1f 06 e4 3c
       0.042537995 0.04221076 0.066416316 0.02783495
000080 5b 5b 28 3d 32 dc 66 3c 34 cf 6a bd bf a1 35 3d
       0.04110275 0.014090585 -0.05732651 0.044343706
000090 16 99 e4 bb 5b 3d ff bc e6 1b 71 bd f9 7c 5e 3d
       -0.006976257 -0.031157186 -0.058864497 0.054318402
0000a0 57 b7 36 3c 5c bc f4 3b db 9b b0 bd e8 9e 88 bc
       0.01115211 0.0074687432 -0.08623477 -0.016677335
0000b0 4b c9 cc bc bb ab 4c 3d 0a cf 8b bd 7e 49 de bc
       -0.024998328 0.049968462 -0.06826599 -0.027134653
0000c0 3b b2 21 bd 3e 97 6b bd 8e ff 6f bc 25 c8 6e bd
       -0.039476614 -0.057517283 -0.014648331 -0.05829634
0000d0 c7 1e 0f 3d a7 26 04 3c e3 e9 ac bd b8 dc 43 bd
       0.03494146 0.008065856 -0.08443048 -0.047817916
0000e0 98 2f 74 3b 2d ab 3f bd 52 09 e8 bd ff 2d 4f bd
       0.0037259813 -0.046794105 -0.11329903 -0.050580975
0000f0 2a 7b 90 3c 19 43 9a bd 01 05 15 3d ab b6 67 3d
       0.017636854 -0.07532329 0.036381725 0.05657069

cnn.8.weight f4 [128, 64, 3]
000000 7f e2 86 3d 4d 97 8b 3d dd 91 36 bd ca a7 21 bc
       0.065861695 0.06815968 -0.0445727 -0.009866664
000010 67 a6 28 3d ee c4 3d bc d4 6f 1e bd 58 ec f7 bc
       0.04117432 -0.011582596 -0.038680866 -0.030264065
000020 05 0d 59 3c d7 91 58 bd 56 ad ae 3c b0 22 83 bd
       0.013247733 -0.05287346 0.021322887 -0.064031005
000030 01 22 0f 3d 08 bf 8d 3c 63 3b 99 3c 83 8c 01 b8
       0.034944538 0.017303005 0.018705076 -3.088686e-05
000040 88 7a e4 3c 57 78 75 3d b3 2d 91 3c 92 2f 4a bd
       0.027890459 0.05992922 0.017721986 -0.049361773
000050 5d 91 a8 bc 38 0e 19 3d 7c 46 e4 bc 5a 36 0d bd
       -0.020577127 0.037367076 -0.02786564 -0.03447566
000060 cf ae 6a bd 8f 23 11 bd 6d 06 50 3c b9 27 7f bd
       -0.057295617 -0.035434302 0.0126968445 -0.06229374
000070 08 db 01 bd 11 63 7c 3d c6 e0 1e bd ae ef fe bc
       -0.031703025 0.061617915 -0.03878858 -0.031120148
000080 33 a5 79 3c b1 3d 40 bd 41 d9 07 bd 0e 34 30 bc
       0.0152371405 -0.046933834 -0.033166174 -0.010754598
000090 be bf 4c bc 62 6f 4d bd d6 fb bf 3c 35 c1 3d bd
       -0.012496887 -0.05015505 0.023435514 -0.046326835
0000a0 b6 bb 89 3b d2 4b 77 bc 1c 94 f3 3b 75 11 3b bd
       0.004203285 -0.015093761 0.0074334275 -0.045670945
0000b0 5b 0f ac bd f8 9e c8 bc 1f 93 01 3d 79 5f 45 3c
       -0.08401366 -0.024489865 0.031634446 0.012046688
0000c0 97 0e 2e 3d ef ca 1c 3d 21 db 33 bd cf 2d b7 3c
       0.042494383 0.03827947 -0.04391015 0.02236071
0000d0 3a 51 69 bd 64 27 a3 bc 58 c5 55 bc 1e c2 1b bc
       -0.05696223 -0.019916244 -0.013047539 -0.00950673
0000e0 68 46 53 bd 2c 8a e5 3c d8 5a 84 3d b4 2e c4 bd
       -0.051580817 0.028019987 0.064626396 -0.095792204
0000f0 14 38 51 3d 15 57 c0 3c 59 bf 5d bc 60 1c 2d bd
       0.05107887 0.023479024 -0.01353439 -0.04226339
000100 67 0a a3 bc 8d c6 95 bc d8 81 de bc 2d 23 e1 bb
       -0.019902421 -0.018283153 -0.027161524 -0.0068706484
000110 c4 35 58 bc a7 49 71 3d 56 9b 7c 3d 24 d9 3e bd
       -0.0131964125 0.05890813 0.061671577 -0.0465938
000120 d1 42 3b bc 05 a2 38 3c 8a 99 f9 bc 37 82 61 bd
       -0.0114295045 0.011269097 -0.030468721 -0.055055823
000130 4c 8f 56 bc 56 f2 d5 bb fc ec fc bc b3 7e c2 bc
       -0.013095688 -0.006529133 -0.030874722 -0.023742056
000140 8d 9c 6e bc 7e 95 26 3d a4 1f 28 bc 1b b5 18 3d
       -0.014563692 0.04066991 -0.01026145 0.03728209
000150 3d bd 30 3b 36 d4 35 bc de 34 87 3c da 0a b9 bc
       0.0026968264 -0.011097958 0.016504701 -0.022588182
000160 b1 c7 6b bd 5e 83 45 bd 59 e2 55 bd 08 a2 85 bc
       -0.057563487 -0.048220985 -0.052217815 -0.016312614
000170 50 1d 55 bd d1 88 2c bc a5 92 66 bc 1f e4 af 3c
       -0.052029908 -0.010530666 -0.014073049 0.021471081
000180 99 80 47 3c 0a d0 47 3c 8d 5b 01 3c 36 72 07 bc
       0.012176656 0.0121955965 0.007895363 -0.008266976
000190 8f 95 14 bd 95 f6 5f bd bf a0 81 bd 33 46 03 bb
       -0.036275443 -0.05467852 -0.06329488 -0.0020030856
0001a0 36 8f 52 bc 06 2e 63 3c e4 e7 38 3c 06 98 39 3d
       -0.012851527 0.013865953 0.011285756 0.045310996
0001b0 4e fa 17 bc a6 29 19 bc 68 4c fa 3c a9 8b 51 bd
       -0.009275986 -0.009348309 0.030554011 -0.05115858
0001c0 9f f1 09 bd 14 8d 5d bd 75 04 62 bd 9b 10 33 3d
       -0.033677693 -0.05408962 -0.05518003 0.043717008
0001d0 53 9b 0e 3d e0 14 3a bc 69 89 ee bb a6 fe 66 bd
       0.034816097 -0.011357516 -0.007279564 -0.056395195
0001e0 f4 11 a8 3a 5d 17 6b bd de d0 22 3d 04 73 89 bd
       0.0012822733 -0.057395328 0.039749973 -0.067113906
0001f0 5e c5 1e bc 4e 98 5d 3d d1 fd 94 bc d2 29 12 bd
       -0.009690611 0.054100327 -0.018187435 -0.035684414
000200 d0 08 c4 3b ae 3d f0 bc 31 e2 ea 3c db 7d 9f 3c
       0.005982496 -0.029326286 0.02867231 0.019469192
000210 7d 32 c6 3c ef fa eb bc 2f d8 5b 3d b0 09 e7 3c
       0.024193997 -0.028806178 0.053672966 0.028202862
000220 93 ec 34 bd e5 e4 4a bd 12 9d 66 3b d4 33 96 3c
       -0.044170927 -0.049534697 0.0035188836 0.01833526
000230 0b 67 28 3c 82 b9 0a 3d 38 55 2d 3d b6 22 4a 3d
       0.010278474 0.03386832 0.0423176 0.04934951
000240 a0 41 1f bc ee 6c 08 3c ca fa ef 3c 49 2f 33 3d
       -0.009720236 0.008326752 0.02929439 0.043746267
000250 bd 61 a3 3c 08 55 b0 3d db 04 5b 3d 8a 89 5a 3d
       0.019944066 0.086099684 0.053471427 0.053353824
000260 54 43 19 bc d2 4c 93 bc 99 8b 59 bc 97 8a 3d bd
       -0.009354431 -0.017980967 -0.013277912 -0.046274748
000270 70 e4 3c bb 3e 1b 1b 3d 7b ac e4 3b f0 86 bf bc
       -0.0028822683 0.037867777 0.006978569 -0.023379773
000280 4b 8b c1 bb fa a0 00 bd 3a a4 49 bd 9a 46 27 bd
       -0.0059064976 -0.03140352 -0.049228884 -0.040838815
000290 1f a2 95 bd 3b 8b aa 3c 2e 3a ab 3d 71 7e 1a 3c
       -0.07306313 0.020818343 0.08360706 0.00942956
0002a0 7a 52 62 3d fc 00 26 bd 44 5a de 3b 12 33 1c bd
       0.055254437 -0.040528283 0.006785663 -0.038134642
0002b0 4b 0f c8 3c 1c cc 5e bd a6 07 be bc 4d 7d 78 bd
       0.024421355 -0.054393873 -0.023197006 -0.06066637
0002c0 d8 d0 ab bc 2c 48 2b bd 98 f1 f2 bb 1c dc e3 3b
       -0.020973608 -0.041816875 -0.007414054 0.0069537293
0002d0 99 61 af bc 02 7e 20 bd 99 47 bc 3c 9b aa 19 3c
       -0.021408843 -0.03918267 0.02298336 0.009379054
0002e0 73 0f 92 3c c8 b0 d0 bb 5d 28 66 bb 36 a5 0b bc
       0.017829632 -0.00636873 -0.0035119273 -0.008523276
0002f0 42 f3 43 3d 1c 3b 3e 3d 1c 5c 10 bd 13 b3 82 bc
       0.04783941 0.04644309 -0.035244092 -0.01595453
000300 5c 21 ca 3b 92 06 46 3d 28 61 74 3c 50 ca 34 3d
       0.0061685275 0.04834611 0.014915742 0.044138253
000310 ed 77 89 3c a2 99 ea 3c 64 83 50 bd 3f cf 05 bd
       0.016780818 0.028637711 -0.050906554 -0.03266835
000320 42 7d 89 3c 0c db f8 bc c3 33 0c bd 7f 1e 0d bc
       0.01678336 -0.030377887 -0.03422905 -0.008613228
000330 4b 05 2b 3d b1 2d 47 3d fa f1 a7 3b c1 c0 2b bc
       0.041753095 0.04862756 0.0051252814 -0.010482968
000340 c3 e7 4c 3c 2c a8 f1 bb f6 40 5b 3d 8e 4f 87 3b
       0.012506428 -0.007374784 0.05352875 0.0041293567
000350 be d9 bb bc a7 ac 62 b6 f7 1b 3e 3c 3c ed 83 bb
       -0.022930976 -3.3777121e-06 0.011603347 -0.0040260833
000360 a7 fd 48 bc fd 4c 60 3d cd 63 4e bd bb 14 09 3c
       -0.012267507 0.05476092 -0.050388146 0.008366759
000370 c2 bc ec 3c a9 bd 77 3b 76 4b d0 3b ef 33 da 3a
       0.0288986 0.0037802255 0.006356652 0.0016647557
000380 17 35 4d bb 29 53 ca bb 59 ce 43 bc e5 aa 00 bd
       -0.0031312162 -0.0061744642 -0.011951053 -0.031412978
000390 f0 c4 d4 3c 82 e4 5e 3c be 72 8d bc f6 e3 01 bc
       0.025972813 0.013604285 -0.017266627 -0.007927885
0003a0 05 8f 40 ba ea e3 23 bc 5f 88 17 bd 87 f1 28 bd
       -0.00073455303 -0.010003069 -0.036995288 -0.041245963
0003b0 fb ee f1 3c 9c 63 11 3d 07 20 6c 3d e4 49 75 3d
       0.0295329 0.035495386 0.05764773 0.05988492
0003c0 f5 55 fd 3c 9e 2b 82 3d 29 df 34 3b 7a f7 86 3b
       0.030924777 0.063559756 0.0027598834 0.004118857
0003d0 88 06 16 bc f0 5e 65 3d 8e c9 35 bd 7a ec ff bb
       -0.009156831 0.055998743 -0.04438167 -0.0078101726
0003e0 17 a7 4b bd a8 42 d6 3c ea d2 00 3d 6e 44 76 3b
       -0.049719896 0.026154831 0.031451143 0.0037577408
0003f0 70 33 e7 bb 07 4f b6 3c f6 4c 9a 3b 5b 10 9a 3c
       -0.0070556924 0.02225448 0.0047088815 0.018806627

cnn.8.bias f4 [128]
000000 f5 2f ed 3c f5 97 62 bd eb 22 12 3d 3d 47 a2 3c
       0.028953532 -0.0553207 0.03567783 0.01980936
000010 70 f7 4f bd 45 9d 5e bb 74 e2 11 bd 7c 04 93 3c
       -0.050773084 -0.0033968252 -0.035616353 0.017946474
000020 b1 90 15 3d 46 58 af bd 7c c6 18 bc 60 8c 71 3d
       0.03651494 -0.08561759 -0.009324666 0.058971763
000030 39 97 27 ba db 66 31 bd 49 16 e5 3b 7d 9d 49 3d
       -0.00063930784 -0.04331098 0.006991182 0.04922246
000040 9d c2 b3 bd 44 d3 4c 3d 2a 88 9d 3b f2 67 79 3b
       -0.08777354 0.050006166 0.004807492 0.003805634
000050 e1 26 9c bd 93 bb 74 bd 8d a9 af bd 64 14 16 3d
       -0.07624603 -0.059749197 -0.08577261 0.03664054
000060 74 21 43 bc 3b 6a 23 bd 9b 33 75 bd 9b 1e ca 3c
       -0.011909831 -0.03989623 -0.059863668 0.024672797
000070 65 de 92 bd e4 ff 3c bd ec 77 9c bd fd bd 8e bc
       -0.07171325 -0.046142474 -0.07640061 -0.017424578
000080 45 5b f3 bc 9e 27 0b bd c0 0d 92 3d 82 53 a0 bd
       -0.029706607 -0.03397333 0.07131529 -0.07828428
000090 61 b7 6c 3d 76 e1 c7 3c 19 29 08 bd 83 55 d2 37
       0.05779207 0.0243995 -0.03324232 2.507377e-05
0000a0 f7 cb 54 3d 4b c2 4c 3c c4 48 9f bb e8 45 7c b8
       0.05195233 0.012497495 -0.0048609693 -6.0146587e-05
0000b0 7b 6c c5 bc 95 21 5e bd ab 82 74 bd 2a 63 01 3d
       -0.02409958 -0.054231245 -0.059694927 0.03158871
0000c0 8e 9a 73 3d 5e 4a 2f bc db af b2 3c 0c 05 7e bd
       0.059473567 -0.010698883 0.02181237 -0.06201653
0000d0 45 8b 19 3b b0 de 88 bd 0c df 22 bd fb 67 14 3c
       0.0023428958 -0.06683099 -0.039763495 0.009057994
0000e0 cd 75 8a 3c 7e 1c 3d 3d 95 de 06 3d 9b 02 49 3d
       0.016901875 0.04616975 0.032927115 0.04907475
0000f0 e7 bd 0f 3a 98 19 6d bc c1 d3 07 3d 1b e0 00 bd
       0.0005483315 -0.014471434 0.03316093 -0.031463724
000100 d5 f5 02 3d 9b 69 b3 bc bd d3 f8 bb 54 d0 60 3c
       0.031972725 -0.021900943 -0.0075936005 0.013721544
000110 81 67 ed 3c ba c0 81 3c 1b 21 fd 3c 06 a2 8e 3d
       0.028980019 0.01583897 0.030899575 0.06964497
000120 c8 bf 1c 3d 33 da 58 3c 73 38 41 bd 6b 16 2c 3d
       0.038268834 0.0132356165 -0.047172975 0.042013567
000130 cc 94 4d bd 9e 87 60 bc 61 ad cb 3a fa ba 55 3c
       -0.050190732 -0.013704209 0.0015539342 0.013045067
000140 e0 42 25 3d f1 9e ac bc 97 3d d7 3c 31 f5 74 3c
       0.04034698 -0.021071883 0.026274486 0.014951036
000150 90 5f 34 bd 77 ff ce bc 32 54 98 bc 46 22 20 bd
       -0.044036448 -0.0252683 -0.018594835 -0.039095186
000160 79 75 c7 3c f0 d3 00 3c 2a 17 39 3c 4a ff 59 bb
       0.024348008 0.00786303 0.011297027 -0.0033263736
000170 11 65 b4 ba 63 36 46 3c 26 28 87 39 82 73 9a bb
       -0.001376303 0.012097928 0.0002577912 -0.0047134766
000180 2c 6a d8 3b 54 ed 1c 3c 80 2d 81 bc d2 96 e5 3c
       0.0066044535 0.009578068 -0.015768766 0.028026018
000190 c6 bd 02 bd c4 52 85 3d fe 1a 77 3d ec 56 09 bd
       -0.031919263 0.06509927 0.060328476 -0.03353016
0001a0 73 39 a5 bc 0d ea 06 3d 66 31 c4 3c 7c f6 3a 3c
       -0.020168995 0.032938052 0.023949336 0.0114113055
0001b0 0e 54 7c 3d af a6 ef b9 26 b9 a3 bd 81 a1 04 bc
       0.0616036 -0.0004570982 -0.07994299 -0.008095146
0001c0 e4 21 29 3d d3 37 31 bc c2 5e bb 3c c3 f5 d4 bb
       0.041292086 -0.010816532 0.022872332 -0.0064990236
0001d0 3e fc 91 bd b0 df aa 3b b4 34 89 bc 40 e4 de 3b
       -0.071281895 0.005214654 -0.016748764 0.006802112
0001e0 0f 4a b4 bc fa c5 35 3d d5 8e 84 bc 06 53 87 bc
       -0.02200797 0.04437826 -0.016181389 -0.01651908
0001f0 78 7d d7 bd 3c da a6 bd 9a 03 0e be 7f 19 09 bd
       -0.10521978 -0.08147094 -0.13868561 -0.03347158

layer_norm.weight f4 [128]
000000 8a 7e 7b 3f 7a 7e 79 3f 21 93 7b 3f 5e 98 7c 3f
       0.9823996 0.9745861 0.98271376 0.98669994
000010 6b 87 7d 3f 6c bc 79 3f 2e 38 7f 3f 82 76 7d 3f
       0.99034756 0.97553134 0.996951 0.99008954
000020 24 0d 7d 3f cb ce 7c 3f bf 83 7d 3f 43 73 7e 3f
       0.98848176 0.9875304 0.99029154 0.99394625
000030 f9 67 79 3f db df 7c 3f a6 cf 7d 3f b8 46 7e 3f
       0.97424275 0.98779076 0.9914497 0.9932666
000040 32 2f 7c 3f f8 0d 7e 3f 42 44 79 3f dd 5a 7d 3f
       0.98509514 0.99240065 0.9736978 0.9896677
000050 89 5d 7d 3f 56 e4 7e 3f f9 fa 7b 3f c8 6e 7b 3f
       0.9897085 0.99567163 0.9842983 0.98215914
000060 82 42 7d 3f 35 80 7d 3f de ee 7b 3f ad a6 7b 3f
       0.9892961 0.99023753 0.9841136 0.983012
000070 ba 5e 7f 3f 08 45 7a 3f 86 68 7d 3f 62 81 7a 3f
       0.99753916 0.97761583 0.98987615 0.9785367
000080 d4 02 79 3f 17 cd 79 3f 40 5b 7e 3f f1 bd 7b 3f
       0.9726994 0.9757857 0.99357986 0.983367
000090 84 1c 7d 3f 3a 84 78 3f fc bb 7c 3f 24 02 79 3f
       0.98871636 0.9707676 0.9872434 0.9726889
0000a0 73 13 7d 3f 44 01 7d 3f 45 d1 7d 3f 97 89 7e 3f
       0.988578 0.98830056 0.99147445 0.99428695
0000b0 45 99 7b 3f 5e bb 7c 3f 85 e8 7d 3f 17 16 79 3f
       0.98280746 0.987234 0.9918292 0.9729933
0000c0 66 b5 7f 3f c3 54 7a 3f ca e1 7e 3f e0 ac 7b 3f
       0.9988617 0.97785586 0.99563277 0.9831066
0000d0 50 49 7b 3f ac 0c 7b 3f e5 ef 7a 3f 14 b5 7b 3f
       0.9815874 0.9806621 0.980223 0.9832318
0000e0 62 f5 79 3f 9a bc 7d 3f 64 d2 7b 3f f3 84 7d 3f
       0.9764005 0.9911591 0.98367906 0.9903099
0000f0 0f 4d 7a 3f f5 ec 7b 3f d8 7c 78 3f c5 a5 7c 3f
       0.9777383 0.9840844 0.97065496 0.98690444
000100 ec f4 79 3f f1 98 7d 3f ce 9e 7e 3f 0a 23 7b 3f
       0.97639346 0.99061495 0.99461067 0.9810034
000110 ee a9 7c 3f 71 d7 7b 3f 20 47 7b 3f b3 be 7e 3f
       0.9869679 0.9837561 0.98155403 0.99509734
000120 be 69 7d 3f 5d 49 7b 3f ee d4 7c 3f 38 39 7a 3f
       0.98989475 0.9815882 0.98762405 0.9774356
000130 f3 ca 7d 3f d0 9e 7d 3f 0a 13 7a 3f 5c 84 7d 3f
       0.991378 0.99070454 0.976853 0.9903009
000140 16 01 74 3f 40 7c 77 3f fd f4 7d 3f 7a 90 7d 3f
       0.95314157 0.96673965 0.9920195 0.9904858
000150 e4 de 7c 3f 10 88 7a 3f db 3c 7e 3f c0 5e 7f 3f
       0.98777604 0.97863865 0.9931161 0.9975395
000160 34 f7 79 3f 6f 88 7e 3f fc 5c 7e 3f e2 8e 7c 3f
       0.9764283 0.9942693 0.9936063 0.9865552
000170 6e 76 7e 3f dd cf 7c 3f 65 39 7c 3f 6a 6a 7e 3f
       0.9939946 0.98754674 0.9852508 0.99381125
000180 c0 bc 7d 3f a6 51 7d 3f 3d 39 7c 3f 66 ad 7b 3f
       0.99116135 0.9895271 0.9852484 0.9831146
000190 e1 fb 7c 3f 41 cb 7d 3f 13 f0 7d 3f 31 51 7e 3f
       0.98821837 0.99138266 0.9919445 0.9934264
0001a0 be 93 7a 3f 0d 6e 7b 3f c4 0c 7c 3f a7 b2 7d 3f
       0.97881687 0.982148 0.9845698 0.99100727
0001b0 da 61 7d 3f 5f 06 7b 3f 4c 6b 7f 3f 74 89 79 3f
       0.98977435 0.98056597 0.997731 0.9747536
0001c0 ce ac 7a 3f ec c0 7e 3f af af 7d 3f 80 7c 7e 3f
       0.9791993 0.99513125 0.99096197 0.9940872
0001d0 e2 d1 7d 3f e6 f7 7b 3f 7b a6 7e 3f 31 43 7d 3f
       0.9914838 0.9842514 0.9947278 0.9893065
0001e0 0e b4 7f 3f 2c de 78 3f 71 1e 7f 3f 8b d9 7c 3f
       0.99884117 0.9721401 0.99655825 0.98769444
0001f0 18 a7 7c 3f 27 64 7c 3f 84 21 80 3f 65 43 79 3f
       0.98692465 0.9859032 1.0010228 0.9736846

layer_norm.bias f4 [128]
000000 9a 4a c6 3a 56 02 8b ba c4 60 7d 3a d7 5c b8 3b
       0.0015128434 -0.0010605555 0.0009665603 0.0056263017
000010 57 61 26 bb 5e 64 cc 39 3d cc c7 bb 54 1b 98 3b
       -0.002538761 0.00038984691 -0.006097345 0.0046419296
000020 fc 53 b4 3a 2c 0c 97 bb 1b be 09 bc e6 97 a0 3b
       0.001375794 -0.0046096053 -0.008407141 0.00490092
000030 46 9e 63 3b 77 9c 8c ba 39 d2 6a 3a ab 75 78 3b
       0.003473179 -0.0010727783 0.0008957717 0.0037911932
000040 f4 86 e1 bb d3 39 0f 3b 72 43 52 3a d6 85 c7 3b
       -0.0068825427 0.0021854534 0.00080209144 0.0060889525
000050 e5 05 71 bb 0a 7d 18 bb f7 15 76 bb 05 9b 52 bb
       -0.0036777195 -0.0023267888 -0.0037549713 -0.0032135856
000060 71 50 d1 3b 77 98 38 3b 1b 04 f1 ba cb 21 f3 ba
       0.006387763 0.0028167048 -0.0018388064 -0.00185495
000070 15 40 8c 39 de 5d d9 ba 27 af ee ba a0 28 5a bb
       0.00026750626 -0.0016583761 -0.0018210158 -0.0033288375
000080 e4 f7 92 39 64 07 66 ba 1f 94 0e 3c a2 a0 9f bb
       0.00028031983 -0.0008774905 0.008702307 -0.004871444
000090 44 8c 9f 3b 1f 1f 96 ba 6d 26 fe ba 27 a2 63 3b
       0.004869016 -0.0011453367 -0.0019390114 0.0034734102
0000a0 e5 31 35 3b db 50 1d 3c 9e 1e fd bb b6 cb b9 bb
       0.0027648148 0.009601797 -0.007724597 -0.005670036
0000b0 39 60 c9 bb 55 a2 25 bc 97 be 11 3a 5c ac 32 3a
       -0.006145504 -0.010109504 0.0005559711 0.00068158447
0000c0 30 f8 64 3c f1 32 14 3a 75 85 35 3c ac f1 76 bb
       0.013975188 0.0005653343 0.011079182 -0.0037680669
0000d0 ac 9b b4 3b ed 3e 24 bb 97 25 e0 39 cb 31 00 bb
       0.0055117216 -0.002506192 0.00042752616 -0.001956093
0000e0 ab fd 70 3b 0c 46 e0 3b 46 60 2c 3a 50 f9 b8 3b
       0.0036772292 0.0068442877 0.0006575625 0.0056449547
0000f0 e7 5e 81 3b 1e 84 bf b8 7d 33 1f 3a 68 5b 4d bb
       0.003948081 -9.1321985e-05 0.0006073041 -0.0031335
000100 95 6d 51 bb 81 a2 92 b9 64 89 39 bb 77 80 4c bb
       -0.0031956185 -0.00027968365 -0.002831065 -0.00312045
000110 54 9a cb ba 16 20 c7 3b 94 57 76 3b ba 8e 1c 3b
       -0.0015533664 0.006076823 0.0037588822 0.0023888783
000120 ca 33 a2 3b b7 c1 dc ba c0 4c 18 bb c6 38 09 bb
       0.0049500214 -0.00168424 -0.0023239106 -0.002093838
000130 32 49 b4 3b 06 fe 56 bb cc b3 a5 bb 89 83 5e 3b
       0.0055018896 -0.0032805218 -0.005056834 0.0033952913
000140 7e b4 0c 3b 38 fe 07 3b 1d 7e c7 3b 29 2b 03 bb
       0.0021469886 0.0020750891 0.006088032 -0.002001474
000150 9c 47 bb bb 8f 81 ef b9 19 3f fb ba 01 c9 36 3c
       -0.0057153236 -0.0004568216 -0.0019168585 0.0111563215
000160 56 79 33 bb 7f e0 e5 bb a0 72 fc 3b c2 34 30 bc
       -0.0027385554 -0.0070152874 0.007704094 -0.010754766
000170 98 0b 79 bb 77 f3 96 3b 20 3c 9f 3a 8e 67 10 bb
       -0.0038001295 0.00460666 0.0012148656 -0.002203438
000180 92 f7 e5 3b ce a9 68 bb 9c 33 9f b8 a9 ea 9d 3b
       0.007018038 -0.0035501602 -7.591324e-05 0.0048192334
000190 73 7a 66 ba 5e 28 d7 3b d8 5d 8e 3b 44 10 eb bb
       -0.000879205 0.0065660914 0.004344683 -0.00717357
0001a0 a5 41 2f 3b cf 0b 8a ba 0a ec d1 3b ac 28 e7 bb
       0.0026742008 -0.0010532084 0.006406312 -0.007054409
0001b0 22 26 86 3b 75 90 f2 bb 7f 4a 2c 3a 0b 38 d5 3a
       0.0040939013 -0.0074024745 0.000657238 0.0016267312
0001c0 20 44 a1 bb 44 1d 06 3a e0 30 ca b9 e8 98 35 3c
       -0.004921451 0.0005116055 -0.00038564857 0.011083819
0001d0 09 4a 4e bb 9b b0 5a bb ce 2e 38 3c 32 f5 0a bc
       -0.0031477234 -0.0033369425 0.011241628 -0.008481311
0001e0 1c 34 dd ba 3b 23 d0 39 c3 48 50 bb dd b5 71 3a
       -0.0016876492 0.000396991 -0.003178165 0.000922052
0001f0 dc 00 4f bc ea 24 15 bb 0e cd 2b bc 71 3f 73 3b
       -0.012634482 -0.0022757598 -0.010485901 0.0037116671

lstm.weight_ih_l0 f4 [256, 128]
000000 c8 6b 83 bd b4 57 43 3d f1 12 5c 3d c1 b6 27 3d
       -0.06417042 0.047691062 0.053729 0.040945772
000010 13 0f 28 3d ff 6d 3f bd 44 cd 81 bd 1b de 96 3d
       0.04103 -0.04673576 -0.063379794 0.07366582
000020 24 42 a0 bd 13 8a 98 bd 45 22 4d 3b d1 d5 8f 3c
       -0.07825115 -0.074482106 0.0031300944 0.01755801
000030 00 aa e2 bd 56 71 aa bc 75 f8 05 3d 37 99 97 3a
       -0.11067581 -0.020805996 0.03270765 0.0011566047
000040 a2 7e 31 bd 59 d8 72 bd 15 d2 89 3d 6e cc ac bd
       -0.043333657 -0.059288356 0.06729523 -0.08437429
000050 1f 2b 63 bd 27 a5 a2 bd bd 39 8f 3d f7 1c c0 bb
       -0.055461045 -0.079416566 0.069934346 -0.005862828
000060 9f e1 38 bd 13 c8 a2 3d 6c fd 85 3d 86 cb 8a 3d
       -0.045137044 0.079483174 0.06542477 0.067771
000070 c9 a8 ab bd c0 6d 4a 3c 82 8a 50 bd b1 f5 f9 bd
       -0.083818026 0.012355268 -0.05091334 -0.12205065
000080 54 bf e7 3d 0a d0 4f 3d 00 3b 36 3d d7 d0 d3 bd
       0.1131579 0.05073551 0.04448986 -0.103425674
000090 a1 55 83 bc af 69 8d bd 97 63 cd bd 6b 1c d1 bd
       -0.016032042 -0.06904923 -0.10028761 -0.102104984
0000a0 9b d9 03 bd a0 30 18 bc d1 8d 72 3d f4 8f 44 3d
       -0.032189947 -0.009288937 0.059217278 0.047988847
0000b0 97 a6 5a bd 54 7e ab 3c fd aa ec 3c cb 0c df bd
       -0.05338153 0.020934261 0.028890127 -0.10891112
0000c0 06 b6 6a 3d 38 51 83 3d 61 ea 53 bd 2d d4 a3 3b
       0.057302497 0.064119756 -0.051737193 0.0049996586
0000d0 43 73 75 3d 03 f7 f4 bd bb 2a d7 bd f4 cc 00 be
       0.059924375 -0.11961176 -0.10506197 -0.12578183
0000e0 d5 f1 46 3d cf e9 21 bd 7a 0e 3b 3d 23 4c 45 3d
       0.048570473 -0.039529618 0.045668103 0.048168313
0000f0 f9 c5 96 bd c4 2c 16 bd 83 80 be 3b 43 8b 35 3c
       -0.07361979 -0.036663786 0.0058136596 0.011080566
000100 c6 7f c3 bc 83 e4 e1 3c ca 90 89 3c 4d 0c 39 3d
       -0.023864638 0.027574783 0.016792674 0.045177747
000110 21 9c be 3c 6e 35 b5 3d 38 11 c3 bb ce 24 ac 3d
       0.023267807 0.088480815 -0.0059529804 0.084054574
000120 43 df 48 3d bb ca da bd 96 e9 7d 3d 53 84 6c bd
       0.049041044 -0.10683199 0.061990343 -0.05774338
000130 e1 ec aa 3d 69 d8 e1 3d 3d 4f e6 bd 93 a1 22 3b
       0.08345962 0.11027605 -0.11245582 0.0024815544
000140 32 cc ed bc cb 45 dd 3d 47 7e 84 3c da 46 2e ba
       -0.029028032 0.108043276 0.016173495 -0.0006648131
000150 ec 0f e4 3d fd 53 09 3c 8f 0c 9d ba 2b 14 e1 bd
       0.11135849 0.008381841 -0.0011981892 -0.10990175
000160 ed eb 2b 3d 84 f3 9d 3d 05 e9 c0 3d 7b 8e db 3d
       0.041973043 0.077124625 0.09419445 0.10720535
000170 1f dd 1a bd d3 0f 14 bd 2e 86 9f 3d 7f ed cb 3d
       -0.037808534 -0.036147904 0.077892646 0.09957408
000180 43 77 90 3d 85 ad 8d bd f2 f2 d0 3d ea 80 83 3d
       0.07053997 -0.06917862 0.10202588 0.06421073
000190 87 24 bd 3c 1e e5 b8 3d ff f0 90 bc 83 7a f2 3b
       0.023088707 0.09028076 -0.01769304 0.0073998584
0001a0 e4 a7 1f bd d1 34 21 bc 52 ad bb bd 18 39 9b bd
       -0.038978472 -0.009839253 -0.091639176 -0.07579249
0001b0 b5 be b1 bd 79 fd bb 3d 57 4e ad bc d4 5d 5c bc
       -0.086789526 0.091792054 -0.02115552 -0.013450105
0001c0 26 3f 9e 3d 64 83 98 3d 25 0a a6 bd 58 2a 81 3c
       0.07726888 0.07446936 -0.08107404 0.015767261
0001d0 49 05 aa bd a5 c7 6d bd 23 67 66 3d f4 bd fd ba
       -0.08301789 -0.058051724 0.056250703 -0.0019358979
0001e0 c8 00 cd 3d 03 bd 87 3d 27 cc a5 bd 66 df ad bd
       0.10009915 0.06627848 -0.080955796 -0.084898755
0001f0 65 f0 c1 bd 81 d1 3a bd 6b 63 4c 3d a9 06 34 3d
       -0.0946968 -0.045609955 0.0498995 0.043951664
000200 93 9c d9 3d 51 ad de 3d 36 e7 bc 3d bb 75 4d 3d
       0.10625567 0.10872901 0.092237875 0.050161105
000210 4b aa 4f bd 72 f9 c8 3d 4a 0a d1 3d 0f 92 dc 3d
       -0.050699513 0.09813203 0.102070406 0.10770046
000220 96 bc b9 3d 64 01 e6 3d 60 12 39 3d 5d 1c f0 bc
       0.09069173 0.11230734 0.04518354 -0.0293104
000230 d0 32 35 3c 5f b7 ed bd 2d 17 4d bd af da 34 bd
       0.011059478 -0.11607241 -0.05007093 -0.044153865
000240 04 63 a0 3d da 47 82 3c c5 59 bf 3d c6 ba ba bd
       0.07831386 0.015903402 0.09343294 -0.091176555
000250 6d 38 15 bd c7 21 c3 bd 53 93 da 3d d8 16 8a bd
       -0.036430765 -0.09527927 0.10672631 -0.06742638
000260 5f 17 40 bd 47 82 05 3d d9 1d 92 3d e9 c3 36 bd
       -0.04689729 0.032594945 0.07134599 -0.04462043
000270 42 c5 dc 3d 94 4a 1b bd 8a 69 db bd 58 80 58 bd
       0.107798114 -0.03791292 -0.10713489 -0.052856773
000280 32 86 8f bc 49 fa 97 3c ca 0a 41 bd 80 ba bf bc
       -0.017520044 0.018551962 -0.04712943 -0.02340436
000290 85 86 f6 3d c6 77 f9 bc 53 6e cb 3d 6e e3 32 3a
       0.12037376 -0.03045262 0.09933152 0.0006824051
0002a0 8c 03 8b 3d 16 c5 c1 bd 76 f2 e9 3c 68 18 59 bc
       0.06787786 -0.09461419 0.028557997 -0.013250448
0002b0 96 c0 95 bd d6 52 a2 3d 67 ab af 3d 78 40 22 bd
       -0.073121235 0.07925956 0.08577614 -0.039612263
0002c0 72 5d fe 3a 7d ac cd bd a1 e9 e9 3c 50 c8 d4 3d
       0.0019406511 -0.10042665 0.028553786 0.10389769
0002d0 3e 1c 8a 3d 67 41 67 3c 48 4e 1a 3d 54 6f 70 3d
       0.06743668 0.014114714 0.03767231 0.05869992
0002e0 b5 35 bd 3d 4d eb b2 bd d3 7c 41 bd 41 d2 12 3d
       0.092387594 -0.08736286 -0.047238182 0.035845045
0002f0 70 63 d4 bc 62 7a b1 bd f2 b9 bb 3d 7e c3 3c bd
       -0.025926322 -0.08665921 0.09166326 -0.046084873
000300 28 e3 91 3c 1b 40 d1 bd 8c c8 26 bd a6 3e ca 3c
       0.017808512 -0.10217305 -0.0407186 0.024688076
000310 1a 26 cd 3d d9 3d 78 3c 35 1d 1c bd 87 49 81 bd
       0.10017033 0.015151464 -0.03811379 -0.06312852
000320 94 49 9e bd f4 6f 9a bc de 58 81 3d e9 ce 68 3d
       -0.07728878 -0.018852212 0.06315778 0.05683795
000330 c9 46 e3 ba 06 ea 92 3d 20 d8 7c 3d da d1 23 bd
       -0.0017339821 0.07173543 0.06172955 -0.039995052
000340 0b de ba 3d fb e6 2f bb f7 34 78 3b 5b 8b 67 3d
       0.091243826 -0.0026840556 0.0037873366 0.056529384
000350 58 29 b4 bc 08 a1 a2 bc f0 bb 48 3d 6b ac b4 bd
       -0.02199237 -0.019852176 0.049007356 -0.088219486
000360 25 98 8f bd 5f 12 44 3d c5 72 cf 3d 7b 4a f3 bc
       -0.07011441 0.047869083 0.101293124 -0.029698601
000370 52 56 ac bd f9 d1 5a bc 41 1b 12 bd 7d 29 ca bc
       -0.08414902 -0.013355725 -0.035670523 -0.024677986
000380 ca e9 90 3d 14 f4 4f bd 46 06 79 3d 31 e3 c4 bd
       0.07075842 -0.05076988 0.060797 -0.09613646
000390 87 2f cd 3c 25 ab c4 bd fd 25 1a 3a fa bc d3 bc
       0.025047077 -0.09602956 0.00058802945 -0.025846947
0003a0 25 33 98 bc 76 dc 9f bd 28 7d 1f 3d 61 b7 a2 3d
       -0.018579075 -0.078057215 0.038937718 0.07945133
0003b0 c0 af d4 bd fa 70 e9 bd eb 78 61 bd 88 f5 96 bd
       -0.10385084 -0.11398502 -0.055046957 -0.0737105
0003c0 ca d4 b4 bd 58 5a d1 3d a7 e6 f3 bc f9 64 cf bd
       -0.08829649 0.1022231 -0.02977307 -0.10126681
0003d0 56 cb a6 bd 42 7b 89 3d 12 09 76 3c 6b bd 85 3c
       -0.08144252 0.06712963 0.015016811 0.016325673
0003e0 3b d6 40 3c 30 85 de bd 1c c8 20 3d dc 60 89 3b
       0.0117698265 -0.10865247 0.03925334 0.0041924547
0003f0 d0 1d 15 3d 8e c4 cb 3d da fb 8f 3d 62 35 86 bc
       0.036405385 0.09949599 0.07030459 -0.016382877

lstm.weight_hh_l0 f4 [256, 64]
000000 45 6a e6 bc ed 01 1d bd 2e f9 e4 3d 86 e7 a8 3d
       -0.028126845 -0.038331915 0.1118034 0.082472846
000010 5e 4f eb bd e5 ed c5 bc f0 b0 87 3d 3b ad 8f bd
       -0.114897475 -0.024161289 0.06625545 -0.07015463
000020 cd b5 7e 3d 49 b3 11 ba 96 44 ce bd ba c9 f2 3c
       0.062185097 -0.00055580266 -0.100716755 0.029637206
000030 7c ef 7f 3d a5 49 f3 3c f3 5e d8 bd 04 66 97 3d
       0.06248425 0.029698202 -0.10564985 0.07392505
000040 5d e2 b0 bd 12 05 be bd b1 6e 03 bd 1d 66 2b 3c
       -0.08636925 -0.09278311 -0.032087985 0.010461357
000050 4f 9b 09 3d d3 a9 6d 3d 14 d5 04 be 2a dc 29 3d
       0.03359538 0.058023285 -0.12971908 0.04146973
000060 66 de 00 3d 1c 24 93 bd e8 ff bf bd 0a 38 9e 3d
       0.031462096 -0.07184622 -0.09374982 0.07725532
000070 65 cf 34 3d b0 93 ae bd d3 73 61 bd be 30 6a 3d
       0.0441431 -0.08524263 -0.0550421 0.05717539
000080 9f 9f cf bb 37 43 e1 bc fd 70 13 3b ea 8d e9 bc
       -0.006336167 -0.02749787 0.0022497766 -0.028510053
000090 e6 f2 bb 3d 74 1f e8 bc 10 69 7b bd 85 5c 9f 3d
       0.091771886 -0.02833531 -0.061379492 0.077813186
0000a0 aa e5 0b 3d e3 1e b2 bd 4f 31 c1 bd 18 5f 16 3d
       0.03415457 -0.086972974 -0.09433233 0.036711782
0000b0 12 1b a2 bd 24 a2 1c bd f7 df b2 3d 50 20 00 3e
       -0.079153195 -0.038240567 0.08734124 0.12512326
0000c0 8a 06 77 bd 7b 8e 31 3b eb fb 60 3c 11 44 99 3d
       -0.06030897 0.0027092982 0.013731937 0.07483686
0000d0 8e 96 b4 3c a4 72 fe 3d d6 71 18 bd 5f d9 e0 bb
       0.022044446 0.1242421 -0.037217937 -0.00686185
0000e0 f6 af ef 3d 65 78 41 bd c5 c2 f2 bd 40 f4 20 3d
       0.11703484 -0.047233958 -0.118535556 0.039295435
0000f0 f2 59 57 bd dc 92 6e bd 4f 22 a5 3d 0f 65 bd 3d
       -0.052576013 -0.058245525 0.080631845 0.09247791
000100 de 2c 8b 3d 1c 3e 8a 3d 26 4a b9 bd 25 ac d2 3c
       0.06795667 0.06750128 -0.09047346 0.02571685
000110 9f 66 84 3c 2e fa d3 3d 75 70 df bd 87 fb bb bc
       0.016162215 0.10350452 -0.10910121 -0.022947086
000120 bf 53 af bd fb d5 64 bd 67 f0 72 bd 81 3f 61 bd
       -0.08560895 -0.05586813 -0.059311297 -0.054992203
000130 bc f3 12 3b e3 c4 13 3d 2b 14 7d bd 41 47 c2 3d
       0.002242311 0.036076438 -0.06178681 0.09486247
000140 6e 39 81 3d b9 8f 31 bd e7 c3 8a bd df bf a6 bd
       0.06309782 -0.043349955 -0.06775647 -0.08142065
000150 cd 90 bb 3d fc a2 37 3d 99 a6 22 bd c6 e6 38 3d
       0.09158478 0.04483317 -0.03970966 0.045141958
000160 10 f0 41 bd 58 3d 90 bd 8a ba 3e 3d 48 e0 d3 bc
       -0.047348082 -0.070429504 0.046564616 -0.025863782
000170 cf 3b 98 3d e1 bd 86 3a 69 88 79 bd b9 2d 03 3c
       0.074332826 0.0010279977 -0.060921106 0.008006507
000180 45 27 9e bc d9 3c 9a 3d 19 94 03 bd 70 c3 21 bd
       -0.019305835 0.07531137 -0.03212366 -0.039493024
000190 e0 b3 15 3d 88 f0 77 3d 66 2b a3 3d 39 57 8a bd
       0.036548495 0.060532123 0.07967262 -0.06754918
0001a0 89 71 ac bc b2 3a 64 bd d1 6e 8f bc d9 ff e9 3a
       -0.021050232 -0.05572004 -0.017508896 0.0017852738
0001b0 6a a3 30 bc 3f 0c 17 3d 72 69 b8 3d 77 52 a5 bb
       -0.010781148 0.036876913 0.09004487 -0.005045231
0001c0 de e8 4d 39 6c e7 97 3d 77 a8 69 3b 5a 2a 95 bc
       0.00019637073 0.07417187 0.0035653391 -0.018208671
0001d0 f7 a3 b0 3b c9 e4 22 bd 79 09 56 bd 45 a8 2e 3d
       0.00539064 -0.039768968 -0.052255128 0.042640943
0001e0 e1 96 26 bd 1b dc 82 bd 73 b2 c3 bd 5f 5a e7 3d
       -0.040671233 -0.06389638 -0.09555521 0.11296534
0001f0 96 d2 35 bd 06 56 30 bc ba 57 e6 bc 23 dc aa bd
       -0.044390284 -0.010762697 -0.028118003 -0.08342769
000200 a2 87 4f 3d f2 d6 93 3d 30 48 ed 3c eb 53 20 bd
       0.05066646 0.07218732 0.028965086 -0.03914253
000210 f5 ff b1 bd 14 bb 7a bd 83 11 9b 3c 40 02 11 3b
       -0.08691398 -0.061213568 0.018929249 0.0022126585
000220 e4 a2 49 bd ce 05 18 bd 6f b2 3c 3c 8e 1f 3b 3d
       -0.04922761 -0.03711491 0.011517151 0.04568439
000230 73 f9 3d 3d 96 d4 9c 3c 17 e1 4d 3c 8b 1a 81 bd
       0.04638047 0.019144338 0.012565873 -0.06303891
000240 c7 a5 96 bd 49 85 85 3d 94 60 10 3d a2 8e 56 3c
       -0.07355838 0.06519563 0.035248354 0.01309553
000250 c7 43 05 bd c3 e2 89 3c 08 4b 8b bd b9 9e 4b bd
       -0.03253534 0.016831761 -0.068014205 -0.049711917
000260 1e b6 fb bc 36 2c 9b bc 71 9a a6 3b 77 ae 62 bd
       -0.030726489 -0.01894198 0.005084329 -0.055342164
000270 11 a7 42 bc 3e 96 16 3c 23 e0 16 bd 42 09 d8 3d
       -0.011880652 0.009191094 -0.036834847 0.10548641
000280 08 82 28 ba ef 93 87 3c 7d c8 88 bc 9d 40 85 bd
       -0.00064280676 0.016550032 -0.016697163 -0.06506465
000290 d2 6f b8 bd 94 e5 10 3d 33 fe 25 3d 2d 85 0e 3d
       -0.09005703 0.035375193 0.040525626 0.034794975
0002a0 0d 07 e0 bc c0 d9 b7 3d b3 49 af 3d d1 b0 67 bc
       -0.027347112 0.089770794 0.08558979 -0.014141277
0002b0 40 91 09 bd dd f7 a2 bd 6f 1a 8a bc ec 86 7a bc
       -0.033585787 -0.079574324 -0.016858308 -0.015290957
0002c0 03 16 99 3d fc bf 47 bd 69 a7 fb bc ca 92 8d 3d
       0.074749015 -0.048767075 -0.030719476 0.069127634
0002d0 dd 6e 96 3d f3 73 9a 3d 63 45 59 3d a7 52 ba bc
       0.07345364 0.07541647 0.053044688 -0.02274449
0002e0 cc 5c 87 3d 7c e3 16 bc 00 07 6b bb 88 d7 7f bd
       0.066094965 -0.00920951 -0.0035862327 -0.062461406
0002f0 96 78 b3 3b a2 d7 85 3d 3c 67 39 bd d0 44 86 3d
       0.0054770214 0.06535269 -0.045264468 0.06556094
000300 8f dc a6 3c db c7 0d 3d cd 6d 47 bd d9 6e 2c 3d
       0.020368842 0.034614425 -0.0486887 0.0420979
000310 67 da cf bc 85 78 4c 3c e0 ec 19 3d d7 6f 8c 3d
       -0.025372697 0.012479906 0.037579417 0.06857269
000320 02 74 6f bd 83 f4 97 bd 55 c1 7e 3d 29 f9 bc 3c
       -0.058460243 -0.07419684 0.062196095 0.023068028
000330 cc a7 2e 3d bc b8 6b 3b e2 59 a6 3c ae 3c 6d bd
       0.042640492 0.0035968265 0.020306531 -0.057919197
000340 bc 01 9c bd a6 41 ad 3c fc 33 26 3d 22 c9 08 bd
       -0.07617518 0.021149468 0.04057692 -0.03339494
000350 24 db 36 3d b4 d6 23 3d 08 3a 2e bd f6 2a 51 bd
       0.044642583 0.03999968 -0.04253581 -0.05106636
000360 4d 6c 02 3d 42 3c e7 3c 5e 83 33 3d bd 57 98 3d
       0.031841565 0.028226975 0.043826453 0.0743861
000370 47 71 3a 3c ee af 7f 3d 8c 24 d6 3c ce ce ee 3c
       0.0113795465 0.06242364 0.026140474 0.029151347
000380 8c c1 fd bc 5d 5c 20 3d 2a e4 45 bd 9e 12 59 bd
       -0.03097608 0.039150584 -0.048313297 -0.05299627
000390 f2 cf 66 3c 42 63 07 ba f8 e4 3a bd de dc d5 bc
       0.014087664 -0.0005164632 -0.045628518 -0.026106294
0003a0 3f c1 88 3d a2 cd ad bd f6 4e 4b 3c 4e b5 00 bb
       0.06677484 -0.08486487 0.0124089625 -0.0019639316
0003b0 c9 1e 8c 3a 44 ea d6 36 02 1e 2e 3d ac 61 5b 3d
       0.0010690327 6.404969e-06 0.042509086 0.053559944
0003c0 13 6b ae bc d4 85 7c 3d 35 c0 12 bc 3f 19 0f 3c
       -0.021291291 0.061651066 -0.008956959 0.0087340465
0003d0 ac 57 c9 3c 7a f8 9a bd 6a b6 a0 bd 82 02 0d bd
       0.024577938 -0.075669244 -0.07847293 -0.03442622
0003e0 67 12 28 3d ad 66 e2 3b 75 c4 86 3c be 0a ac bc
       0.041033175 0.0069092126 0.0164511 -0.021001216
0003f0 80 5a 2e 3b 72 dc 9d bd 83 48 01 3d 0c 48 72 bc
       0.0026604235 -0.07708062 0.031563293 -0.014787685
