checkpoints/ultra_v3_seed123_20251128_162057.pt (torch, 515225 bytes, 16 tensors)

cnn.0.weight f4 [32, 1, 7]
000000 88 2d eb bd ea 58 4e 3d bd 30 0f be 64 b4 36 3e
       -0.11483294 0.050377764 -0.13983436 0.17842251
000010 5f b2 8b be d4 97 98 3e 48 dc 7d be 7f 1d 8f be
       -0.27284524 0.29803336 -0.24791062 -0.2795219
000020 8c 21 63 be 6b 64 31 3e e3 fa 06 be 97 2b 08 3e
       -0.22180766 0.17323463 -0.13181643 0.13297878
000030 9d 84 a5 be 53 31 7a be 06 10 82 be 68 a0 2f be
       -0.32327738 -0.24432878 -0.2540285 -0.17151034
000040 28 4e b0 be 79 5e 5a 3e e9 f6 8c bd 45 9f 2c 3e
       -0.34434628 0.21325101 -0.06883032 0.16857632
000050 ad 62 ab 3e f2 3b 74 3d eb 28 ba 3d e7 ec af 3e
       0.3347372 0.05962748 0.09089836 0.3436043
000060 e3 74 33 be c0 32 d9 3d 57 17 30 be 25 d8 79 3e
       -0.17525057 0.10605383 -0.17196403 0.24398859
000070 b8 fc 31 3e d5 0a ea be 06 95 42 3e f5 c5 98 3d
       0.17381561 -0.4571139 0.1900216 0.07459632
000080 1b 17 b3 3d 68 33 d2 3d 01 02 8a 3e 54 0f cd bc
       0.087446414 0.10263711 0.26954654 -0.025031723
000090 58 58 95 be 38 1b b7 bd f0 6b 76 be 87 7f 31 3d
       -0.29168963 -0.089407384 -0.24064612 0.04333451
0000a0 31 15 46 bd 17 1c 37 be 7b df 20 bd 29 d6 a3 3e
       -0.048360053 -0.17881809 -0.039275628 0.3199933
0000b0 2d cd 6a bd 4e 25 a5 bc f3 b5 a4 bd fd 27 47 3d
       -0.057324577 -0.02015939 -0.080425166 0.04862212
0000c0 26 68 ab 3e 19 d0 74 3e ca 15 08 3e 5a e6 76 3d
       0.33477896 0.23907508 0.13289562 0.060278274
0000d0 05 56 15 3d b5 d5 6c 3d 70 71 22 be 89 80 f0 be
       0.036458988 0.057820994 -0.15863585 -0.46973065
0000e0 d5 b0 5e be fd 98 99 3e 4a 76 68 bb b7 35 ab be
       -0.21747144 0.29999533 -0.0035470896 -0.3343942
0000f0 34 7c f0 3a dd b1 6d 3e 02 02 d8 be b8 a6 63 be
       0.0018347562 0.2321238 -0.42189032 -0.22231567
000100 1e f5 e4 bd b1 76 63 3d 65 e8 1d bd 3d 37 c8 3b
       -0.11179565 0.055533115 -0.038551707 0.0061101005
000110 1a 17 9f be 96 10 4f 3e d6 d3 bf 3e b1 9e 6d 3e
       -0.31072313 0.20221171 0.37466305 0.23205067
000120 22 91 96 be 20 e3 b8 be 5f 9a 91 3d 47 11 98 bd
       -0.29407603 -0.36110783 0.07109522 -0.074251704
000130 a4 b7 ab 3d 21 f2 b7 be bb 0d b5 bc 3f 89 84 3e
       0.08384636 -0.35926917 -0.022101274 0.2588596
000140 dd 0e 31 3e 2f 64 9f 3c d3 d5 ab 3d 42 83 a4 bc
       0.17290826 0.019456951 0.08390393 -0.02008212
000150 04 cd 72 be 07 3d 1c be e9 ca 54 be 9d 19 ad 3e
       -0.2371102 -0.15257655 -0.20780529 0.33808604
000160 44 2d 80 3e 28 e6 36 3e 9a 01 72 be d6 99 75 3e
       0.25034535 0.17861235 -0.23633423 0.23984465
000170 4f c8 75 3d d0 a9 3a 3e 34 c4 54 be fc 69 93 3c
       0.060005482 0.18228841 -0.2077797 0.017994873
000180 97 0f a0 3e 18 58 6d 3e d0 b3 b3 3e c3 d1 f9 bc
       0.31261894 0.23178136 0.35098124 -0.03049553
000190 20 61 a3 3e ac 52 83 be 8a 20 11 3d 0a c0 6c be
       0.31910038 -0.2564901 0.035431422 -0.23120132
0001a0 80 9b 0d be e7 af 10 be 71 1c 01 bc 80 df 9e 3e
       -0.1382885 -0.14129601 -0.007880316 0.31029892
0001b0 fb 69 2a 3e 44 a0 9f bc 4a e5 69 3e ad 13 6d be
       0.16641991 -0.0194856 0.22841373 -0.23152037
0001c0 3b 12 7d 3e 4f 6d 2f 3c 91 de 36 bd 03 03 05 3d
       0.24713986 0.010707214 -0.04464585 0.032473575
0001d0 b9 2b 9d be b0 f9 ea bb 54 59 7e 3d a6 75 9e 3e
       -0.3069742 -0.0071708784 0.06209691 0.30949134
0001e0 55 57 df bd c0 61 f7 3d b1 09 a9 3e e1 cc 50 be
       -0.10905329 0.12079191 0.33015206 -0.20390655
0001f0 b0 e3 87 3e 89 96 89 be da b6 3a 3e 30 75 18 3e
       0.265409 -0.26872662 0.18233815 0.14888453
000200 6b 14 bf 3d a8 1c 87 3e 03 25 33 be 60 1e 66 3d
       0.09330066 0.2638905 -0.17494588 0.05618131
000210 f8 d4 2d bd e8 6c 93 be f0 e9 bf bd 3b 4d 6b be
       -0.04243943 -0.28794026 -0.09370792 -0.2297868
000220 65 93 44 3e 02 a6 a9 3d 82 aa b8 3d e9 68 87 bd
       0.19196852 0.082836166 0.09016897 -0.06611807
000230 26 32 f5 bc 08 f0 01 be ae 90 dc 3d 56 83 bb 3e
       -0.02993114 -0.12689221 0.10769783 0.3662364
000240 66 96 80 3d e7 ce 2b be ca e1 80 be a4 3c b3 3d
       0.06278686 -0.16778146 -0.25172263 0.08751801
000250 ab 07 65 be 63 56 67 be 9b 4b 31 be 39 a6 13 bd
       -0.22366206 -0.22591548 -0.17313997 -0.036047194
000260 21 44 08 3e 48 40 b9 3e 70 e5 48 3e 56 89 a5 3e
       0.13307239 0.36181855 0.19618773 0.32331342
000270 7d b5 50 be 36 30 11 3d eb d6 b2 be bb 44 10 3e
       -0.20381732 0.03544637 -0.34929594 0.14088719
000280 f0 a2 eb bc 87 a0 89 3e 57 c4 a9 be 2e b4 4e 3e
       -0.028764218 0.26880285 -0.33157608 0.2018592
000290 3d be 64 3e fe f9 66 3e b5 ff 47 3c 66 01 9f 3e
       0.22338195 0.22556302 0.012206961 0.31055754
0002a0 83 c2 a1 3e 0f f0 a9 3e 39 3c 41 3c 98 70 8c be
       0.31593713 0.33190963 0.011794143 -0.27429652
0002b0 78 a4 c9 bc e0 11 f9 3c 26 4a 99 be b4 f5 60 be
       -0.024614558 0.030404031 -0.29939383 -0.21968728
0002c0 7f 8e ac be bb 0d bc bd 3a c9 bd 3e a5 55 00 3e
       -0.33702466 -0.091823064 0.37067586 0.12532671
0002d0 f2 cc 33 3d 4f 4b a4 3d 31 ff 6e 3e 66 cd a4 be
       0.043896623 0.080221765 0.23339535 -0.32187957
0002e0 50 58 8e be c9 30 d6 bd a9 b0 2d be 0c df 80 3e
       -0.27801752 -0.10458524 -0.16961922 0.2517017
0002f0 a3 0c af 3e a0 51 b1 be 5b cf 92 be 76 e1 a1 be
       0.3418933 -0.34632587 -0.28673825 -0.31617326
000300 11 2f 44 3e 96 86 b6 3e f8 6c 5e be 26 4d d9 bd
       0.1915858 0.35649556 -0.21721256 -0.10610418
000310 2f d2 c6 3d 2a c7 85 be 0d ee 91 3e d6 cc 86 3d
       0.09708058 -0.26128513 0.2850193 0.06582038
000320 61 b2 e5 bd 17 e3 aa 3c 03 6d f3 3d ce 42 24 be
       -0.11215664 0.020860238 0.11886027 -0.16041109
000330 cb 63 9a be 0e 62 1d ba 2b 7d a0 3c db 5d 15 3d
       -0.3015426 -0.0006003686 0.019590935 0.03646646
000340 bc 6e 1a bc 15 9e 97 3e 15 ad 24 be 00 e6 ba bd
       -0.009425815 0.29612795 -0.1608165 -0.091259
000350 65 93 e1 3d 01 6e 7d be b6 33 f1 3d 8b 5e e1 bc
       0.110144414 -0.24748994 0.11777441 -0.027510902
000360 03 01 81 3e 20 9c 25 be 63 bd 38 3d fb 20 83 3d
       0.25196084 -0.16172838 0.04510249 0.06402775
000370 63 38 86 be 36 72 6f be 6e f7 2b 3e 11 53 90 bd
       -0.26214895 -0.23383412 0.16793606 -0.07047094

cnn.0.bias f4 [32]
000000 b5 16 18 3e 1a 71 c6 be 25 5b 9d bd 43 2d b5 be
       0.14852412 -0.38758165 -0.076834 -0.35386094
000010 99 3b 17 3e 04 38 0b bd 89 d0 01 bd 91 3f 4a bd
       0.14768828 -0.033988968 -0.031693015 -0.049377028
000020 ac ec 88 be e1 f4 94 3d cf ae a3 3c 3e c7 b3 be
       -0.26743066 0.072732694 0.019980816 -0.35112947
000030 82 a6 f8 3d 77 95 f0 bc 8f 15 c9 be a5 54 34 3e
       0.12141134 -0.029368145 -0.3927426 0.17610414
000040 45 fd fe 3d c8 3f 88 bd cc 8a 85 be 9f 21 0a 3c
       0.12450651 -0.0665279 -0.26082456 0.008430867
000050 96 69 5a 3e e3 66 87 3e 93 a7 86 be 44 a1 21 be
       0.2132934 0.26445684 -0.26299724 -0.15784174
000060 75 b8 71 3e fa fd 1f 3e fa 28 47 3e 8c fd 6e be
       0.23605521 0.15624228 0.19449225 -0.23338908
000070 30 79 8c 3e 29 7f ac be e8 24 04 bd ca 01 c4 bc
       0.2743621 -0.33690766 -0.03226176 -0.023926634

cnn.4.weight f4 [64, 32, 5]
000000 6e 72 9f 3b d1 a8 4e bd d9 ae 88 3d d8 74 9b 3d
       0.004865936 -0.050453965 0.066739745 0.075906456
000010 47 b2 c7 bc 69 11 71 3c 46 51 88 bc 3c 42 94 3d
       -0.024377001 0.014713624 -0.016640317 0.07239196
000020 7b 6a 3a 3d 0d e9 8b 3d 1f 6c 31 bd cd e8 d1 bc
       0.045511704 0.0683156 -0.043316003 -0.025623703
000030 d1 97 3e 3d be 28 56 bc 93 58 63 bd a8 1d 3c 3d
       0.046531502 -0.013071237 -0.055504393 0.04592672
000040 3b d6 94 3c fe 35 cb bc f5 06 b1 bc 45 9a 48 bd
       0.01816856 -0.024806019 -0.021609763 -0.048975248
000050 ea 94 91 bc ac fb 1f bd 6f 03 0a bd bf ff 8b bd
       -0.017771203 -0.039058372 -0.03369468 -0.06835889
000060 a3 f6 19 3c 07 bb 88 bd a8 7c a4 3d 24 90 ac bc
       0.009397182 -0.06676298 0.08031589 -0.021064825
000070 5c 20 03 3b 0f 28 ad 3d e5 d6 0d 3d f5 fa 4e bc
       0.0020008301 0.08454906 0.034628768 -0.012633075
000080 25 eb 49 bd 79 82 0d bd 8c 3b 76 3c 1c 8b da bc
       -0.049296517 -0.034548257 0.0150288455 -0.02667766
000090 33 08 43 3d f4 80 b8 bc de 12 cd 3c ea 64 e8 3d
       0.04761524 -0.022522427 0.02503341 0.11347373
0000a0 60 df 17 3c 4c 40 8f 3b 7a 19 c2 3c 11 d9 fc 3c
       0.009269565 0.0043716785 0.023693789 0.030865224
0000b0 35 55 4a 3d 51 fd c7 3c 1c 27 79 3d ee bd 93 3b
       0.049397666 0.024412783 0.060828313 0.0045087254
0000c0 92 f3 38 bc e1 66 1a 3d cd 6a 73 bc 78 b3 44 bd
       -0.01128854 0.03769577 -0.014857006 -0.048022717
0000d0 ca d7 23 bd 83 da 8e 3a 06 3e 71 ba 83 77 33 bd
       -0.040000714 0.0010898862 -0.00092026626 -0.043815147
0000e0 ed c6 78 bd 48 ce 8a 3c b0 fa 73 3c f8 b4 1e 3b
       -0.060736585 0.016944066 0.0148913115 0.0024216752
0000f0 60 c4 8e bd ac d4 80 bd 48 e0 95 3c 53 0c 9a bc
       -0.06971049 -0.06290564 0.018295422 -0.018804705
000100 32 de 4d bd 51 0f 77 bc a8 cb 71 3d cd 23 18 3d
       -0.05026073 -0.015079335 0.059032112 0.037143517
000110 8f d1 b3 3c 5f dc 9d bd 82 3b a8 bc c8 c4 b4 bb
       0.021950511 -0.07708048 -0.020536188 -0.005516622
000120 03 f6 9c bc e1 2a c7 3c ea db bb 3d c8 b5 2c bd
       -0.019160276 0.024312438 0.09172805 -0.042165548
000130 2d b5 18 bd 50 87 35 3d bd a0 25 bc 7d 1b 2b bc
       -0.037282158 0.044318497 -0.010109124 -0.010443565
000140 c8 33 27 bd c6 d1 16 bd 11 9f 6f 3d bd dc ac 3c
       -0.040820867 -0.03682115 0.058501307 0.02110135
000150 78 82 36 bb 16 21 8a 3d 7d f3 b2 bc 79 b2 42 bd
       -0.0027848762 0.06744592 -0.02184462 -0.047533486
000160 b0 55 6c bd a4 3d b4 3c e0 e7 2d ba 97 23 1b 3d
       -0.057698905 0.022002049 -0.00066339783 0.037875738
000170 37 67 47 3d 42 b4 74 3c ee 54 60 3d 10 bd e3 bc
       0.048682418 0.014935555 0.054768495 -0.027800113
000180 f6 06 61 3d 1b 7a fb bc 30 bd 1a 3b 64 68 3f 3d
       0.05493828 -0.030697873 0.00236113 0.046730414
000190 40 6b 23 bd d2 a3 42 3d 9e 5d 7d 3c 51 39 72 3c
       -0.039897203 0.047519512 0.015464215 0.014784173
0001a0 85 fb aa 3d 04 07 fa 3c 25 a4 0c bd 17 5c 82 3b
       0.08348755 0.030520923 -0.034336228 0.003978263
0001b0 9e 10 02 bb ad e4 04 3d 9f 7e 04 bc 1c b1 6e 3c
       -0.001984633 0.032444645 -0.008086829 0.014568593
0001c0 1d e9 d6 3b 2c ca 2e bd 25 5a ad 3c aa 61 89 bc
       0.006558551 -0.042673275 0.021161148 -0.016770203
0001d0 7a b5 70 3d 9f e7 21 3d 1f 19 ea bc fa a2 11 bd
       0.05876682 0.03952753 -0.028576432 -0.035555817
0001e0 c6 c8 88 3c 52 82 da 3c d1 ed 7c bd 86 41 31 3c
       0.016697299 0.02667347 -0.061750237 0.010818845
0001f0 03 87 68 3d 38 e0 4e 3b 36 c1 86 b8 fb b5 b1 bb
       0.056769382 0.003156675 -6.425606e-05 -0.005423305
000200 e5 88 92 bd 71 f3 ad 3c 3b 23 9c bd e7 e6 22 bd
       -0.07155017 0.021234246 -0.07623907 -0.039770987
000210 aa 48 c0 3a 69 16 94 ba 3e 45 6e bb 73 78 89 bc
       0.0014670093 -0.0011298183 -0.003635719 -0.016781067
000220 cb 3d d3 bc b1 61 2c bb 48 66 31 3d b9 f1 a3 bc
       -0.025786301 -0.0026303346 0.043310434 -0.020012723
000230 8e be 73 bd e9 cd a2 3c 85 02 6a bd 05 17 33 bd
       -0.0595079 0.019873576 -0.05713131 -0.043723125
000240 8a a3 fa 3c f1 4e 90 bd 18 cb 04 bd c0 af 14 3d
       0.03059556 -0.07046307 -0.032420248 0.03630042
000250 13 15 2a bc 97 fb 65 bc 7c 09 a8 bc 52 2e ff bc
       -0.010381001 -0.0140370345 -0.020512335 -0.031150017
000260 fb 2c 2b 3d 08 c7 90 3c fd d9 ca bb 5e f6 f1 3c
       0.041790944 0.01767303 -0.006190537 0.029536422
000270 fa 05 66 bc 31 e9 60 3d d5 de 29 bd c4 ca 88 bc
       -0.014039511 0.05490989 -0.041472275 -0.016698249
000280 d5 ac 35 bd 7b e9 aa 3c f0 3f 3e 3b b1 ef 27 3d
       -0.04435428 0.020863285 0.002902981 0.041000072
000290 a7 c8 4b 3d 2f 83 72 bc 2a 2b 04 bc ff 09 fa bc
       0.049751904 -0.014801784 -0.008066932 -0.030522345
0002a0 b9 fa e9 bc 1d bd fc bc 43 04 5c 3d 6d 74 83 3d
       -0.028561937 -0.030851895 0.053715 0.06418691
0002b0 cd eb 99 bb 1e 13 80 3d b6 4f b5 3d 1d 42 3d bd
       -0.004697299 0.06253646 0.08853094 -0.04620563
0002c0 4a ed 31 bd b4 08 26 bd d8 ee e3 bc 1d 5a 63 3c
       -0.043439187 -0.040535644 -0.02782385 0.013876465
0002d0 e0 cc cf ba a8 98 07 bc e5 47 4a 3d f9 14 61 bd
       -0.0015853904 -0.008276142 0.04938497 -0.05495164
0002e0 c2 fb 43 3d ce 54 85 3c 1a 90 ba bd 8d 98 dc bd
       0.047847517 0.01627579 -0.091095164 -0.10771284
0002f0 1a e7 c4 bc f3 3e a7 bd 53 11 e3 3c d4 8a 7b bd
       -0.024035979 -0.081663035 0.027718222 -0.061411694
000300 4c 23 7c bd 8f a6 03 bc 25 b2 03 bd aa e1 f5 bd
       -0.0615571 -0.008035316 -0.032152314 -0.12005933
000310 fe cd f5 bc ce f0 a7 bc 8f f3 e4 bc f5 c0 22 3b
       -0.030005451 -0.020500567 -0.027948169 0.002483425
000320 c7 65 9d bb 4a 4e 69 bc c8 52 51 bc 4a 7d b9 3a
       -0.0048033926 -0.014239857 -0.012776084 0.0014151719
000330 d2 7c 08 3c 1e 63 b4 bd 4f 0a 0d bd 1d 91 8b bd
       0.008330541 -0.088079676 -0.03443366 -0.068147875
000340 38 6b 52 3d e2 09 32 bc 38 d0 9e 3d ef 57 90 3d
       0.051371783 -0.010866614 0.07754558 0.07048022
000350 4a 54 ed bc 47 1e 9f 3d 6a 27 49 bc 47 77 41 bd
       -0.028970856 0.07769447 -0.012277463 -0.047232892
000360 b5 44 23 bd b3 d1 9d bc ae b6 b6 39 ec 67 95 3b
       -0.039860446 -0.019265031 0.00034849852 0.0045595076
000370 4c cc 57 bd 17 e2 2f bd 99 85 de bc ac 9b fb 3c
       -0.052685067 -0.042940225 -0.027163314 0.030713879
000380 af ad de bc b9 d5 88 bd e1 b7 4b bd d0 ab 39 3d
       -0.027182428 -0.06681389 -0.049735907 0.04532987
000390 06 6f a1 bd 15 44 6b bd 73 39 bd b9 90 06 00 bb
       -0.07882504 -0.057437975 -0.00036091692 -0.0019535162
0003a0 5f c3 34 3c 71 53 a2 bc 6b 9d 6a bd 7b a4 3a bc
       0.011032908 -0.019815179 -0.05727903 -0.011391754
0003b0 e4 be 51 3c b0 dc 2a 3d 3c 26 ba 3b c9 06 17 bd
       0.0128018595 0.04171437 0.0056808274 -0.036871705
0003c0 9f 91 1e 3c d3 6c 52 3b 85 4f 9e 3b d0 03 30 3d
       0.009678273 0.0032108321 0.004831257 0.042972386
0003d0 f5 df 61 bc d4 61 de bb 3e 35 77 bc 2b a1 a2 3b
       -0.013786306 -0.0067865644 -0.0150883775 0.0049630604
0003e0 77 13 54 bd b0 b7 9f bd fe 67 b3 bd b4 63 d0 bc
       -0.051776376 -0.077987075 -0.08760069 -0.025438167
0003f0 87 d3 24 3c 3b b5 2b 3c 4d 43 8d bc 72 15 50 bd
       0.010060198 0.01048022 -0.017244006 -0.0508017

cnn.4.bias f4 [64]
000000 91 65 19 bc 60 b6 2e bc b3 19 89 bd 3f e7 70 bd
       -0.009362594 -0.010663599 -0.06694355 -0.058814283
000010 eb 9c c7 3b 08 fa bb bc 51 35 cd 3c 68 92 54 bd
       0.006091704 -0.022946373 0.025049837 -0.051897436
000020 08 df 3c bc 5e c3 96 bd b4 1f 58 bc 0a b5 2b bd
       -0.011527784 -0.07361482 -0.013191152 -0.0419207
000030 dc 1a a1 b9 68 7f d8 bc 79 4f 84 bd 16 65 80 bd
       -0.00030728325 -0.02642794 -0.06460471 -0.062692806
000040 8e bb 16 3d 1a 89 dd 3c 82 66 5f bd 91 93 a5 3c
       0.03679996 0.027042914 -0.05454112 0.020211967
000050 d3 7c 2a 3d 6e fe 6e 3d 1a 21 17 bc 7d b7 26 bd
       0.041622948 0.05834811 -0.009224201 -0.04070233
000060 14 46 35 3d a1 99 9b bd 82 9e e8 bd bd af 77 bd
       0.044256285 -0.07597662 -0.11358358 -0.06047033
000070 cd 28 7c bd cd c3 65 3b 1c 34 af 3c ad 2b 10 3b
       -0.06156235 0.0035059333 0.021387152 0.002199869
000080 e5 84 d1 3c a3 90 a0 ba eb 29 dc bc 4e b0 e8 bd
       0.025576064 -0.0012250136 -0.026875457 -0.113617525
000090 bf c4 7a bd 22 d6 22 be f0 9e 4e 3c b8 f2 74 3d
       -0.061222788 -0.15901998 0.012611136 0.059801787
0000a0 90 dd 07 bc 69 31 38 3d d5 0c 7e bd 42 9d 69 3d
       -0.008292571 0.044968996 -0.062023956 0.05703474
0000b0 c7 41 87 3d b1 b8 91 3d 7c 50 c5 3b e4 0d 97 bc
       0.06604343 0.07115305 0.0060215574 -0.01843924
0000c0 12 f3 07 3d 97 90 b9 3c 57 89 3a 3c 78 a9 97 3c
       0.033190794 0.022651954 0.011385283 0.018513426
0000d0 2e b6 0c bd e1 ac 6a 3d 8f 24 9d bc a8 2e 91 bd
       -0.034353428 0.057293776 -0.019182472 -0.07088977
0000e0 f8 ef 5c bd 46 7d 0b 3b 4d f9 f5 bc 76 01 78 bd
       -0.05393979 0.0021284386 -0.030026102 -0.06054827
0000f0 43 12 d9 bc a2 64 41 3d 1d f9 8c 3c 0b ee a5 bd
       -0.026497966 0.04721511 0.01720863 -0.08102044

cnn.8.weight f4 [128, 64, 3]
000000 c1 3c 47 3c bc da 3d bc d9 ee c0 3c ad 37 63 3d
       0.012160481 -0.011587795 0.023551391 0.05547302
000010 d5 01 f3 bc 4e 44 61 3d 42 ee d4 bc 8b 75 89 bb
       -0.02966396 0.05499678 -0.025992516 -0.0041949204
000020 65 e8 e3 bc af b5 21 3d 44 b6 32 3d 7f 14 c4 3c
       -0.027820775 0.039479908 0.043630853 0.023935555
000030 0e 3b 6b 3c 11 4b 14 3d d3 6a 06 3d a3 56 68 3d
       0.014357341 0.0362044 0.03281672 0.05672325
000040 2b ba e3 3c 60 9f 5d 3d 3d 1a c1 bc dd e1 b6 bc
       0.027798733 0.05410707 -0.023572082 -0.022324497
000050 da 95 2c bc 43 33 0c bc 44 e3 08 bd 9f ea 2c 3c
       -0.010533774 -0.008557144 -0.033419862 0.010553985
000060 b2 86 47 3c 9f 90 fd bc 3e 31 9d 3c 32 f6 d3 3b
       0.01217811 -0.03095275 0.01918852 0.0064685578
000070 07 9a 11 ba 9c e9 25 3c d3 31 92 bc 62 12 b8 3c
       -0.0005554263 0.010126498 -0.017846024 0.022469703
000080 bb 5e 59 3d c0 45 ea bc a8 04 e4 3c 5a f0 b5 3b
       0.053068858 -0.028597713 0.027834252 0.005552334
000090 98 a4 b3 bb 49 a0 c8 bc bb ef 28 bd da 0e e8 3b
       -0.0054822676 -0.024490492 -0.04124425 0.0070818486
0000a0 f2 50 d2 3c 67 1b c8 3c ef 4e e5 3c 7e e8 e3 bc
       0.025673363 0.024427129 0.02799174 -0.027820822
0000b0 1b 98 a6 3c 22 f6 da 3d 86 68 a6 3b 21 50 c5 3c
       0.020336201 0.10691477 0.005078378 0.02408606
0000c0 34 9b 14 bc dc 24 1a bd b3 63 09 3d 53 cb 5d 3c
       -0.009070206 -0.037632808 0.033542346 0.013537246
0000d0 e0 d4 e6 ba c0 10 3f 3d 24 6d 2d bd 9e 23 25 3d
       -0.0017611049 0.046646833 -0.042340413 0.04031717
0000e0 77 18 b5 3c d3 28 1f bd 6d d3 90 bc 1d 48 2d bd
       0.022106392 -0.038857292 -0.01767894 -0.0423051
0000f0 d4 17 f1 bb c3 72 82 bb 31 2f e3 3c b1 60 93 bc
       -0.007357577 -0.003980966 0.027732464 -0.017990442
000100 bf 67 64 bd a0 5a 27 bd 4f 27 e9 3c 45 2e 16 bd
       -0.055763002 -0.04085791 0.028461127 -0.03666522
000110 6f 07 13 3c 27 c3 5f 3d 24 fe e9 3c ac e1 3f bc
       0.00897394 0.05462947 0.028563567 -0.011711519
000120 e4 f7 e4 3c 76 18 42 3d 1c dc 20 3d 75 ed a8 3c
       0.027950235 0.04738661 0.039272413 0.02062104
000130 80 a2 5e 3d 0a 38 2e 3d 18 e3 d8 3d 11 67 85 3c
       0.05435419 0.04253391 0.1059019 0.016284497
000140 1e 9e 29 3c f3 ba 59 3d 7d 54 bd 3b 84 6d 79 3c
       0.0103526395 0.053156804 0.005777894 0.0152238645
000150 32 08 7d bd 61 3e 18 bb 64 f9 2a bd cc 9c e8 bc
       -0.061775394 -0.002323054 -0.041741744 -0.02839508
000160 ea 91 b1 bc 4d 3e ab 3c 1d 34 39 3c af 97 00 3d
       -0.021676023 0.02090373 0.011303929 0.031394657
000170 b9 0f e4 3c 4e 12 74 3d 0e 7b 8d bc dd a3 99 bc
       0.027839528 0.05958777 -0.017270591 -0.018754894
000180 50 08 51 bd 71 8b cd bc 7c 6d 1b bb 56 18 4b bc
       -0.051033318 -0.025090905 -0.002371638 -0.012395939
000190 f1 c8 3a 3c 42 89 74 bd 8e 27 77 bd 92 bf 49 3b
       0.011400447 -0.05970121 -0.060340457 0.003078435
0001a0 d4 7d f8 bc 48 de 5f 3c 39 26 99 3a 53 d1 72 3d
       -0.030333437 0.013663836 0.0011684365 0.05928166
0001b0 e2 49 33 3c ca b4 42 3c fd b8 10 bd 36 3d ce bc
       0.010942908 0.011883924 -0.03533267 -0.025175672
0001c0 36 dc b3 b7 75 e2 f9 3b 7c 30 41 3d 80 5a 92 bc
       -2.1441007e-05 0.0076258727 0.04716538 -0.01786542
0001d0 34 31 af 3c 83 96 5e 3b fb d2 a6 3b e4 48 5c 3d
       0.021385767 0.0033964224 0.005091069 0.05378045
0001e0 98 22 9d 3c c6 a2 70 bd cb 5c 6a bd 92 87 fd 3b
       0.019181535 -0.058748983 -0.0572174 0.0077371085
0001f0 e6 f1 4c bd 52 ae 5c bd 08 33 c7 bc a9 53 8d bb
       -0.05003538 -0.053877182 -0.024316326 -0.0043129516
000200 10 86 af bc 9a 6b 0c 3d f1 a1 0e bd 0b cb c5 bc
       -0.02142623 0.034282304 -0.034822408 -0.02414467
000210 7d 01 c6 3c 0b 5c 82 3c 0c e2 5d 3c cd da 6c 3d
       0.024170632 0.01591303 0.013542663 0.057825852
000220 2c 71 dd bc 23 f6 82 bd d7 f9 02 3c ce 30 10 bd
       -0.027031504 -0.06394603 0.007994137 -0.035202794
000230 fc a2 5f 3d cf e0 00 3d 7d c4 20 3d 87 de d4 3b
       0.054598793 0.031464394 0.039249886 0.006496254
000240 0b 00 e6 3c 01 b9 19 3d 0d ad fa 3c 3a 25 0e 3d
       0.028076192 0.03752995 0.030600095 0.03470347
000250 7e 51 20 3c 9c b9 6b 3c 7e 36 ae 3c 7b 9b a4 bc
       0.009785054 0.014387514 0.021266218 -0.02009367
000260 92 54 8a bc 60 36 82 bd b5 51 22 bd f3 dd d5 3c
       -0.01688603 -0.063580275 -0.039628703 0.02610681
000270 4c ba 8f bb 2f 6b ff 3c 05 1c b1 3d 15 52 c1 bc
       -0.004386222 0.031179039 0.086479224 -0.02359871
000280 28 c0 8b 3c b7 d4 ea bc 27 87 3a 3c 91 81 03 bd
       0.0170594 -0.028665883 0.011384762 -0.032105986
000290 df 59 75 3b 7d 57 cd 3d b6 5f 00 3c 1d e2 c9 3c
       0.00374376 0.10026453 0.007835319 0.024643952
0002a0 15 5a 1c bc 74 e0 45 3b 52 ea f2 3c bf 99 67 bb
       -0.009542962 0.00301936 0.029652748 -0.0035339443
0002b0 80 5a 32 3c 7d 25 37 3d 31 39 bc 3c 65 49 4a bc
       0.010885835 0.044713486 0.02297649 -0.0123466
0002c0 fb 28 12 3d c8 14 72 bc 6f fd 0d bd 11 77 c4 bc
       0.035683613 -0.014775462 -0.03466552 -0.023982557
0002d0 61 fc 1c 3d 88 c3 65 bc 2c 60 c1 bc 9d 5a 6e bd
       0.038326625 -0.014023669 -0.023605429 -0.058191884
0002e0 b6 ca 22 bd 7a 34 0e bd 09 36 03 b9 25 62 1a bd
       -0.0397441 -0.034718014 -0.00012513263 -0.037691254
0002f0 2d 3a 5e 3d 14 5a 80 3d 01 f8 e0 bc b1 e8 00 bb
       0.0542547 0.06267181 -0.027462007 -0.0019669945
000300 e9 ec 30 3d 74 ff 9f bc b7 7a 68 bc ca ad 08 bc
       0.043194685 -0.01953099 -0.014189414 -0.008342216
000310 a8 c1 76 3c c8 70 a8 3c a9 06 93 bb 4d 79 80 bc
       0.01506082 0.02056159 -0.004486878 -0.01568284
000320 de b0 18 bd 5c b2 4f bc 33 bc 2d 3d 29 69 5f 3c
       -0.03727805 -0.0126768015 0.04241581 0.013635912
000330 0d 55 54 bd f4 d9 d5 3b 3b 9a f6 3c 2e 56 01 3c
       -0.051838923 0.006526226 0.03010284 0.007894082
000340 e2 e0 31 bd 72 3b 1d bd 00 fa b3 bb 69 7c 47 3d
       -0.043427356 -0.03838677 -0.005492449 0.04870263
000350 03 6c 27 3d 15 72 31 bc 3c 01 99 3c bc 37 a4 3c
       0.040874492 -0.010830422 0.018677346 0.020046107
000360 14 af a6 bc e4 21 c9 ba 4b e1 9b bd a0 dc 86 3c
       -0.020347156 -0.0015345183 -0.076113306 0.016462624
000370 d3 67 c3 bd ae 73 93 bd b9 f9 2b bd f7 58 87 bd
       -0.09541287 -0.071997985 -0.0419862 -0.066087656
000380 ae 78 ac bd 3c 9e 66 3c 5f b3 69 bc bb e6 49 bd
       -0.08421455 0.014075812 -0.014263957 -0.049292307
000390 91 da c1 3c 0c 63 4f bd 49 6d 11 3d 4f f3 07 bd
       0.02366379 -0.050631568 0.035504613 -0.03319102
0003a0 49 a5 ad bc 78 9a 2c 3d 72 a0 2b bd a5 cc 51 bd
       -0.021196978 0.0421395 -0.04190106 -0.051220555
0003b0 ee 8c 76 bd 05 83 8e bc 2f 6e 0d bc d4 2f 81 3d
       -0.060192995 -0.01739646 -0.008632227 0.063079506
0003c0 be 7f 32 3b 3f d7 08 3d 41 f9 2e 3c d5 b1 68 bd
       0.0027236785 0.0334084 0.010679544 -0.05681022
0003d0 fc 21 9b bd 73 42 4a bc c1 0c 1c bb de 1b 65 bc
       -0.075748414 -0.012344944 -0.0023811313 -0.013983695
0003e0 bb ec 93 bd af 0f 52 bd 72 0e e0 3c 4f da 19 3d
       -0.07222887 -0.05128449 0.027350638 0.03756171
0003f0 0a bb 83 3c 8f 5f d6 bc a9 cd a5 bc 40 78 3d bd
       0.016080398 -0.026168613 -0.020239668 -0.046257257

cnn.8.bias f4 [128]
000000 97 62 65 3c a9 e2 35 bd 8b f6 2f bc e7 d2 46 3c
       0.014000556 -0.044405613 -0.010739933 0.012135244
000010 3f 7f 8a 3c ba 6f db 3c 60 b6 49 bd bb 2a 12 bc
       0.016906379 0.026786674 -0.049246192 -0.008921321
000020 56 af bd bc 08 21 6a 3c f5 29 b6 bc 0d 1a 1a 3d
       -0.023154896 0.014290102 -0.022236804 0.0376225
000030 e5 7c 8a ba 09 43 eb bd cf 1d 42 bc fb ac b4 bc
       -0.0010565786 -0.11487395 -0.011847927 -0.02205514
000040 07 74 ca 3b 26 23 01 3d 58 6a f8 bc 84 31 f5 3c
       0.0061783823 0.03152766 -0.030324146 0.029930837
000050 ba ae 6f 3d f2 dc 63 bd a0 5f 11 3d 7f 66 2c bd
       0.05851624 -0.05563063 0.035491586 -0.042089935
000060 ed 77 6b bd b0 13 98 bc 04 b2 52 bd 19 5e 81 bd
       -0.057487417 -0.018564075 -0.0514393 -0.06316776
000070 53 9d d0 bb 81 75 0d bd 75 dc e4 3c 7d 65 30 bd
       -0.0063664108 -0.03453589 0.027937153 -0.043065537
000080 a8 7a 40 3c 64 40 57 3d b0 65 9a bd 47 93 70 3c
       0.0117479935 0.052551642 -0.075389266 0.014683551
000090 1d 72 cf bc 64 83 53 3c 10 7c 58 3d 70 4b b1 bb
       -0.025322968 0.012909744 0.05285269 -0.005410604
0000a0 65 ba 0a bc a6 89 d6 3b 6e d5 c7 bc fc 76 b1 bd
       -0.0084672915 0.0065471707 -0.024393763 -0.086652726
0000b0 ce 72 0e 3d 8e 44 52 bc 82 47 b5 3b af 48 e3 bc
       0.034777455 -0.0128337275 0.005532206 -0.02774462
0000c0 9f dd 1a 3d 17 4d 88 bd d5 f0 d8 bb e6 7d c3 3c
       0.03780901 -0.06655329 -0.0066205063 0.023863744
0000d0 30 1c 57 bd cc a8 21 3c 99 78 49 bd b0 eb 8f 3d
       -0.052517116 0.0098669045 -0.049187277 0.07027376
0000e0 ea 71 7d bb b6 47 29 3c 65 88 6e 3d a8 fb 4e bc
       -0.0038672634 0.010332039 0.058235545 -0.012633242
0000f0 03 15 c9 3c 6a 8f 70 3d 23 31 61 3c c6 bf 9e bd
       0.024546152 0.05873052 0.013744625 -0.07751422
000100 f9 43 38 3d 22 93 92 bb 8b c6 7b bc bf 85 55 3d
       0.0449867 -0.004473106 -0.015367161 0.052129503
000110 45 d4 2d bb 0b 4e 62 bd 40 11 c0 3c bd 20 03 bc
       -0.0026524228 -0.05525021 0.023445725 -0.008003411
000120 1c d5 9d bc 6f 37 4c bc e3 0d 3f 3d 3b 42 90 bd
       -0.019266658 -0.012464388 0.046644103 -0.070438825
000130 d6 a5 02 3d 3c 1c fc 3c 68 76 3a bd 4e 8b d7 bd
       0.031896435 0.030775182 -0.045523077 -0.10524617
000140 59 1e 81 bc a0 9d 0a bc 64 d7 92 3c 1b 3d 55 3d
       -0.015761541 -0.008460432 0.017924972 0.052060228
000150 74 ff 14 bd 0e 8d 31 3d dc ad 22 3d a1 28 2b 3b
       -0.03637643 0.04334741 0.039716586 0.0026116746
000160 94 0d 42 3d 32 8f 63 3d bc e9 1e bc 85 a7 88 3c
       0.04737623 0.055556484 -0.009699281 0.016681442
000170 8a d1 9d bd ee db 82 3d cf 91 85 bc 83 42 3e bd
       -0.07705982 0.063896045 -0.016304879 -0.04645015
000180 e1 19 7d bc 6a 84 01 bd 20 51 a6 bc 6f 90 2a 3c
       -0.015448065 -0.03162042 -0.020302355 0.010410412
000190 36 95 20 3d 18 c3 4d bd 93 86 4f 3c 17 ba 5b 3a
       0.0392048 -0.050234884 0.012666362 0.00083819166
0001a0 6a a0 0b 3d cb f9 85 bd 57 07 33 3c 59 f3 fa bc
       0.03408853 -0.06541785 0.010927043 -0.030633615
0001b0 8c d8 9c 3c 2e 64 d8 3c 75 c1 18 3d f4 63 8a bb
       0.019146226 0.026414957 0.03729387 -0.004223341
0001c0 6b e5 21 bc b6 40 25 bb 81 df 29 bd ca 88 73 3d
       -0.009881358 -0.0025215573 -0.041472916 0.059456624
0001d0 5d a2 2d bd 54 1e a5 bd e9 96 0b 3d d2 83 e8 3c
       -0.04239117 -0.08062425 0.034079466 0.02838317
0001e0 75 b5 b1 3c a9 7c de bc 80 2d d3 bc 9d 5e 26 3d
       0.02169297 -0.027159052 -0.025778532 0.040617574
0001f0 1f 3b b6 bd d3 97 b5 bc 6f 7d 9a 3c 32 13 60 bd
       -0.08897995 -0.022167122 0.01885864 -0.054705806

layer_norm.weight f4 [128]
000000 e5 e0 7a 3f 4d e7 7e 3f a9 c9 7b 3f 9c 3b 7a 3f
       0.9799941 0.99571687 0.98354584 0.97747207
000010 47 74 7c 3f e5 2f 7e 3f e1 af 7e 3f d7 53 7f 3f
       0.98614925 0.9929183 0.9948712 0.99737304
000020 63 1f 78 3f 92 17 7e 3f b2 81 7a 3f 27 97 7e 3f
       0.9692289 0.99254715 0.9785415 0.9944939
000030 46 2f 7f 3f 64 08 7d 3f dc e0 7d 3f 83 9c 7d 3f
       0.9968151 0.9884093 0.99171233 0.9906694
000040 31 8f 7b 3f ef 8e 7d 3f 5f 81 7e 3f be af 7b 3f
       0.9826537 0.99046224 0.99416155 0.98315036
000050 fe d6 7d 3f 2e fa 7f 3f 51 24 7e 3f 4f 9c 7c 3f
       0.9915618 0.9999112 0.99274164 0.9867601
000060 57 77 7e 3f 65 84 7e 3f b2 96 7d 3f 08 3f 7c 3f
       0.9940085 0.9942077 0.9905807 0.9853368
000070 b3 3f 7d 3f 32 1e 7f 3f 94 5e 7d 3f 84 26 7f 3f
       0.9892532 0.9965545 0.9897244 0.99668145
000080 67 87 7e 3f 63 45 7e 3f 7c b6 7d 3f 55 44 77 3f
       0.9942536 0.99324626 0.99106574 0.9658864
000090 df 50 7e 3f bc 4f 7c 3f 8c 87 7f 3f 5f 13 7a 3f
       0.9934215 0.98559165 0.99816203 0.9768581
0000a0 09 e2 7e 3f ee 46 7c 3f c2 b5 7a 3f c2 e2 7f 3f
       0.9956365 0.9854573 0.9793359 0.9995538
0000b0 f2 f0 7c 3f 79 b5 7c 3f 2d 1e 79 3f 73 50 7d 3f
       0.98805153 0.98714405 0.9731167 0.9895088
0000c0 e3 da 7c 3f 21 25 7e 3f 0d 45 7e 3f b6 da 7b 3f
       0.98771495 0.99275404 0.99324113 0.983806
0000d0 5b 42 7f 3f 1c ac 7c 3f c3 96 7d 3f fa 4f 7f 3f
       0.99710625 0.9870012 0.9905817 0.9973141
0000e0 d8 31 7e 3f 0d b0 7b 3f a4 2e 7e 3f 72 6d 7e 3f
       0.99294806 0.9831551 0.9928992 0.9938575
0000f0 31 ec 7c 3f 29 3c 7d 3f 10 26 7d 3f d9 fb 7e 3f
       0.987979 0.9891992 0.98886204 0.9960304
000100 e1 d4 7c 3f 23 2f 7a 3f e9 f0 7f 3f f9 d3 7b 3f
       0.9876233 0.97728175 0.99976975 0.9837032
000110 f9 3d 78 3f e7 65 80 3f 9d ff 79 3f 66 d8 7e 3f
       0.9696956 1.0031098 0.9765566 0.9954895
000120 f5 53 7c 3f 6f e7 7a 3f 9f d5 7e 3f a2 c2 7a 3f
       0.9856561 0.9800939 0.9954471 0.97953236
000130 96 0e 7f 3f 9d 71 7d 3f 1d 11 80 3f 54 a8 7b 3f
       0.9963163 0.99001485 1.0005223 0.98303723
000140 77 a6 7b 3f a8 e1 7c 3f 88 55 7a 3f c5 81 77 3f
       0.9830088 0.98781824 0.9778676 0.9668239
000150 22 f6 7e 3f 26 2b 7d 3f 45 85 7e 3f 8b 93 7c 3f
       0.9959432 0.98893964 0.99422103 0.9866263
000160 d8 ec 7e 3f a5 ad 7d 3f 56 ed 7b 3f d3 f3 7e 3f
       0.99580145 0.99093086 0.9840902 0.99590796
000170 53 90 7f 3f c7 19 80 3f fb c3 7e 3f 7c e1 7e 3f
       0.99829596 1.0007867 0.9951779 0.9956281
000180 51 26 7e 3f 3e d6 7c 3f e7 1a 81 3f d2 79 7e 3f
       0.99277216 0.9876441 1.0086335 0.99404633
000190 5f c3 7c 3f 1b 70 7e 3f 3b 28 7b 3f bf d8 77 3f
       0.9873561 0.9938981 0.9810826 0.96815103
0001a0 5b e3 7b 3f 5b 29 7e 3f b8 90 7d 3f c7 72 7d 3f
       0.9839379 0.99281853 0.9904895 0.9900326
0001b0 76 4d 79 3f 43 29 7c 3f 23 29 7e 3f c1 21 7d 3f
       0.9738382 0.9850046 0.9928152 0.9887963
0001c0 65 b5 7d 3f 53 d8 7e 3f ba 1f 7b 3f 53 fe 7c 3f
       0.9910491 0.99548835 0.98095286 0.9882557
0001d0 bf f5 7a 3f 60 ba 7b 3f dc cb 7d 3f ab 3e 7f 3f
       0.9803123 0.9833126 0.9913919 0.99705
0001e0 28 42 7c 3f 9c b1 7f 3f c8 9e 7e 3f a2 aa 7d 3f
       0.98538446 0.99880385 0.9946103 0.9908849
0001f0 f1 4a 7e 3f 9a 99 7a 3f 47 0e 7d 3f 08 fd 7e 3f
       0.993331 0.9789063 0.9884991 0.99604845

layer_norm.bias f4 [128]
000000 60 76 e6 3b 00 ad 19 bb 1c 56 c5 ba 81 72 d4 ba
       0.0070331544 -0.0023449063 -0.001505557 -0.0016208441
000010 4a ed 1a 3b 88 44 ae 3b 29 2c 08 3b 99 2a 55 bb
       0.002363997 0.005318228 0.0020778275 -0.003252661
000020 a8 29 45 3b d3 ee d5 ba 59 b7 67 3b f6 67 f0 3b
       0.0030084644 -0.0016321786 0.0035357086 0.007336612
000030 6f 80 59 bb b8 4c 1c bb 50 56 2b bb a4 1a 32 ba
       -0.0033188125 -0.002384944 -0.0026143976 -0.0006794131
000040 03 d9 e6 ba 52 6c 73 bb 12 e5 a2 bb 30 09 b1 ba
       -0.0017612282 -0.0037143421 -0.004971155 -0.0013506766
000050 52 41 45 3a f0 ca c2 b7 4f ad 43 3b 05 b7 6b bb
       0.0007524687 -2.3221102e-05 0.0029857939 -0.0035967242
000060 ac e8 bb bb 4a 7c b2 bb 9b 12 17 bc a6 57 18 bb
       -0.0057345238 -0.0054469453 -0.0092207445 -0.0023245602
000070 03 aa fc ba e5 d9 dd ba 29 af 9b b9 f6 63 93 ba
       -0.0019276742 -0.00169259 -0.00029694408 -0.0011245001
000080 ed db a8 b9 a2 9b 88 3b cf cf ac bb 6e c1 c3 bb
       -0.00032207315 0.0041689435 -0.005273796 -0.0059739863
000090 0a af 0a 39 72 7a ba 3b ef 36 8a 3b 97 f2 d8 3a
       0.00013225913 0.005690866 0.0042179744 0.001655179
0000a0 aa 72 33 ba f6 d8 ab bb f5 a8 6b 3b ac f6 34 bc
       -0.00068453944 -0.0052443696 0.003595886 -0.011045139
0000b0 6c 83 41 bb 0a 11 ea bb 8c e6 22 3b 8d af cf ba
       -0.0029527796 -0.0071431445 0.0024856655 -0.0015845165
0000c0 c5 c3 18 bc f3 d5 3c ba 0b f5 09 3c 39 e6 55 39
       -0.009324019 -0.0007203512 0.008420239 0.00020399028
0000d0 39 81 0b bb 4f 28 ec 3a 51 ed ea ba c7 db c4 3b
       -0.002128674 0.0018017384 -0.0017923509 0.006007645
0000e0 19 a4 97 3b 91 9c 2d 3b a1 09 64 3b 42 09 11 bb
       0.0046277163 0.0026491026 0.0034795778 -0.0022130762
0000f0 b9 96 c3 3b 0a ac d1 3b 22 87 cb 3a b1 fb ab bb
       0.0059688953 0.0063986825 0.0015527944 -0.00524851
000100 3d 9c 44 3a 41 fc 4a 3b 69 fd 38 3c b3 85 3e 3b
       0.0007500088 0.003097311 0.011290886 0.002907139
000110 9e ad 9d 3a 15 c5 cd bb 79 a3 78 bb 70 cf 19 bb
       0.0012029891 -0.0062795975 -0.0037939234 -0.002346959
000120 97 f5 bf bb 89 75 48 bb 50 73 57 3b c4 34 72 bb
       -0.005858134 -0.0030587635 0.0032875128 -0.003695772
000130 7f 18 49 3c f0 12 fa 3b 32 b2 91 bb c1 fc 7a b6
       0.012273907 0.007631652 -0.0044462914 -3.7400025e-06
000140 a1 b3 d5 ba ab f9 f1 3b 3c 00 08 bb 19 dd ad 3b
       -0.0016304144 0.007384499 -0.0020752093 0.005305898
000150 d9 53 09 bb f4 e6 dd 3a e5 43 2b ba 0f a3 80 3b
       -0.0020954518 0.0016929791 -0.00065332494 0.003925688
000160 c3 c5 04 3b 20 bf ea 3b 9c 76 a1 3b 09 70 ff ba
       0.0020259477 0.007163897 0.0049274694 -0.0019488345
000170 ca 04 f8 bb 34 eb a5 3b 81 6b 42 3a f8 2d 58 3b
       -0.0075689303 0.005063439 0.0007416532 0.0032986384
000180 21 08 2f bb ed 32 e8 39 2a 94 06 3c ec 1c 04 3b
       -0.0026707726 0.0004428843 0.008214036 0.002015884
000190 d2 f5 38 ba 7e 73 36 bb eb 3c c8 bb 01 8d 9e 3a
       -0.0007055673 -0.0027839835 -0.0061107776 0.0012096466
0001a0 40 94 8f bb 96 7c a0 3a 33 a5 4c bb 0e a5 36 bb
       -0.0043816864 0.0012244161 -0.0031226396 -0.0027869376
0001b0 98 5b a4 ba 13 29 97 3b be 55 bb 3b 2e fd 26 ba
       -0.0012539504 0.0046130507 0.0057170084 -0.0006370124
0001c0 99 21 c2 bb 23 94 ef 39 88 cb 74 ba a4 bb f2 bb
       -0.0059244153 0.00045696003 -0.000933819 -0.0074076224
0001d0 59 85 49 bb a9 b3 39 bb cd 64 89 3b c7 9c b9 3b
       -0.0030749647 -0.0028335846 0.0041929246 0.0056644413
0001e0 e7 2f 0b b9 b4 54 72 bb 61 85 da bb 32 0e 69 ba
       -0.00013273918 -0.0036976757 -0.006668732 -0.000889036
0001f0 93 8e 19 bc 88 2c 84 bb f5 f4 93 ba 09 3b 6c bb
       -0.009372371 -0.004033629 -0.0011288213 -0.003604593

lstm.weight_ih_l0 f4 [384, 128]
000000 38 04 b7 3a 58 77 a9 bc e9 7f 79 bd 63 1f 3b bc
       0.0013963049 -0.02068679 -0.060913 -0.011421057
000010 90 fc 10 3d d4 a5 be 3c 0f 46 59 bd ff 07 b2 bd
       0.035397112 0.023272432 -0.05304533 -0.086929314
000020 c6 09 5f 3d ba d8 8d bd c4 d6 9b 3d 30 d5 ba 3d
       0.05445268 -0.06926103 0.07609323 0.091226935
000030 4a c7 a6 3d 68 2e af 3d 02 13 83 bd 5f 79 8e 3d
       0.0814348 0.08553773 -0.0640011 0.069567434
000040 59 24 ff bc de 77 d1 3a c2 45 5b bd a4 d2 b3 bd
       -0.031145262 0.0015981158 -0.053533323 -0.08780411
000050 be 4b ae 3d ad 0d 7f 3b 98 ed 00 3d b8 52 84 3d
       0.085105404 0.0038918064 0.031476587 0.0646109
000060 93 9c 88 3d d4 47 5d bd 3c 82 cb 3b 13 07 30 3d
       0.06670489 -0.05402358 0.0062105935 0.042975497
000070 f2 76 05 bd 5c 69 69 3d 48 db a7 3d 76 cb 39 bd
       -0.03258414 0.056985244 0.081961215 -0.04536005
000080 5c ce 03 bd b4 3f da bc 26 6e 87 3d 9a 5e 8b 3d
       -0.03217922 -0.026641704 0.06612806 0.06805153
000090 53 a2 af 3d 79 1f 54 3d d8 81 40 3b 77 24 26 3d
       0.08575883 0.051787827 0.0029374268 0.04056212
0000a0 87 7b 5e bd fd ae 72 bd 64 d7 a6 bd 79 16 82 bd
       -0.054317024 -0.059248913 -0.08146551 -0.063519426
0000b0 49 9e 7d bc 2e 23 52 3d 01 88 8b bd 2d 53 98 3b
       -0.015479633 0.05130308 -0.0681305 0.004648587
0000c0 4d 85 3c bd cf 95 fd bc af 5e ef 3c 4e ca a3 3d
       -0.046025563 -0.030955223 0.029219953 0.07997571
0000d0 d3 c7 a1 bd e2 2a b0 bc f4 a9 63 3d 0f 69 d7 bc
       -0.078994416 -0.021504823 0.055582 -0.026295213
0000e0 91 5a c2 bd 1f 00 ab bd 13 ac 25 3d 93 d1 9c bd
       -0.094899304 -0.083496325 0.040447306 -0.076571606
0000f0 2e 9a 26 3d 46 0c 2a bc 2c cc 81 bd d2 aa 27 bc
       0.04067438 -0.010378903 -0.06337771 -0.010233598
000100 99 73 8b bd d6 de 81 bd 95 1e 25 3d 4b 5a 9a bd
       -0.06809158 -0.06341331 0.04031237 -0.07536753
000110 9c 3d dd 3c 0d e5 ab bc 81 ed 1b 3d d3 e5 94 3d
       0.027006917 -0.020983243 0.0380683 0.07270398
000120 26 05 43 3d 85 62 75 bd 35 8f b7 3d 96 b2 ab bd
       0.04761233 -0.05990841 0.089628614 -0.08383672
000130 cb b8 0a 3d 81 af 27 3d fd c5 04 3d 80 66 32 3d
       0.03386764 0.040938858 0.03241538 0.043554783
000140 5b 11 7a 3d 2c 69 78 bd 57 82 4e bd b7 5a 43 3d
       0.061051708 -0.060647175 -0.05041727 0.047693934
000150 c7 8a 16 bd 23 eb 10 bd 1e 74 94 bc 7b 4f df bb
       -0.036753442 -0.035380494 -0.018121775 -0.0068148947
000160 5e 02 0d 3d 3a 04 ac 3c cb 0e 14 3c 95 af 14 bd
       0.034426086 0.02099811 0.00903673 -0.03630026
000170 64 7e a2 3b 3b 89 a4 bd 8a fb a8 bd 39 9d 8b 3d
       0.0049589146 -0.08033987 -0.08251102 0.06817097
000180 a9 25 ad 3d aa 9d 4c bd 08 71 07 3d 5a 6b f9 3c
       0.08454449 -0.049955048 0.03306678 0.030446697
000190 c4 5c 2a 3d 2e 03 77 3d a5 d3 1d 3d 61 2a b0 bc
       0.041592374 0.060305767 0.038531918 -0.021504583
0001a0 3a c1 da 3b 61 59 b8 3c 0b a3 9e bc ce 14 32 3d
       0.0066758664 0.022503557 -0.019364854 0.043476872
0001b0 cc 5d a7 bd 40 1a 8e bd 6e 7c b8 bd b3 2c 9c 3d
       -0.08172187 -0.069386005 -0.09008108 0.07625713
0001c0 91 f5 76 3d f2 37 80 3d 3e b7 4d bd 7e b6 1a 3c
       0.060292784 0.06260671 -0.05022358 0.009442924
0001d0 86 a0 aa bd 34 43 cb bc 52 34 82 3b af 68 37 3d
       -0.08331399 -0.024812318 0.003973522 0.04477757
0001e0 55 8a a9 3c f1 2d 1b 3d 31 ea b3 bd 82 9c 90 3b
       0.020695845 0.03788561 -0.08784903 0.0044131884
0001f0 70 6b 5e bc b3 d8 c6 bb a7 ec 9c bd c9 20 10 3d
       -0.01357542 -0.006068313 -0.07662325 0.035187516
000200 28 2a ce 3c ca f4 b2 bd da cb 52 3b 56 be da 3c
       0.025166586 -0.08738096 0.0032164962 0.026702087
000210 6d 19 4d bd dd 01 18 bd 29 e5 4a bd b0 80 b5 bd
       -0.050073076 -0.037111152 -0.04953495 -0.08862436
000220 79 bf 4d 3d 84 8e b0 3d c7 c0 38 3d 46 9a c1 3d
       0.05023143 0.08620933 0.04510572 0.094532534
000230 0c ba 89 3d c3 cd 99 bd cc 25 2a bd 8d 86 3b 3d
       0.06724939 -0.07509949 -0.041539952 0.045782614
000240 ec 44 81 3d 55 73 6c 3d 0d b4 b3 3d 42 79 51 3b
       0.06311974 0.057727177 0.08774576 0.0031963144
000250 04 e2 ce bc 7f 4e cb 3d cc 34 68 bc 68 a0 98 bd
       -0.025254257 0.09927081 -0.014172744 -0.0745247
000260 24 c8 a7 bd c0 c3 e5 3c 01 33 96 3d ab 35 47 bc
       -0.08192471 0.028047442 0.07333947 -0.012158792
000270 fb 27 36 bd 31 8c a1 3d 4f 05 d6 bc 56 2b a6 bd
       -0.044471722 0.078880675 -0.026125578 -0.081137344
000280 e6 47 57 3c 40 56 4d bd 3e e1 93 3c 3a 26 a3 3d
       0.0131397005 -0.050131083 0.01805174 0.079662755
000290 a5 77 bb 3d b2 81 a6 3d 6c 91 d9 3c be 52 94 3d
       0.0915368 0.08130206 0.0265586 0.07242344
0002a0 40 96 ab 3d 52 5e 15 bd de d7 8e bd 3e a0 82 3d
       0.08378267 -0.036466904 -0.06974767 0.0637822
0002b0 cb 6c b8 3d a6 a6 cd bc 7f de 67 bd ce d7 4b bd
       0.090051256 -0.025103878 -0.056608673 -0.049766354
0002c0 94 db 9e bb 23 93 9f 3c b9 5a d5 ba 43 a0 7b bd
       -0.004847953 0.01947934 -0.0016277648 -0.061432134
0002d0 a6 1a 32 3d be ba 9b 3d fe f6 9f 3c d3 11 ef bc
       0.043482445 0.076039776 0.019526955 -0.029183304
0002e0 b9 32 45 3d e3 fb 48 3d 94 a0 b3 bd ea 8b 9b bd
       0.048144076 0.049068343 -0.08770862 -0.07595046
0002f0 3e 55 c5 bc dd 12 02 3c 8b 91 b5 bd d9 1c cb bc
       -0.024088498 0.007939068 -0.08865651 -0.02479403
000300 9c fe 84 bd d8 43 78 3d 42 8e ac 3d 22 fc 68 bd
       -0.064938754 0.060611576 0.08425571 -0.056881078
000310 b6 be 07 bc 7e 02 da 3c f0 2c 7f 3b 39 2d e1 3c
       -0.008285215 0.026612516 0.0038936697 0.027487384
000320 d2 71 89 bc e5 42 b8 bd 5f 7a ed 3c 6f b8 14 bd
       -0.016777907 -0.08997134 0.028989015 -0.036308702
000330 47 4c 5d 3d bd 5c a9 3d a2 07 15 bc b7 f9 c0 3c
       0.054027822 0.082696415 -0.009096058 0.023556573
000340 69 ab 9b 3a 46 18 64 3c 0c a4 2f 3d a3 5c 13 ba
       0.0011876646 0.013921803 0.042881057 -0.0005621409
000350 08 d1 7e 3d 01 a6 65 bc fb 87 43 3c 49 f6 84 bd
       0.062211066 -0.014016629 0.011934276 -0.06492288
000360 3b 2b 90 3a 99 3e 82 3d 0e 92 41 bc 18 96 b2 bb
       0.0010999212 0.06359596 -0.011814607 -0.0054500215
000370 e0 4f bb bd d4 e1 c3 3d 13 44 71 3d e4 60 ac 3d
       -0.09146094 0.09564558 0.05890281 0.08416918
000380 b4 9a 4e bd 92 3e f7 bc 54 a0 8f 3d 3c d2 b6 bd
       -0.050440505 -0.030181203 0.07013002 -0.08926818
000390 4b 89 7e bd 13 1b 6d bc fa 73 4c 3d 1d 14 a8 bd
       -0.06214265 -0.014471787 0.04991529 -0.08206961
0003a0 5c fb 97 bc 28 d2 a2 3d 1b 77 45 bd a8 23 88 bc
       -0.018552475 0.079502404 -0.04820929 -0.016618565
0003b0 29 c8 96 bd 2a de 0b bd 8d c8 95 bd b7 73 33 bc
       -0.07362396 -0.03414742 -0.07313643 -0.010952882
0003c0 d7 aa 27 ba 1b 2c 62 3d cb 2b bb bd f5 07 90 3d
       -0.00063960016 0.055217844 -0.09139212 0.07032768
0003d0 81 8a 8f bd 38 05 ce bd 33 77 af 3d 22 16 d0 bc
       -0.070088394 -0.10059589 0.08567657 -0.025401179
0003e0 75 b3 86 bd 42 17 9f bd 3f 6d b3 bd c9 23 dc bb
       -0.065771975 -0.07768108 -0.087610714 -0.006718133
0003f0 01 15 1a 3d 39 c9 b4 bd b4 4f 91 bd 38 2d a0 3d
       0.037617687 -0.08827443 -0.0709528 0.07821125

lstm.weight_hh_l0 f4 [384, 96]
000000 1e 44 cd bc ee 29 df 3c db 6f 47 3d 9b fe e2 bc
       -0.025056895 0.027241673 0.048690658 -0.027709296
000010 a4 48 b6 3d f9 90 0e bc 0c ac e8 38 f2 d1 00 3c
       0.08900574 -0.008701556 0.00011094668 0.007862555
000020 89 02 5c 3c 95 35 86 bd 47 ce 29 3c 57 ea a3 bd
       0.013428339 -0.06553189 0.010364122 -0.08003681
000030 a1 b7 02 3c 95 53 b5 bb 67 d8 4a bd 81 e0 51 bd
       0.007978351 -0.0055336454 -0.049522784 -0.051239494
000040 d2 47 94 3d a2 6e 48 bd b2 1f 9a bb 94 fa 1a 3c
       0.07240261 -0.048933633 -0.0047034854 0.009459157
000050 43 af 6c bd 3d c5 09 bd da b4 61 bd 69 75 62 bc
       -0.05778433 -0.033635367 -0.055104114 -0.013821938
000060 25 19 4d bd 82 c1 57 bc ae 9c 0a 3c 50 3b 8b bd
       -0.050072808 -0.013168694 0.008460207 -0.06798422
000070 83 a1 62 bc 7f 54 bb bc 0b a1 3b bd e5 01 95 bc
       -0.013832453 -0.02286744 -0.04580788 -0.01818938
000080 21 62 79 bc e0 ac 4c bc 2e 71 20 3d 00 30 48 bd
       -0.01522115 -0.0124923885 0.039170437 -0.0488739
000090 08 1f 9d 3d 7f 52 4c bd 5e ce a0 bd f0 55 b8 bc
       0.07671934 -0.049883362 -0.078518614 -0.022501916
0000a0 4f 41 aa 3d fd 5f 02 bd 84 d5 65 3d d2 dc 29 bd
       0.08313238 -0.031829823 0.056111827 -0.041470356
0000b0 a4 9d 40 3d a2 3a 6a 3d f3 66 50 3d fc fc 5f bd
       0.047025338 0.057184823 0.05087943 -0.054684624
0000c0 80 4d 9c 3b 19 dd d9 3c 58 13 b6 bd 09 ce ec 3c
       0.004769981 0.026594685 -0.08890408 0.028906839
0000d0 2b 56 66 3b 74 7f 73 3c 21 9d bc bc 44 76 63 bd
       0.0035146575 0.01486193 -0.023024144 -0.05553271
0000e0 4f 9a 9c 3c 6d 6e 01 3b b6 a4 5f bc 1c 3e 35 3d
       0.019116549 0.0019749657 -0.01365011 0.044248685
0000f0 02 77 63 bd f9 b7 c0 3c 83 3b 03 3c a8 46 34 3d
       -0.055533417 0.023525225 0.008009794 0.044012696
000100 28 c5 99 3d c3 9f fc bc 9c a0 72 3c 3d 7b be bc
       0.07508308 -0.0308379 0.0148088 -0.023252124
000110 4c 28 2b 3d 69 75 88 3d fc 51 46 3d 15 90 ff 3b
       0.041786477 0.06663019 0.04841803 0.0077991583
000120 7b 5c 53 bd 60 10 76 3d e8 43 d8 3c 9e df 8b bd
       -0.051601868 0.06007421 0.026399568 -0.06829761
000130 46 5a c0 bb 37 6c 13 3d 26 82 85 3c 2b aa 45 bc
       -0.0058701364 0.035991874 0.016297411 -0.012064497
000140 af 6b 87 ba 8e c5 10 3d d1 8f 8d 3d c2 33 e0 bc
       -0.0010331775 0.035344653 0.069121964 -0.02736843
000150 25 dc 24 bd e4 33 20 bd ad 2d 29 3d 26 df 0d bd
       -0.04024901 -0.039111987 0.041303325 -0.03463664
000160 9c 2a c9 3c 4a ec b9 bc 98 1d 3c 3d d8 52 83 3c
       0.02455645 -0.02269568 0.04592666 0.016030714
000170 e0 12 9e bd 28 f7 95 39 c1 fa 54 bd a3 85 8d bd
       -0.07718444 0.0002860364 -0.05199695 -0.06910255
000180 48 8a 54 3d 7f d3 99 bd d0 87 73 bc 6d 2a 33 3d
       0.051889688 -0.07511043 -0.014863923 0.043741632
000190 74 86 31 bc e1 df 6b 3d a2 37 98 3d e0 fe 83 bc
       -0.010835279 0.057586554 0.07432486 -0.016112745
0001a0 28 f0 b9 bc 60 8c cb 3c 9b 10 a6 bd 23 e2 c5 3d
       -0.022697523 0.02484721 -0.08108636 0.09662273
0001b0 d4 32 e8 3c 56 e5 40 bd 4c d9 63 bd 82 ea c4 bc
       0.02834455 -0.04709371 -0.055627152 -0.024037603
0001c0 ac f0 10 3d 54 35 9d bd fd f3 86 bd ad 2e e7 bc
       0.035385773 -0.07676187 -0.06589506 -0.028220499
0001d0 d8 db 80 3d bb ce 22 3d b1 fa 69 3d d4 22 91 bd
       0.06291932 0.039747935 0.057123844 -0.07086721
0001e0 b7 48 fd 3a 4c 8d 1c bb 46 bc 44 3d 78 7c b8 bc
       0.0019324039 -0.002388793 0.048031114 -0.022520289
0001f0 dd 38 e0 3c 6c 69 ea 3c c5 7f 60 3d 47 96 89 3d
       0.027370865 0.028614722 0.05480935 0.06718116
000200 5d 99 1a bd d4 8a 82 3c fd 74 a4 bb 97 18 44 bd
       -0.037743915 0.015935339 -0.005018829 -0.047875013
000210 f4 78 27 bd dc b0 d3 3c 9f 9b 80 3d 2f 6a 31 3d
       -0.040886834 0.025841169 0.06279682 0.043314155
000220 ed 7e 14 3d 53 d5 5c 3c 00 5a 2e 3c 92 0b 73 3d
       0.03625386 0.013478595 0.010641575 0.059337206
000230 41 3d a7 3d af a3 a1 3c 0c d2 98 3d 72 81 3f 3d
       0.0816598 0.01973137 0.07461938 0.046754308
000240 8e 5b 59 bd fd c2 06 bd 0d f9 b8 bc d1 63 b2 3d
       -0.05306583 -0.0329008 -0.022579694 0.08710445
000250 7e dd 50 3d 72 d5 0e 3d 6c 80 84 3d eb fe 5f bd
       0.05099248 0.034871526 0.06469807 -0.054686468
000260 8e de 24 bd 27 e4 82 3b 63 69 92 3d 50 47 aa 3d
       -0.040251307 0.003994483 0.07149007 0.08314383
000270 2f bf 91 bd e7 41 02 bd b3 fd 95 bd a6 40 10 3d
       -0.071165435 -0.03180113 -0.0732378 0.035217904
000280 6d ed 2b 3d 9a c6 74 bd 9e cf c5 3d eb 6c 59 bd
       0.041974474 -0.059759714 0.096587405 -0.053082388
000290 3d 28 98 bd c1 40 92 bd ee a5 27 3c 50 c6 90 3d
       -0.0742955 -0.07141257 0.010232432 0.07069075
0002a0 db 47 a7 3c 59 0f 8e 3d dc 29 8f bc 79 90 ab bc
       0.020420006 0.06936521 -0.017476015 -0.020942913
0002b0 ed 7a bf 3c 79 9c 21 bd 9c ca 18 3d 61 35 1b 3d
       0.023374045 -0.039455865 0.0373026 0.037892703
0002c0 25 f6 3b 3d cd 55 68 3c a1 10 94 bc 2c 5c 9b 3d
       0.04588904 0.014180613 -0.018074336 0.0758594
0002d0 fe f9 11 bc 64 9e 95 bd 14 90 1b bd b9 ac 55 bd
       -0.0089097 -0.07305601 -0.0379792 -0.052166674
0002e0 f4 f9 46 bc dc 1a 57 3d 19 a8 78 3d 37 dd 69 3d
       -0.012144554 0.05251585 0.060707185 0.057095733
0002f0 87 dd 96 bb 53 64 83 3c d6 fd fb 3b 92 dc 7d 3d
       -0.004604045 0.01603905 0.0076901717 0.06197793
000300 35 66 dd 3b ab ef 50 3c 53 3a 71 3c 1d 11 83 3b
       0.006756569 0.012752454 0.014723378 0.003999843
000310 e0 12 1f bb 9b 03 9b 3c 75 17 88 bc 9e 92 50 bc
       -0.0024272725 0.018922618 -0.016612748 -0.012730269
000320 9c 4e 03 bb 76 36 2e bd 7e 4f 45 3c fd 83 7d 3d
       -0.0020035869 -0.042532407 0.012042878 0.061893452
000330 28 06 ab bc 30 56 7f bc c1 85 08 3d 48 6b 9d 3c
       -0.020876959 -0.015584514 0.033330683 0.019216195
000340 c1 99 5b 3d e5 44 59 3c 5b 08 ba 3c 46 bc f2 3c
       0.053613428 0.013261055 0.022709062 0.029630791
000350 91 72 5e bc eb 09 2e b9 51 1f 9f bc 34 c7 83 3a
       -0.013577119 -0.00016597628 -0.019424113 0.0010053874
000360 5b 65 54 bd d3 1d 2f 3d cc b3 0a bd f7 95 fd 3b
       -0.051854473 0.042753052 -0.033862874 0.0077388245
000370 9a a6 36 3c 46 33 45 bc 77 b9 95 bc 11 b1 6a 3c
       0.011148119 -0.01203615 -0.018276913 0.0143244425
000380 86 9b 05 bd 3f 09 e2 bc 53 9d 13 bc a2 f4 ed 3c
       -0.03261902 -0.0275923 -0.009009677 0.029047314
000390 a1 09 47 3b 89 dd b9 3c d9 76 c2 bc d9 3b d1 3c
       0.003037073 0.022688644 -0.023738312 0.025541233
0003a0 1a 3d cd b9 d8 59 09 3d ac 78 df bb 6a 14 1b 3b
       -0.0003914617 0.033532947 -0.006819805 0.002366329
0003b0 36 2d 89 3c c7 9c 1d bd 73 00 3a bc ab c6 36 bd
       0.016745191 -0.038479593 -0.011352646 -0.04462306
0003c0 bf e5 a1 bc 77 bc 6d bc 23 05 fa 3c 02 b7 52 3c
       -0.019762872 -0.014510266 0.030520028 0.012861015
0003d0 e3 2f 63 bc fb b2 d8 3c 5c 67 8e 3c df 9d ce 3c
       -0.013866398 0.026452532 0.01738327 0.025221763
0003e0 26 14 14 3d 61 9c 4c bc 62 77 3f 3d 74 5c 54 3c
       0.036152028 -0.0124884555 0.04674471 0.012961496
0003f0 0a ef 5b bd 63 2a be 3b 2b d3 19 bd f7 b4 7d bb
       -0.053694762 0.0058033927 -0.0375549 -0.00387126
