checkpoints/ultra_v3_seed123_20251128_162057.pt (torch, 515225 bytes, 16 tensors)

cnn.0.weight f4 [32, 1, 7]
000000 e5 9f e2 bd c6 8a 5e 3d 4a 0d 09 be 59 1c 39 3e
       -0.11065654 0.054331563 -0.13383976 0.1807722
000010 bd 6e 89 be 5f 35 96 3e 2d 87 81 be dc 1a 8f be
       -0.268423 0.29337594 -0.25298443 -0.2795018
000020 73 9b 63 be 40 9d 2d 3e bb 5a 09 be 9f e9 01 3e
       -0.22227268 0.16954517 -0.13413517 0.12686776
000030 22 28 a8 be 8c 6b 81 be 26 90 84 be b1 d4 32 be
       -0.3284312 -0.25277364 -0.25891227 -0.17463948
000040 8e 9c b0 be 7f 7f 5a 3e 30 5c 87 bd a0 f3 30 3e
       -0.34494442 0.21337698 -0.0660938 0.17280436
000050 7f ae ae 3e fb fa 72 3d 0f af b9 3d f1 08 af 3e
       0.34117505 0.059321385 0.09066593 0.3418651
000060 85 1d 33 be 18 08 d6 3d b1 a8 30 be fe 78 76 3e
       -0.1749173 0.104507625 -0.1725185 0.24069592
000070 2e 71 27 3e fc 31 ee be 29 33 34 3e b4 db 81 3d
       0.16351768 -0.4652251 0.17597641 0.06340733
000080 7e 7b a3 3d 5b 33 ca 3d 5c 43 89 3e a2 5b 9b bc
       0.07982539 0.098730765 0.26809204 -0.018964592
000090 03 63 91 be bb 5e aa bd eb 92 6f be fe 55 41 3d
       -0.28395852 -0.0831885 -0.23395889 0.04720115
0000a0 36 18 3a bd 64 53 35 be ec a2 28 bd b5 d5 9f 3e
       -0.045433246 -0.17707592 -0.041171 0.31217733
0000b0 61 89 80 bd 26 ce dd bc 7b d6 af bd d5 d9 37 3d
       -0.06276203 -0.027075838 -0.08585831 0.044885475
0000c0 d2 a5 aa 3e 72 78 7c 3e 3a e4 0c 3e 7e 8c 7f 3d
       0.33329636 0.24655321 0.13758937 0.062389843
0000d0 c3 ff 12 3d be 31 5e 3d b3 9e 28 be 8d e4 f4 be
       0.035888445 0.054246657 -0.16466789 -0.4783062
0000e0 60 24 54 be d2 0b 9c 3e fe 37 99 38 ae ee a9 be
       -0.20717001 0.30477768 7.306038e-05 -0.3318991
0000f0 b2 c2 06 ba fd 2b 67 3e 32 a4 da be 19 b7 63 be
       -0.0005140706 0.22575374 -0.42703396 -0.22237815
000100 86 14 e0 bd bb d4 70 3d 13 4e 07 bd a0 1e 3c 3c
       -0.109414145 0.058796626 -0.03303344 0.011481911
000110 f1 0e 9b be c8 e1 50 3e b6 2e c5 3e cd f1 71 3e
       -0.30284837 0.20398629 0.385122 0.23627396
000120 fc 44 96 be 7a 4d ba be 39 7e 85 3d de b1 a3 bd
       -0.29349506 -0.36387235 0.06518216 -0.0799291
000130 67 b6 a0 3d e8 f0 b6 be 9d 3c 9f bc 06 a1 85 3e
       0.078472905 -0.35730672 -0.019438082 0.26099414
000140 4a 88 33 3e 0e 60 b5 3c 7e ca b0 3d 84 12 8d bc
       0.17532459 0.022140529 0.08632372 -0.017220743
000150 1c 14 7b be bb 57 20 be d1 8d 53 be 81 89 ad 3e
       -0.2451939 -0.15658467 -0.20659567 0.3389397
000160 61 ec 81 3e fc 17 3b 3e c0 1b 6c be f0 61 6d 3e
       0.25375655 0.18270868 -0.23057461 0.23181891
000170 e7 03 4a 3d 15 97 29 3e 92 1f 62 be fe 6c 96 3b
       0.049320128 0.1656154 -0.22082356 0.0045906296
000180 0b a0 9a 3e d9 f8 6c 3e 2f 2b b4 3e 93 08 ee bc
       0.30200228 0.23141803 0.35189196 -0.029056823
000190 39 0d a4 3e b3 7b 80 be be 09 25 3d 24 16 69 be
       0.32041338 -0.25094375 0.040292494 -0.22762352
0001a0 aa d7 0d be fa e8 13 be c4 8d 31 bc 11 cd 9c 3e
       -0.138518 -0.14444342 -0.010837022 0.30625203
0001b0 ad 2f 28 3e 10 5a a5 bc 21 93 67 3e 72 68 6c be
       0.16424437 -0.020184547 0.22614719 -0.23086718
0001c0 29 38 84 3e db 21 a5 3c 08 fa 1e bd e4 20 0a 3d
       0.25824097 0.020157745 -0.038812667 0.033722773
0001d0 10 93 9c be 61 de 32 bc 17 e6 66 3d 48 82 9f 3e
       -0.3058095 -0.010917277 0.056371775 0.31154084
0001e0 1b 91 d7 bd 43 31 f3 3d f9 5d a5 3e fb 39 53 be
       -0.105257235 0.1187463 0.32298258 -0.20627587
0001f0 17 4f 83 3e a5 4b 8b be 3a be 3f 3e 6c 45 1b 3e
       0.25646278 -0.2720615 0.1872491 0.15163201
000200 41 b9 c1 3d 38 5a 86 3e ea 20 32 be 66 ac 5d 3d
       0.094591625 0.26240706 -0.17395368 0.05411949
000210 fb 84 38 bd 9a b0 95 be f0 91 c4 bd 86 79 69 be
       -0.045048695 -0.292363 -0.09598148 -0.22800264
000220 1a 59 45 3e 04 68 ad 3d bb 10 ba 3d 26 b4 88 bd
       0.19272271 0.08467105 0.09085222 -0.066749856
000230 ab 9d fc bc e2 92 00 be 36 7e de 3d c2 fb ba 3e
       -0.0308369 -0.12556031 0.108639166 0.365202
000240 f3 ac 7a 3d cd 2a 30 be 14 95 85 be da 3f b1 3d
       0.061200093 -0.17203827 -0.260903 0.08654757
000250 1f c7 64 be 71 d2 66 be b1 8d 2f be 6c c2 05 bd
       -0.22341584 -0.22541215 -0.17143895 -0.03265612
000260 13 1e 0e 3e 65 6a bd 3e ef 2b 4c 3e ba f6 a5 3e
       0.1387866 0.36995235 0.19938634 0.324148
000270 07 72 4f be 13 cc 09 3d 62 6f b3 be db 32 09 3e
       -0.20258342 0.033641886 -0.35045916 0.13398306
000280 31 99 16 bd e6 90 83 3e 35 b5 ac be 3f 82 40 3e
       -0.03676719 0.25696486 -0.33732 0.18799685
000290 c1 5b 56 3e f4 9d 5a 3e 95 6b e4 3b f5 4b 9d 3e
       0.20933439 0.21349317 0.0069708326 0.30722013
0002a0 34 9d a5 3e e8 83 ab 3e ea 10 4b 3c 1d 7d 8d be
       0.323465 0.33499074 0.012394169 -0.27634516
0002b0 1c a9 05 bd 72 5a 92 3c 30 de a0 be e6 c4 69 be
       -0.03263198 0.017865393 -0.31419516 -0.22829017
0002c0 2b 4e ad be 3d 56 b8 bd 9c 9f be 3e 0e 16 06 3e
       -0.338487 -0.09000824 0.37231147 0.1309435
0002d0 99 48 54 3d 03 2b b9 3d 6d 83 6a 3e d6 c7 a5 be
       0.051827047 0.09041407 0.22901697 -0.32379025
0002e0 66 ad 8f be 3d b3 db bd ef a6 2c be 28 30 82 3e
       -0.2806198 -0.10727546 -0.16860555 0.25427365
0002f0 5c 30 b3 3e 95 0b b2 be 61 b4 91 be 50 fa 9e be
       0.34997833 -0.3477446 -0.2845793 -0.31050348
000300 ec 51 47 3e 89 6b b7 3e b4 08 58 be 8f 96 d1 bd
       0.19464844 0.3582423 -0.2109707 -0.10233795
000310 cc d0 c1 3d 83 2c 86 be 63 5d 8f 3e 8d 9d 80 3d
       0.09463653 -0.26205835 0.28000936 0.062800504
000320 88 3c e6 bd d1 4c b5 3c ae 6d fb 3d 9e 8c 28 be
       -0.11242014 0.022131355 0.12276779 -0.16459891
000330 3e 46 9b be 23 c6 7d ba 8f 27 ab 3c 23 90 1f 3d
       -0.30327028 -0.0009680709 0.020892886 0.03895582
000340 4c 5e be bb db b0 99 3e 3c d1 2a be dc 31 c3 bd
       -0.005809581 0.30017743 -0.16681379 -0.09530994
000350 be 18 dd 3d 51 40 7c be 89 c6 f5 3d 34 e0 ba bc
       0.10795735 -0.2463391 0.12000758 -0.022811987
000360 c0 27 84 3e e3 f2 24 be 8a 34 3c 3d f3 83 86 3d
       0.25811577 -0.16108279 0.045948543 0.06568136
000370 50 d6 83 be 1e fd 6a be 44 bb 2c 3e b8 65 8a bd
       -0.25749445 -0.22948119 0.16868311 -0.067576826

cnn.0.bias f4 [32]
000000 00 c0 0a 3e ff 89 c0 be e9 c1 8e bd b2 6b b8 be
       0.13549805 -0.37605283 -0.06970579 -0.36019665
000010 a8 8a 13 3e 2d 67 0f bd 89 bd e3 bc c6 f6 dd bc
       0.14408362 -0.035010505 -0.027800338 -0.02709521
000020 2b 91 88 be 1c 53 89 3d e7 96 89 3c 26 45 b5 be
       -0.26673254 0.06705305 0.016795589 -0.3540432
000030 5c b3 f2 3d d5 a3 e5 bc 3a 61 c9 be e8 02 2d 3e
       0.11850616 -0.028032223 -0.3933199 0.1689564
000040 43 98 e7 3d d5 ca 89 bd 64 39 85 be 8f 6f 1a 3c
       0.113083385 -0.0672814 -0.26020348 0.009426012
000050 58 60 4e 3e 20 61 7a 3e d3 59 85 be 08 a1 22 be
       0.2015394 0.24451113 -0.26045093 -0.15881741
000060 56 09 61 3e ce bc 15 3e e6 fc 3a 3e ab f8 69 be
       0.21976218 0.14622805 0.18260536 -0.22848766
000070 eb f1 84 3e 14 ab ac be 6d ee e8 bc 1f 3f cd bc
       0.2596582 -0.33724272 -0.028434003 -0.025054513

cnn.4.weight f4 [64, 32, 5]
000000 ee 7c 97 3b 0f e8 41 bd f9 b0 7e 3d 7b fa 9e 3d
       0.004623047 -0.04734045 0.062180493 0.07762619
000010 a7 e9 9f bc 55 da 93 3c df fa 84 bc 84 c7 90 3d
       -0.019520594 0.018048445 -0.016232906 0.070693046
000020 a0 42 26 3d 0f 3f 8f 3d 60 3c 36 bd 24 a6 e6 bc
       0.040590882 0.06994449 -0.04449117 -0.028155394
000030 02 0b 2b 3d a8 51 8b bc cd f4 79 bd ac ce 34 3d
       0.041758545 -0.01700671 -0.061024476 0.04414241
000040 3a a8 a6 3c 6f 79 bc bc de d7 d5 bc 91 42 4f bd
       0.020343889 -0.023007123 -0.02610391 -0.050600592
000050 64 7d 9c bc c7 3d 1f bd e4 57 23 bd 97 ab 9b bd
       -0.01910276 -0.038877275 -0.03987874 -0.076010875
000060 5c 39 52 bc a1 6e 95 bd db 17 a0 3d 00 7f ad bc
       -0.012831058 -0.072964914 0.0781705 -0.021178722
000070 55 45 96 3a ab d8 b1 3d 99 c1 f1 3c 5f ab 33 bc
       0.0011464754 0.08683904 0.02951126 -0.010966151
000080 bd 9b 42 bd 43 1c 0f bd 62 13 a6 bb 75 8f c2 bc
       -0.047511805 -0.03493906 -0.0050682286 -0.023750046
000090 d4 1f 3a 3d ad 84 f6 bc c2 c9 d2 3c d5 0c ff 3d
       0.04544051 -0.030092562 0.025730971 0.124536194
0000a0 89 a0 79 3c 87 e3 04 3b 21 a4 8f 3c 40 c1 a6 3c
       0.0152360285 0.0020277218 0.017534317 0.02035582
0000b0 c9 27 32 3d 1f 26 b7 3c 6f 18 63 3d dd 07 80 3b
       0.043494973 0.022357045 0.055443224 0.0039071874
0000c0 72 4a 27 bc 80 b9 1e 3d 80 23 3f bc e0 75 2f bd
       -0.01021062 0.038751125 -0.011666179 -0.042837024
0000d0 25 be ff bc cf fb d4 3a 9e 42 a1 3b 6a b1 25 bd
       -0.031218598 0.0016249361 0.0049212715 -0.0404524
0000e0 67 f6 5a bd 19 df 55 3c 4f 69 68 3c 53 14 01 bc
       -0.053457644 0.013053679 0.014185264 -0.007878381
0000f0 5a f3 98 bd 27 5f 7f bd 2c 7c 88 3c 25 29 81 bc
       -0.074682906 -0.062346604 0.016660772 -0.01576669
000100 3f 00 52 bd b3 a9 7e bc 70 f3 63 3d 60 e3 0b 3d
       -0.051269766 -0.015543389 0.055652082 0.03415239
000110 53 d9 4c 3c bc 5b 9e bd 34 a2 01 bd 95 ad 20 bc
       0.012502986 -0.07732341 -0.03164883 -0.00980701
000120 f1 1e e2 bc 9f cb 17 3c 0a 98 9c 3d 2f 8b 11 bd
       -0.027602645 0.009264856 0.07646187 -0.035533126
000130 7c 2b f9 bc 47 1a 2b 3d e6 41 35 bc 20 38 75 bc
       -0.030416243 0.041773107 -0.011063075 -0.0149669945
000140 ba ac 13 bd 86 2a 07 bd 6b fc 69 3d 85 7f ac 3c
       -0.036053397 -0.032999538 0.05712549 0.0210569
000150 aa 84 10 ba ad 6b 86 3d 87 91 d9 bc 31 17 4f bd
       -0.00055129325 0.06563506 -0.02655865 -0.050559226
000160 4a 62 6e bd 01 b8 96 3c 0e f9 0b 3b 64 3c 1f 3d
       -0.058199205 0.018398287 0.0021358165 0.038875952
000170 a7 2f 46 3d 43 68 48 3c 44 b5 4a 3d 7e 82 01 bd
       0.04838529 0.012231889 0.049489275 -0.031618588
000180 ce dc 4a 3d 44 33 df bc 22 21 db 3a 2f d7 38 3d
       0.049526982 -0.027246125 0.0016718248 0.04512709
000190 36 da 0d bd a6 87 4e 3d ae d4 88 3c 9e 95 92 3c
       -0.03463193 0.050422333 0.016702976 0.017893609
0001a0 6e 01 b6 3d e3 22 d8 3c 61 50 10 bd a2 45 a7 3a
       0.088869914 0.026383823 -0.035232905 0.0012761841
0001b0 43 8c 67 bb 39 01 a5 3c b1 fe 5f bc 65 0c 84 3b
       -0.0035331405 0.020142185 -0.013671563 0.004029798
0001c0 91 fa ac 3b 9c 47 3a bd 99 e0 84 3c fc ba 9c bc
       0.0052788933 -0.04547845 0.016220378 -0.01913213
0001d0 64 ca 59 3d 8f 92 03 3d b6 02 ed bc 9b 7e 24 bd
       0.05317153 0.03212219 -0.028931957 -0.040159803
0001e0 76 26 c0 3c 17 ce e9 3c b0 36 5b bd 37 90 78 3c
       0.02345584 0.028540654 -0.05351895 0.015171102
0001f0 b8 66 81 3d df f5 86 bb fd bf ef bb a0 eb 40 bc
       0.0631842 -0.0041186656 -0.007316588 -0.011774927
000200 71 a7 9a bd 5b 22 3b 3c d3 84 9c bd 3b ed 1d bd
       -0.07551468 0.011421765 -0.07642522 -0.03855632
000210 64 66 bb 3a cf ff 92 bb e9 a5 36 bc 8f 96 97 bc
       0.0014297483 -0.004486061 -0.0111479545 -0.01850441
000220 8f 51 ff bc 00 0d be bb 12 a5 34 3d cb 45 74 bc
       -0.03116682 -0.0057998896 0.044102736 -0.014909218
000230 e5 31 68 bd 77 11 a6 3c 29 c4 61 bd 3b 5f 2b bd
       -0.056688208 0.020272 -0.055118714 -0.041838866
000240 a5 33 e0 3c f2 99 83 bd 50 47 f3 bc 25 8d e6 3c
       0.027368376 -0.06425847 -0.02969709 0.028143475
000250 51 17 13 bc 85 a7 1f bc cf b0 f2 bc 0c ad ff bc
       -0.008977727 -0.00974453 -0.029625325 -0.031210445
000260 9b 0d 17 3d f5 81 1e 3c f5 2f bc bc f8 94 be 3c
       0.03687821 0.009674539 -0.022972086 0.023264393
000270 d2 27 62 bc eb 4f 54 3d cb 80 1e bd d2 9c 58 bc
       -0.013803439 0.05183403 -0.038697045 -0.013220983
000280 26 5b 37 bd 91 d1 8d 3c 43 18 dd 3a 5e f7 25 3d
       -0.04476466 0.017311843 0.0016868192 0.04051911
000290 e6 63 4a 3d d2 1a 5f bc 67 34 d9 bc 7c 4d 2d bd
       0.049411677 -0.013617234 -0.026514245 -0.042310223
0002a0 26 53 05 bd 97 4c 1f bd c4 af 63 3d 6a bf 7a 3d
       -0.03255 -0.0388914 0.055587545 0.061217703
0002b0 ed 31 ba bb 2a f7 76 3d e9 52 cc 3d a4 2f 60 bd
       -0.005682221 0.060294308 0.09976751 -0.054732934
0002c0 e4 50 71 bd 4f 7c 41 bd 21 48 e1 bc c7 f6 c4 3c
       -0.058915034 -0.04723769 -0.027500214 0.024043454
0002d0 be c3 09 3b 06 50 da bb 64 c1 3e 3d dd b1 62 bd
       0.0021021212 -0.0066623716 0.04657115 -0.055345405
0002e0 64 4b 44 3d 20 56 38 38 70 4a cf bd a3 71 e7 bd
       0.04792346 4.394923e-05 -0.1012162 -0.11300971
0002f0 ab 7e fe bc 28 db ad bd 2e 84 c9 3c 45 93 6c bd
       -0.03106626 -0.08489066 0.024599161 -0.057757635
000300 0e 12 6c bd dc af 16 bc 18 ef e1 bc b1 be e9 bd
       -0.057634406 -0.009197202 -0.02757983 -0.114133246
000310 03 1e 14 bd 60 78 de bc 6b cf f8 bc d6 3e 6f bb
       -0.036161434 -0.027157009 -0.030372342 -0.003650596
000320 11 39 18 bc bd 3b 89 bc 9a 7c 4a bc 68 e5 0d bc
       -0.009290949 -0.016752118 -0.012358809 -0.008660652
000330 39 b4 c6 bb c9 3b c3 bd b4 ea 32 bd a1 2e 98 bd
       -0.0060639647 -0.095328875 -0.04368086 -0.07430769
000340 27 26 39 3d 8b ab 6e bc ae d0 a2 3d ed 81 93 3d
       0.0452024 -0.014567266 0.07949959 0.07202516
000350 97 01 b0 bc 4a 55 a5 3d 54 42 85 bb 3c 67 2f bd
       -0.021485133 0.08072908 -0.004066745 -0.04282306
000360 43 49 03 bd df 56 4f bc 74 d9 01 3b fe 6a 6e 3c
       -0.03205229 -0.012654989 0.001981345 0.014551876
000370 2f 3d 5d bd f0 10 32 bd 56 d0 03 bd 70 5e b7 3c
       -0.054013427 -0.043473184 -0.032181107 0.022383898
000380 ce ee ff bc 90 c2 6f bd ce 37 46 bd 89 15 2f 3d
       -0.0312418 -0.05853516 -0.048393063 0.042745147
000390 70 67 a2 bd 8a 61 50 bd 9d bd b6 bb 68 b6 81 bc
       -0.079298854 -0.05087427 -0.005576803 -0.015834048
0003a0 d7 1a 38 bb f5 16 d2 bc d0 11 6f bd 4a 79 09 bc
       -0.002809217 -0.025645712 -0.058366597 -0.008390734
0003b0 a6 09 7f 3c 8e 2d 2d 3d e0 0c a0 3b a9 d9 1c bd
       0.015566265 0.042279772 0.0048843473 -0.038293514
0003c0 34 21 2d 3c 60 e9 dd 3b a0 a3 02 3c 72 78 3a 3d
       0.010566998 0.0067722052 0.007973582 0.04552502
0003d0 46 1e 26 bc a6 89 a5 bb 51 d9 98 bc 0b 31 cd 3a
       -0.010139054 -0.0050518094 -0.018658312 0.0015654875
0003e0 7e e4 4c bd 99 14 a2 bd 44 eb cc bd 6a d7 3e bd
       -0.050022595 -0.07914085 -0.10005811 -0.046592154
0003f0 ec 5d 16 bc 47 33 be bb 14 d9 f1 bc b2 33 69 bd
       -0.009177666 -0.0058044526 -0.029522456 -0.056934066

cnn.4.bias f4 [64]
000000 cc 0d f2 bb c9 21 27 bc cc 9e 90 bd b5 8e 5c bd
       -0.0073868986 -0.010200926 -0.07061538 -0.053847034
000010 8d ff b8 3b 99 55 c7 bc ea f5 87 3c 9b 14 55 bd
       0.0056456984 -0.024332808 0.016596753 -0.052021604
000020 c2 fd 76 bc 09 01 9f bd bb 49 84 bc 47 df 2f bd
       -0.015075149 -0.07763869 -0.016148439 -0.042937543
000030 b0 1e 08 bb 25 af c2 bc da 87 84 bd 6c fc 84 bd
       -0.0020770244 -0.023765156 -0.06471224 -0.06493458
000040 51 43 1f 3d 57 d1 cd 3c 73 07 85 bd d7 cc ae 3c
       0.038882557 0.025124235 -0.064955615 0.02133791
000050 d2 01 2a 3d ec ea 75 3d eb d5 fc bb e8 30 28 bd
       0.041505642 0.060038492 -0.0077159307 -0.041062266
000060 0f a5 30 3d 80 08 a0 bd 86 53 ee bd 53 0e 7a bd
       0.043126162 -0.07814121 -0.116370246 -0.061048817
000070 5d 53 85 bd bf 15 b3 3b c6 49 ce 3c 84 7a 7c 3b
       -0.06510041 0.005465239 0.025181662 0.0038525173
000080 30 4d ed 3c aa c7 c9 39 eb fd 02 bd 6e 8b f1 bd
       0.02896747 0.0003848647 -0.031980436 -0.11794172
000090 4b a6 78 bd c3 b7 2e be 0c b7 8a 3c 8c c0 6b 3d
       -0.060705464 -0.17062287 0.016932987 0.057556674
0000a0 a3 4b be bb bc a0 3e 3d 85 40 7f bd dc 22 61 3d
       -0.0058073564 0.046540007 -0.06231739 0.054964885
0000b0 18 ba 85 3d d9 f3 8c 3d cb e4 ad 3b 5f 6c aa bc
       0.06529635 0.06882448 0.0053068153 -0.020803628
0000c0 1e ad 0b 3d db 7f 42 3c 07 0f 4f 3c ea 9f a3 3c
       0.034100644 0.011871303 0.01263786 0.019973714
0000d0 6a 21 19 bd 9f 30 68 3d 8b 5c 9d bc bc 1a 9b bd
       -0.03738538 0.056686994 -0.019209167 -0.075734586
0000e0 73 49 65 bd 50 c2 32 3b f5 bc 01 bd 6e 3c 77 bd
       -0.05597825 0.0027276464 -0.031674344 -0.060360365
0000f0 d6 70 d4 bc 98 9b 39 3d b7 77 9a 3c 6b 0d a1 bd
       -0.02593271 0.0453144 0.018855913 -0.078638874

cnn.8.weight f4 [128, 64, 3]
000000 b1 9e e3 3b 32 ae 4f bc a9 4f b5 3c b0 fb 64 3d
       0.0069464077 -0.012675809 0.022132711 0.05590409
000010 a8 b9 9c bc 6c af 5d 3d f6 d0 19 bd d2 74 b4 bb
       -0.019131497 0.054122373 -0.037552796 -0.00550709
000020 17 1c e9 bc 96 9e 00 3d ed 2b 2b 3d a7 38 b0 3c
       -0.028455777 0.03140124 0.041789938 0.021511389
000030 3b 43 b0 3c 80 cf 1f 3d 00 31 10 3d 87 32 76 3d
       0.021516433 0.039016247 0.03520298 0.06010678
000040 ec 03 95 3c 5a a2 49 3d 60 22 e9 bc 36 de a1 bc
       0.018190347 0.049227096 -0.028458774 -0.019759279
000050 f1 b5 0f bc 09 cf 8d 3a 6d b0 15 bd b5 1c 13 3c
       -0.008771406 0.0010819148 -0.036545206 0.008979012
000060 7d c1 99 3b d8 90 0e bd e4 29 88 3c 4d c7 1f 3c
       0.004692255 -0.034806103 0.016621538 0.009752107
000070 92 cd 8f bb be 1a 58 3c 73 4b 94 bc 86 e0 95 3b
       -0.0043885196 0.01318997 -0.018102383 0.0045738844
000080 3c 67 56 3d 4e e7 a2 bc 01 2f de 3c 20 16 9a 39
       0.052344546 -0.019885685 0.027122023 0.00029389653
000090 0b c2 97 bc 49 42 ea bc 0c 8c 24 bd 67 87 dd 3b
       -0.018525144 -0.02859606 -0.04017262 0.006760526
0000a0 d7 a8 ff 3c aa ad ad 3c c4 a1 cc 3c 14 c2 b0 bc
       0.031208439 0.021200974 0.02497948 -0.021576919
0000b0 2d 48 eb 3c 25 1c e4 3d cf 12 01 3c 31 53 b6 3c
       0.02872094 0.11138181 0.0078780195 0.022256466
0000c0 a9 0a f6 bb 06 18 17 bd c4 b3 23 3d 2f ce 18 3c
       -0.007508595 -0.036888145 0.03996636 0.009326502
0000d0 b8 54 93 3b a0 5b 55 3d 76 6b ce bc 91 02 1d 3d
       0.0044961832 0.052089334 -0.025197726 0.038332526
0000e0 13 4b 80 3c 4d 5a 2a bd b9 46 a6 bc 0b 33 4f bd
       0.015660798 -0.041590024 -0.020297395 -0.050585788
0000f0 0b 21 96 bc 8a e5 13 bc 00 d4 ba 3c 64 d0 bd bc
       -0.018326303 -0.009026894 0.022806168 -0.023170657
000100 31 8b 38 bd 08 9e 08 bd 5f 8f be 3c 43 43 13 bd
       -0.04505462 -0.033353835 0.023261724 -0.035952818
000110 b5 bb 01 3a e0 89 5d 3d e8 f9 e4 3c 07 94 3d bc
       0.000494893 0.054086566 0.027951196 -0.011570937
000120 3f ac cb 3c 04 36 34 3d 24 91 05 3d 04 d1 02 3d
       0.024862407 0.043996826 0.03260912 0.031937614
000130 9c eb 6f 3d b7 ea 53 3d a0 82 d0 3d 45 57 2b 3c
       0.058574304 0.051737513 0.10181165 0.010457818
000140 d7 d8 1c 3c 02 df 49 3d de 64 c5 3b ba c8 a4 3c
       0.009573183 0.049284942 0.006023987 0.020115245
000150 b8 70 76 bd b8 03 c6 bb 9d 0c 1c bd 16 1d ed bc
       -0.06016609 -0.006042924 -0.038097966 -0.028944533
000160 2b e6 cd bc d0 5c 67 3b bb 28 6e ba a2 aa b8 3c
       -0.025134167 0.0035303123 -0.0009085049 0.022542302
000170 36 ef 08 3d 0b 87 81 3d 4e 7b 03 bc a7 3b d1 bc
       0.033431254 0.063245855 -0.008025004 -0.02554114
000180 25 da 3d bd dc a5 a8 bc 72 e3 8f bb 1c d9 b9 bc
       -0.046350617 -0.0205869 -0.0043911273 -0.022686534
000190 99 ca 4c 3c 6e d7 6d bd 19 04 9b bd e7 07 29 bc
       0.012499475 -0.058066778 -0.07569141 -0.0103168255
0001a0 76 59 f9 bc e5 7c 98 3b 4b 2c 1a bc 28 16 3b 3d
       -0.030438166 0.0046535605 -0.009409974 0.045675427
0001b0 61 cf 1a 3c 4d 21 28 3c 83 52 f8 bc 4b 63 19 bd
       0.009448857 0.010261846 -0.030312782 -0.03744821
0001c0 ad 17 bb bb 30 1b 20 3b f0 f4 6b 3d f8 c1 fd bb
       -0.0057096095 0.0024430268 0.057606637 -0.00774407
0001d0 d5 c2 a9 3c cb 65 ba bb c6 3c 39 3b 04 6b 60 3d
       0.020722786 -0.005688404 0.0028264984 0.054789558
0001e0 0a b4 97 3c f3 34 84 bd 13 91 74 bd 91 35 49 bb
       0.018518467 -0.06455412 -0.059708666 -0.0030702094
0001f0 90 cc 68 bd c4 d0 74 bd 73 a4 54 bc 56 a5 49 3a
       -0.05683571 -0.059769407 -0.012978661 0.00076921785
000200 c8 bc ee bc 5d 1a fa 3c b5 c7 1a bd 6d 73 e7 bc
       -0.029142752 0.03053015 -0.03778811 -0.028253281
000210 54 53 87 3c eb b7 61 3c c4 eb b7 3b 0c 0f 6b 3d
       0.016519226 0.01377676 0.0056128222 0.057387397
000220 f9 9b 04 bd 9d 38 97 bd 5d f3 ad 3a 16 e9 0d bd
       -0.03237531 -0.07383845 0.001327138 -0.034646116
000230 b4 43 5e 3d 57 ed 0c 3d 73 69 46 3d e9 55 ee 3b
       0.054263785 0.034406032 0.048440408 0.007273425
000240 de e6 aa 3c 33 3f 10 3d 21 9f 13 3d d9 d9 1a 3d
       0.02086204 0.03521652 0.03604043 0.037805412
000250 08 9f 95 3c 98 58 2d 3c ce d2 ef 3b 83 88 f7 bc
       0.018264309 0.010580204 0.007318831 -0.030216461
000260 ca 02 0e bd 8b 38 49 bd b9 3c d3 bc e9 46 29 3d
       -0.03467063 -0.04912619 -0.02578579 0.04132739
000270 74 d7 03 3a b2 f7 29 3d e0 a9 b9 3d 80 99 b9 bc
       0.00050293584 0.041495986 0.09065604 -0.022656202
000280 4d 25 73 3c 2d 5a a3 bc ab 8a 7d 3c 19 68 d2 bc
       0.014840436 -0.01994046 0.015474956 -0.025684403
000290 27 23 58 3b ab 84 c2 3d f7 bc 4c ba 47 da bc 3c
       0.0032979937 0.09497961 -0.00078101404 0.023053301
0002a0 91 88 a4 bb 92 6a 41 3b 42 66 c5 3c d3 17 a5 39
       -0.005021163 0.0029512984 0.024096612 0.00031489003
0002b0 a7 f7 89 3c 43 2b 45 3d 8b 93 d8 3c 9c 33 f1 bb
       0.016841723 0.04813696 0.026437541 -0.0073608886
0002c0 5b 31 19 3d 77 9a ad bc 8c f9 15 bd 5f 15 b4 bc
       0.037400585 -0.021191819 -0.03661494 -0.021982847
0002d0 b7 ed 39 3d e8 dd fc bb be 61 c4 bc 70 9e 79 bd
       0.04539272 -0.007716883 -0.023972388 -0.060942113
0002e0 6e 84 1a bd c3 44 14 bd 6b ba 5c 39 89 ce 20 bd
       -0.03772395 -0.03619839 0.00021050281 -0.039259467
0002f0 3c cc 23 3d 83 83 6c 3d 05 7e 9e bc fa 3f b3 b9
       0.039989695 0.057742607 -0.0193472 -0.00034189207
000300 66 21 18 3d bf 7b d6 bc 7c 30 79 bc 1d eb 37 bc
       0.037141226 -0.026182054 -0.0152093135 -0.011225489
000310 55 89 83 3c 44 3e be 3c 1c 1e 87 3b 25 ef 1f bc
       0.016056696 0.02322305 0.0041234624 -0.009761606
000320 a2 db 0d bd a1 67 38 bc 68 3d 09 3d b2 db 95 3b
       -0.034633286 -0.011255176 0.033505827 0.004573309
000330 a9 7f 37 bd 2a 2b e0 ba 90 4c b0 3c 89 e7 44 3c
       -0.04479948 -0.0017102708 0.021520883 0.012018093
000340 fe ad 38 bd 81 00 13 bd 6a 0a 52 bb 41 f1 3a 3d
       -0.045087807 -0.035889152 -0.0032049664 0.045640234
000350 84 e1 29 3d 56 4b a2 bb d8 66 be 3c 9a 86 a1 3c
       0.041474834 -0.0049528284 0.0232424 0.019717503
000360 f4 e3 b8 bc f4 96 6d bb 8f e0 98 bd c7 76 98 3b
       -0.022569634 -0.0036253305 -0.07464706 0.0046528312
000370 b3 83 d4 bd dd ca af bd 20 60 30 bd 9c bd 84 bd
       -0.10376682 -0.08583615 -0.043060422 -0.064814776
000380 f7 ea bb bd 7d 17 3b 3a e2 3f b4 bc 3e 2a 6e bd
       -0.09175675 0.0007136984 -0.022003118 -0.058145754
000390 d4 05 d1 3c b3 24 46 bd 5d 03 05 3d 37 bc 1c bd
       0.025515474 -0.048374843 0.03247391 -0.038265433
0003a0 2a 6e cd bc 54 c4 f7 3c a1 a9 41 bd 6d de 83 bd
       -0.025076944 0.030244984 -0.04728091 -0.06438909
0003b0 ce 7b 85 bd 36 14 9c bc de 4e 05 bc 5a 3e 66 3d
       -0.065177545 -0.019052606 -0.008136479 0.056211807
0003c0 e1 15 11 3b 0a 51 d7 3c ba 2d de 3b d7 9b 75 bd
       0.0022138285 0.02628376 0.0067803534 -0.059963074
0003d0 ef 18 ae bd a0 41 ab bc 14 3b 53 bb b7 82 5e bc
       -0.085008495 -0.020905316 -0.0032231258 -0.01358097
0003e0 26 be 7a bd 92 18 4d bd 16 99 e0 3c b8 62 2e 3d
       -0.061216496 -0.05007226 0.027416747 0.042574614
0003f0 dd 64 3b 3c 81 e2 d9 bc 3b fd bb bc f4 e6 43 bd
       0.011437622 -0.026597263 -0.022947898 -0.047827676

cnn.8.bias f4 [128]
000000 cb 21 03 3c 71 3e 3f bd c6 2f 2d bc 55 1f 1d 3c
       0.008003662 -0.04669041 -0.010570472 0.00958999
000010 1f 3d 86 3c 8b 4f d7 3c d8 3f 43 bd 28 c2 72 bc
       0.016386567 0.026283046 -0.047668308 -0.014816798
000020 10 2e e2 bc af 47 55 3c 54 ac b0 bc 20 4a 10 3d
       -0.027609855 0.013017579 -0.021566547 0.03522694
000030 06 ab 52 b6 15 d6 ef bd 19 57 38 bc 42 0a b8 bc
       -3.1391987e-06 -0.11710755 -0.011251234 -0.022465829
000040 11 de c9 3b b6 ce e8 3c da 97 02 bd ed 3b d3 3c
       0.0061605056 0.02841888 -0.0318831 0.02578541
000050 f1 03 60 3d 87 7c 7b bd 48 bc 08 3d 01 c6 47 bd
       0.05469126 -0.061398055 0.033382684 -0.048772816
000060 5e 46 81 bd a9 2c c9 bc d7 2c 2f bd 78 89 8f bd
       -0.063122496 -0.024557428 -0.042767372 -0.07008642
000070 38 22 55 bc 68 dc 09 bd 64 8c de 3c 12 94 31 bd
       -0.013008647 -0.03365746 0.027166553 -0.0433541
000080 20 74 0a 3c fc 90 42 3d 94 0d 92 bd 34 6e 71 3c
       0.008450538 0.04750155 -0.07131496 0.014735747
000090 6e 22 e8 bc 53 bc 3c 3c 5b 50 4e 3d b9 f7 f1 bb
       -0.02833673 0.011519509 0.0503696 -0.007384267
0000a0 75 4a 20 bc bd cf f6 3b 83 af cb bc ed e2 c3 bd
       -0.009783377 0.0075320886 -0.024863964 -0.09564767
0000b0 75 bf e3 3c be ee 7f bc 4b 41 82 3b d8 0c d7 bc
       0.027801255 -0.015620885 0.0039750687 -0.026251242
0000c0 9b bc fe 3c e6 67 92 bd 70 a0 9f bb 42 5a a1 3c
       0.031095793 -0.07148723 -0.0048714206 0.019696359
0000d0 e1 58 41 bd e4 e8 06 3c f3 fd 4c bd ff 4a 84 3d
       -0.047203902 0.008234236 -0.050046872 0.06459617
0000e0 ae 17 66 bb 3c a1 29 3c fe 27 5d 3d 87 57 5f bc
       -0.003510933 0.010353383 0.053993218 -0.013631708
0000f0 a1 96 b2 3c 37 53 5e 3d 01 2e 4e 3c 6f 2f ac bd
       0.021800341 0.05427858 0.01258421 -0.08407485
000100 17 52 30 3d 6b 6b 5f bb 9a c2 89 bc 21 99 35 3d
       0.043047037 -0.0034091126 -0.016816426 0.04433549
000110 8f a4 3d 3a 77 42 81 bd 7b 22 a7 3c a1 f3 45 bc
       0.0007234299 -0.06311505 0.020402184 -0.012082011
000120 22 3d dc bc ff f9 d2 bb 42 25 30 3d c2 e9 88 bd
       -0.02688462 -0.0064384933 0.04300428 -0.06685211
000130 9e c9 f4 3c 3e 5f e0 3c a1 23 4c bd 8b 34 da bd
       0.029881295 0.027389165 -0.049838666 -0.10654553
000140 09 0a 78 bc 84 a5 fc bb 15 b7 95 3c f7 e3 48 3d
       -0.015139111 -0.0077101607 0.018275777 0.04904553
000150 07 61 32 bd 3e 0b 26 3d 4f cd 12 3d 64 89 00 3c
       -0.043549564 0.040538065 0.03584033 0.0078452565
000160 77 7f 3c 3d cc 40 6a 3d 45 e8 46 bc e3 a0 9f 3c
       0.046019997 0.0571907 -0.012140338 0.019485896
000170 a7 16 a4 bd c5 14 79 3d 93 94 68 bc d6 c4 46 bd
       -0.08012133 0.060810823 -0.014195579 -0.04852756
000180 4d b8 88 bc 17 47 e9 bc 06 b6 99 bc c6 80 db 3b
       -0.016689444 -0.028476281 -0.018763553 0.0066987006
000190 4f 7e 17 3d 15 ab 4f bd 4a ca 4c 3c 1d 15 b5 3a
       0.03698569 -0.050700266 0.012499401 0.0013815496
0001a0 e9 e3 09 3d 6d d7 81 bd 8c b8 19 3c 7d 21 fe bc
       0.033664618 -0.06339917 0.009382378 -0.031021828
0001b0 fe 4a 84 3c 1e 3a a9 3c a9 ca 07 3d f2 62 7f bb
       0.01614904 0.020657595 0.033152256 -0.0038968888
0001c0 f3 1e 40 bc c2 81 4f bb 45 82 2a bd e1 b7 61 3d
       -0.011726129 -0.0031663035 -0.04162814 0.055107
0001d0 03 d9 41 bd 56 c5 ba bd 47 62 08 3d 80 05 c8 3c
       -0.0473261 -0.0911967 0.03329685 0.024416685
0001e0 25 7d c2 3c 31 78 03 bd dc 89 cd bc 9e 12 21 3d
       0.023741314 -0.032097045 -0.02509015 0.039324395
0001f0 1a 81 b8 bd ce 55 b3 bc 7d 80 80 3c ec d0 50 bd
       -0.09008999 -0.0218915 0.015686268 -0.050980493

layer_norm.weight f4 [128]
000000 2e 5e 7a 3f 4e a4 7e 3f 71 1b 7b 3f 82 a7 79 3f
       0.97799957 0.9946946 0.9808875 0.9752122
000010 89 87 7b 3f 49 c0 7d 3f f0 5a 7e 3f 60 1c 7f 3f
       0.98253685 0.9912153 0.9935751 0.9965267
000020 3a 7c 77 3f 87 9a 7d 3f 17 93 79 3f 20 f7 7d 3f
       0.9667393 0.99063915 0.97490066 0.9920521
000030 90 e8 7e 3f a8 6f 7c 3f 5a a0 7d 3f 19 54 7d 3f
       0.9957361 0.98607874 0.990728 0.9895645
000040 f5 c4 7a 3f 80 18 7d 3f 0f 15 7e 3f a9 60 7a 3f
       0.9795678 0.9886551 0.9925088 0.9780374
000050 a9 74 7d 3f c3 fe 7f 3f e3 22 7d 3f 11 0e 7c 3f
       0.99006134 0.9999811 0.9888136 0.98458964
000060 32 07 7e 3f bf 33 7e 3f 0b da 7c 3f 74 8c 7b 3f
       0.9922973 0.9929771 0.9877021 0.9826119
000070 9d d0 7c 3f e4 fa 7e 3f 8e 08 7d 3f bf d2 7e 3f
       0.9875582 0.9960158 0.9884118 0.99540323
000080 4e 1b 7e 3f 95 b1 7d 3f 91 35 7d 3f 09 04 76 3f
       0.99260414 0.99099094 0.9890986 0.9609991
000090 ac af 7d 3f 8d be 7b 3f 9f 4f 7f 3f a6 b0 79 3f
       0.9909618 0.9833763 0.9973087 0.9753517
0000a0 5b 80 7e 3f fe a7 7b 3f f7 a2 79 3f 72 93 7f 3f
       0.99414605 0.9830321 0.9751429 0.9983436
0000b0 ff 4c 7c 3f 73 07 7c 3f 09 27 78 3f 7a da 7c 3f
       0.98554987 0.98448867 0.9693456 0.9877087
0000c0 69 bd 7b 3f b9 de 7d 3f 84 f7 7d 3f 20 69 7b 3f
       0.9833589 0.9916797 0.99205804 0.98207283
0000d0 9d f3 7e 3f 98 b0 7b 3f 3f 00 7d 3f 07 f7 7e 3f
       0.99590474 0.98316336 0.988285 0.99595684
0000e0 ad 9f 7d 3f 73 06 7b 3f a0 ae 7d 3f f8 18 7e 3f
       0.9907177 0.98056716 0.9909458 0.9925685
0000f0 b0 ee 7b 3f 33 c5 7c 3f eb 98 7c 3f d3 aa 7e 3f
       0.98411083 0.987384 0.98670834 0.9947941
000100 a1 1a 7c 3f ed 71 79 3f 88 31 80 3f 5b 46 7b 3f
       0.9847813 0.9743946 1.0015116 0.9815423
000110 e8 58 77 3f 3e 49 80 3f 50 7c 78 3f 50 91 7e 3f
       0.96620035 1.0022352 0.97064686 0.9944048
000120 6b eb 7b 3f 85 31 7a 3f 7c 37 7e 3f 28 06 7a 3f
       0.98406094 0.9773181 0.9930341 0.97665644
000130 5a c8 7e 3f ee c3 7c 3f f0 fa 7f 3f ba 30 7b 3f
       0.9952446 0.98736465 0.99992275 0.98121226
000140 fb f8 7a 3f ea 74 7c 3f 58 72 79 3f ae 03 76 3f
       0.98036164 0.98615897 0.974401 0.96099365
000150 5b 89 7e 3f 3f a1 7c 3f 05 00 7e 3f 16 48 7c 3f
       0.9942834 0.9868354 0.9921878 0.98547494
000160 3d d3 7e 3f 22 f7 7c 3f 79 7b 7b 3f 55 60 7e 3f
       0.99541074 0.98814595 0.9823528 0.9936574
000170 a5 43 7f 3f 92 d2 7f 3f 68 b4 7e 3f 0b 7f 7e 3f
       0.9971259 0.9993068 0.9949403 0.994126
000180 ad c5 7d 3f 97 6a 7c 3f 05 4c 81 3f 8e 0a 7e 3f
       0.99129754 0.98600143 1.0101324 0.99234855
000190 c1 cb 7b 3f f9 ec 7d 3f 83 8a 79 3f 7f c5 76 3f
       0.9835778 0.99189717 0.9747698 0.96395105
0001a0 0c 41 7b 3f 6a bf 7d 3f c6 09 7d 3f 63 0c 7d 3f
       0.9814613 0.991202 0.9884304 0.98847026
0001b0 66 17 78 3f ff b5 7b 3f c9 6c 7d 3f 3e 90 7c 3f
       0.96910703 0.9832458 0.9899412 0.98657596
0001c0 75 3e 7d 3f 43 84 7e 3f a7 33 7a 3f 57 4d 7c 3f
       0.98923427 0.99420565 0.97735065 0.9855551
0001d0 46 fe 79 3f f8 d8 7a 3f 78 74 7d 3f 79 cb 7e 3f
       0.97653615 0.9798732 0.9900584 0.99529225
0001e0 b7 29 7b 3f 72 77 7f 3f af 67 7e 3f f9 22 7d 3f
       0.98110527 0.99791634 0.9937696 0.9888149
0001f0 ed e8 7d 3f d2 66 79 3f a1 97 7c 3f 2f 67 7e 3f
       0.9918354 0.97422516 0.9866887 0.99376196

layer_norm.bias f4 [128]
000000 b9 d4 e7 3b b0 de 2b bb 27 24 ff ba 10 a3 0a bb
       0.007074919 -0.0026225261 -0.001946573 -0.0021154322
000010 ad b3 28 3b 85 37 d0 3b 09 6d 12 3b 02 07 72 bb
       0.002574186 0.0063542747 0.0022342822 -0.0036930447
000020 cb 5e 33 3b 51 f4 08 bb 58 ce 73 3b e8 22 03 3c
       0.0027369733 -0.0020897577 0.0037201848 0.008003928
000030 c9 5c 5d bb f8 df 1a bb 24 11 3e bb fc 97 81 ba
       -0.0033777228 -0.002363203 -0.0029001916 -0.0009887214
000040 49 ad 0b bb 25 90 85 bb 3f b6 ac bb fd 44 c5 ba
       -0.0021313003 -0.0040760213 -0.005270749 -0.0015050467
000050 95 c7 a2 3a ca d7 19 b9 11 fd 5d 3b 8c c9 65 bb
       0.0012419099 -0.00014671605 0.0033872763 -0.0035062758
000060 4e af c0 bb c0 a6 ba bb 36 d4 25 bc c1 9b 37 bb
       -0.005880273 -0.0056961477 -0.010121396 -0.002801642
000070 ef cf 0e bb d6 0e da ba c4 be ce b9 24 18 9a ba
       -0.0021791419 -0.0016636502 -0.00039433513 -0.0011756462
000080 9c eb 0f b9 b6 e9 91 3b 25 a7 ba bb 29 b1 f6 bb
       -0.00013725314 0.0044529093 -0.0056961947 -0.0075284434
000090 f2 d6 7a 39 5b 73 cd 3b 2e 25 91 3b d7 5b dc 3a
       0.00023921931 0.006269855 0.004429481 0.0016812038
0000a0 6b c4 3a ba 44 54 bd bb 85 38 83 3b 4f f3 42 bc
       -0.00071246055 -0.0057778675 0.0040045404 -0.01189883
0000b0 8d e9 4d bb 6e cc fc bb ec b2 35 3b fa e6 00 bb
       -0.0031419725 -0.0077147996 0.0027725054 -0.0019668923
0000c0 54 e0 19 bc c8 9a 7a ba 9b 77 13 3c 38 f2 8a 39
       -0.009391863 -0.00095598074 0.009000684 0.00026501878
0000d0 db 2c 12 bb 21 40 fa 3a 96 9f fa ba cf 43 db 3b
       -0.0022304568 0.0019092598 -0.0019121047 0.006691433
0000e0 86 db ab 3b b4 34 3e 3b c5 91 7a 3b 46 d3 1a bb
       0.005244675 0.0029023113 0.0038233858 -0.0023624464
0000f0 a9 94 d4 3b ee 46 eb 3b 53 fe dc 3a 3e ae b6 bb
       0.0064874482 0.0071800863 0.0016860462 -0.0055749705
000100 12 02 6d 3a 99 07 60 3b 83 22 4a 3c f8 67 59 3b
       0.0009041141 0.0034184216 0.01233733 0.0033173542
000110 56 98 cc 3a 36 e1 d1 bb d4 4c 64 bb 4e 2b 31 bb
       0.0015609364 -0.006405021 -0.0034835832 -0.0027033868
000120 e2 c7 cc bb 35 3d 73 bb 53 6b 67 3b bb c6 8b bb
       -0.006249414 -0.003711534 0.0035311773 -0.004265634
000130 f2 f3 59 3c 0e a5 0e 3c 37 0d 9a bb 43 07 55 b9
       0.01330279 0.008706344 -0.0047012824 -0.00020315968
000140 ab 0f 28 bb e1 8b 04 3c eb 6f 11 bb 36 67 b1 3b
       -0.0025644104 0.00808999 -0.0022191952 0.005413915
000150 e3 af 28 bb eb 02 e1 3a dd 84 34 ba 10 79 8a 3b
       -0.0025739602 0.0017167007 -0.0006886253 0.0042258576
000160 9a 24 10 3b eb ef 12 3c bd 0e c7 3b ba c2 04 bb
       0.0021994472 0.008968334 0.006074755 -0.0020257668
000170 bf b9 02 bc b3 21 b0 3b 7b ce 84 3a 7b e9 6a 3b
       -0.007978856 0.005375111 0.0010132337 0.0035844732
000180 b8 77 49 bb 48 b6 ae 39 15 e3 0a 3c 4b 57 0a 3b
       -0.0030741524 0.00033323676 0.008476992 0.002110916
000190 64 67 7e ba 38 8c 49 bb b0 e2 d7 bb 10 4d 48 3a
       -0.00097047375 -0.0030753743 -0.0065883026 0.0007640878
0001a0 18 fa 95 bb 2c d7 85 3a d3 7f 6b bb e3 cb 59 bb
       -0.0045769326 0.0010211221 -0.0035934343 -0.0033233098
0001b0 68 c1 d3 ba 40 fd 99 3b bb 97 d0 3b 55 90 87 ba
       -0.0016155662 0.004699379 0.006365744 -0.0010342697
0001c0 da d0 d2 bb fc 8c d2 39 5c 36 67 ba 77 70 ff bb
       -0.0064335885 0.00040159363 -0.0008820051 -0.0077953893
0001d0 6d 0c 6b bb 28 37 6d bb f0 c3 9e 3b ac c8 ce 3b
       -0.003586556 -0.0036196206 0.004845135 0.006310543
0001e0 a3 83 9d 38 e0 08 7c bb f7 89 e2 bb b2 ba 3c ba
       7.5108626e-05 -0.0038457438 -0.0069134193 -0.00071994506
0001f0 7b 74 28 bc 13 00 9e bb 6d f7 a2 ba 94 e9 77 bb
       -0.010281677 -0.004821786 -0.0012433358 -0.0037828432

lstm.weight_ih_l0 f4 [384, 128]
000000 11 86 21 3b 9c d7 ab bc c2 0b 77 bd f8 64 3b bc
       0.002464656 -0.020976834 -0.060313947 -0.011437647
000010 c4 86 0a 3d 41 9e bf 3c 36 cc 4f bd 9f f4 af bd
       0.03381993 0.023390891 -0.05073186 -0.0859158
000020 44 bc 56 3d 2c e2 8a bd 2a 5b 99 3d 23 0e b9 3d
       0.052425638 -0.0678142 0.07488091 0.090358995
000030 2e 49 a3 3d 16 bb ac 3d d8 1f 81 bd 87 55 8b 3d
       0.07972942 0.08434121 -0.06304902 0.068034224
000040 f2 49 fd bc 16 24 47 3a be cc 58 bd 9c fc b1 bd
       -0.030919049 0.0007596625 -0.052929632 -0.086907595
000050 e8 16 ac 3d 47 b2 88 3b e5 da fd 3c 96 a5 82 3d
       0.084028065 0.004171643 0.030988166 0.06379239
000060 bf 6b 86 3d bc 90 5a bd 51 24 c3 3b 2f 15 2e 3d
       0.0656352 -0.053360686 0.005955257 0.04250067
000070 66 9b 04 bd 50 3e 66 3d 04 de a6 3d 09 33 37 bd
       -0.032374762 0.05621177 0.08147815 -0.044726405
000080 32 1f 02 bd a8 e4 da bc 02 af 84 3d 5c 21 88 3d
       -0.03176803 -0.02672036 0.064786926 0.06646988
000090 7d 6e ac 3d a0 42 4f 3d 84 47 0d 3b 9a 02 22 3d
       0.084195115 0.050600648 0.002155752 0.039553262
0000a0 a8 c6 5a bd 6e d6 6f bd 93 63 a0 bd f1 98 80 bd
       -0.05341211 -0.058554105 -0.07831492 -0.06279171
0000b0 a5 1a 80 bc 40 7f 4f 3d c2 5f 8a bd 84 48 8e 3b
       -0.015637705 0.050658464 -0.067565456 0.0043421406
0000c0 4b 02 3a bd 43 f4 f1 bc f5 99 ec 3c 8a d6 a2 3d
       -0.045412343 -0.029535418 0.028882006 0.07951076
0000d0 24 93 9d bd bd 38 a9 bc 15 ee 5f 3d e8 55 d9 bc
       -0.076940805 -0.020656938 0.054670412 -0.026530221
0000e0 d5 94 bd bd 55 64 9f bd 31 ed 20 3d 2e 87 99 bd
       -0.09256903 -0.07782809 0.039288703 -0.074964866
0000f0 12 b9 23 3d b9 f4 2d bc 5f 90 78 bd 2d bb 1d bc
       0.03997142 -0.010617428 -0.060684558 -0.009627146
000100 4c 9c 86 bd 7d 9c 80 bd 27 5e 2a 3d b1 bc 99 bd
       -0.0657278 -0.06279848 0.041593697 -0.07506693
000110 e6 6c df 3c 30 53 a0 bc d3 ed 15 3d 03 03 91 3d
       0.027273607 -0.019570917 0.03660376 0.070806526
000120 09 85 3e 3d e0 be 6f bd 32 b4 b5 3d c8 da a8 bd
       0.04651359 -0.058531642 0.0887226 -0.08244854
000130 8c 0c 09 3d 4b 53 27 3d 51 42 01 3d 53 02 30 3d
       0.03345923 0.04085092 0.031557385 0.042970967
000140 0e 25 6f 3d 87 52 75 bd c3 5e 4a bd e5 ba 39 3d
       0.058384947 -0.059893157 -0.049406778 0.045344252
000150 a1 d9 11 bd 3b 26 0f bd d7 4c 93 bc a0 eb 93 bb
       -0.035607938 -0.03494857 -0.017980976 -0.0045141727
000160 1c 1d 0a 3d e0 0e af 3c a2 2a 13 3c 14 b7 0f bd
       0.033719167 0.021369398 0.008982332 -0.035086706
000170 1b b3 9f 3b 93 30 a3 bd 8e 6a a2 bd 11 c9 87 3d
       0.004873646 -0.07968249 -0.0793048 0.06630147
000180 69 44 a9 3d b3 14 47 bd 11 e2 06 3d c0 30 00 3d
       0.08265001 -0.048603725 0.032930437 0.03129649
000190 f8 5c 20 3d b2 49 72 3d 62 83 16 3d c7 01 a7 bc
       0.039151162 0.059152313 0.03674639 -0.02038659
0001a0 96 c0 cb 3b 1a 52 b9 3c 95 2f 9d bc 6a d8 2c 3d
       0.0062180264 0.022622157 -0.019187728 0.042198576
0001b0 65 73 a3 bd 79 27 8c bd dd fa b1 bd c2 a9 98 3d
       -0.07980994 -0.06843466 -0.086904265 0.07454254
0001c0 3c cd 71 3d 5b 0e 7d 3d 32 b7 3f bd 2c 9f 1a 3c
       0.059033617 0.06178127 -0.046805568 0.009437364
0001d0 5f d3 a5 bd ab a4 c8 bc 25 cf 8b 3b 0d d0 37 3d
       -0.080969565 -0.024492582 0.004266637 0.044876147
0001e0 a7 2f a5 3c f1 a0 16 3d 59 74 b0 bd 72 a7 1e 3b
       0.020164324 0.03677458 -0.086159416 0.0024208692
0001f0 96 dd 5b bc 3e a6 f3 bb 9c c0 9c bd 1b 3d 0a 3d
       -0.013419529 -0.007435589 -0.07653925 0.03374968
000200 90 8a cb 3c a4 7f b0 bd 1f b6 70 3b 64 87 da 3c
       0.024846345 -0.086180955 0.0036729646 0.026675887
000210 fb d9 4d bd 9c a7 19 bd 54 a0 47 bd fa 0c b2 bd
       -0.05025671 -0.03751336 -0.048736885 -0.08693881
000220 b6 d5 48 3d 06 00 ae 3d 62 db 36 3d ff 79 c0 3d
       0.049031936 0.08496098 0.044642814 0.09398269
000230 06 1c 87 3d 30 09 98 bd e5 09 2a bd 48 ec 3a 3d
       0.06597142 -0.074236274 -0.041513342 0.04563549
000240 7c 56 7f 3d 42 1b 6b 3d 76 5e b2 3d 4a c6 d7 3a
       0.062338337 0.057399042 0.08709423 0.0016462293
000250 19 77 cc bc 76 73 ca 3d 3d f4 7a bc b1 24 96 bd
       -0.024959134 0.09885304 -0.01531702 -0.07331217
000260 7f a7 a4 bd 28 ec e8 3c 3a a0 93 3d 0d 19 3d bc
       -0.0803976 0.02843292 0.07208295 -0.011541617
000270 ec 42 36 bd d1 00 a1 3d 2f f4 da bc bb a7 a4 bd
       -0.044497415 0.07861484 -0.026727764 -0.080398045
000280 2e a2 44 3c 9e bd 4e bd 51 e5 8f 3c e1 e5 a1 3d
       0.012001557 -0.0504738 0.017565401 0.07905174
000290 f2 57 ba 3d 64 c8 a2 3d c4 58 d5 3c f6 f0 8f 3d
       0.090988055 0.07948378 0.026043303 0.070283815
0002a0 e8 c3 aa 3d 9d 78 15 bd 4d f0 89 bd a2 44 80 3d
       0.083381474 -0.03649198 -0.06735287 0.06263091
0002b0 ff dc b8 3d 59 23 cd bc e2 b5 67 bd d4 30 47 bd
       0.09026527 -0.02504127 -0.05656994 -0.04863055
0002c0 fa eb 99 bb a0 8a a4 3c 38 d4 f3 ba a7 62 79 bd
       -0.00469732 0.020085633 -0.0018602675 -0.060885098
0002d0 a6 75 2f 3d 4f 0f 99 3d 8a 00 9e 3c 8c 9c f1 bc
       0.042836808 0.07473623 0.019287366 -0.029493593
0002e0 85 ff 46 3d d3 1f 43 3d 4a 34 b4 bd 2b de 98 bd
       0.048583526 0.04763777 -0.08799036 -0.0746425
0002f0 0f f5 bb bc 07 20 f8 3b 7d 18 b3 bd d5 f7 c7 bc
       -0.022944001 0.0075721773 -0.08744905 -0.024410168
000300 b8 1a 85 bd bc fa 74 3d d2 a9 ad 3d 3d 47 69 bd
       -0.06499237 0.05980943 0.08479656 -0.056952704
000310 5f 28 05 bc e1 e3 dd 3c ce 22 4f 3b 92 fd e5 3c
       -0.008127301 0.0270862 0.0031606439 0.028075013
000320 a0 1f 82 bc ca a0 b5 bd a7 6a e8 3c 2a 33 12 bd
       -0.01588422 -0.08868559 0.028371168 -0.035693325
000330 01 ca 5b 3d a2 90 a6 3d 15 ee 16 bc ff a8 bd 3c
       0.053659443 0.08133055 -0.009212037 0.023151873
000340 e9 b1 32 3a 59 31 62 3c a1 59 2e 3d f1 de 78 ba
       0.0006816672 0.013805711 0.042565946 -0.000949367
000350 ce ce 7a 3d 5d 41 4d bc 29 2d 43 3c a9 18 81 bd
       0.06123238 -0.012527791 0.0119126225 -0.06303532
000360 ff b7 ad 3a 89 24 81 3d b4 a2 40 bc bf 7f bc bb
       0.0013253688 0.06305797 -0.011757541 -0.005752533
000370 d4 9f b8 bd 60 9b c1 3d ca 10 71 3d 8f b8 ab 3d
       -0.0901486 0.094534636 0.058853902 0.08384811
000380 8e 22 4c bd a2 b2 ef bc fb 48 8d 3d 90 57 b4 bd
       -0.04983764 -0.029259983 0.068986855 -0.08805764
000390 5c b2 80 bd a6 fa 6a bc ab f9 4b 3d 29 8e a5 bd
       -0.06284019 -0.014341986 0.04979865 -0.080837555
0003a0 30 61 95 bc d9 d1 a1 3d 89 2e 40 bd f4 4a 87 bc
       -0.01823482 0.079013534 -0.04691938 -0.016515233
0003b0 45 e9 8e bd ee 54 0f bd 2c 84 92 bd c4 c8 33 bc
       -0.069780864 -0.034993105 -0.07154116 -0.010973159
0003c0 cb 7a 87 ba 77 47 5f 3d c4 f6 b7 bd 0e 18 8f 3d
       -0.0010336278 0.054511514 -0.08982614 0.0698701
0003d0 57 38 8d bd 97 67 cb bd 79 3c b0 3d a2 3a c9 bc
       -0.068955116 -0.099318676 0.08605284 -0.024564091
0003e0 a0 6c 80 bd 3f f6 9b bd 50 06 b2 bd e5 4a ee bb
       -0.062707186 -0.07615327 -0.0869261 -0.0072721117
0003f0 05 a2 19 3d 7b cb b2 bd a7 9a 90 bd 47 d2 9c 3d
       0.03750803 -0.08730217 -0.070607476 0.07657295

lstm.weight_hh_l0 f4 [384, 96]
000000 e0 05 c9 bc be c7 de 3c 7b 7c 36 3d d1 ce cc bc
       -0.024538934 0.027194854 0.044552308 -0.025000961
000010 44 dd b1 3d 37 02 03 bc b4 2c b4 ba e3 4d f9 3b
       0.08684781 -0.0079961335 -0.0013746233 0.007608162
000020 42 d9 30 3c 38 09 84 bd d4 88 11 3c 80 55 9e bd
       0.010793986 -0.06447071 0.00888272 -0.077311516
000030 65 f7 10 3c 17 af a6 bb 1b 19 42 bd 2e c0 46 bd
       0.008848046 -0.0050867903 -0.047387224 -0.04852312
000040 ba 1e 90 3d 19 51 3f bd 76 0f 41 bb 23 29 0f 3c
       0.070371106 -0.0467082 -0.0029458678 0.008737835
000050 f6 c1 5c bd cd a0 04 bd 83 14 5a bd cd 17 58 bc
       -0.053895913 -0.032379914 -0.053242218 -0.013189268
000060 0f 04 46 bd f3 4e 57 bc 44 ec 12 3c e2 c6 87 bd
       -0.048343714 -0.013141382 0.008967463 -0.06629731
000070 4c 70 5b bc de 78 bc bc 52 f2 34 bd fd 4b 96 bc
       -0.013393473 -0.023006853 -0.044176407 -0.01834678
000080 dd 47 6e bc 71 26 21 bc ac ae 18 3d 44 4a 3f bd
       -0.014543501 -0.009835825 0.037275955 -0.046701685
000090 9f 9a 95 3d 58 b3 3b bd fd 9b 9a bd 24 6b b1 bc
       0.07304882 -0.045825332 -0.07549284 -0.021657534
0000a0 2b 65 a2 3d 1c a3 f9 bc 2a 7f 5f 3d 43 59 26 bd
       0.079294525 -0.030473284 0.054564632 -0.04061247
0000b0 35 d5 3c 3d e6 bd 64 3d 4e dc 41 3d 68 ca 51 bd
       0.046101768 0.055845164 0.04732924 -0.05121842
0000c0 93 42 9e 3b e0 23 ca 3c a6 a6 b0 bd 39 4b ea 3c
       0.0048297136 0.02467531 -0.08625536 0.028600322
0000d0 19 61 88 3b d3 1a 76 3c b6 b1 b8 bc 35 5b 59 bd
       0.0041619656 0.015021044 -0.022545677 -0.053065497
0000e0 89 3b 97 3c 6d cb a2 3a 2d f7 5d bc 87 b5 2e 3d
       0.018461006 0.0012420245 -0.013547701 0.042653587
0000f0 9e 5f 5f bd c2 00 b4 3c 17 5d 0c 3c 5a f5 28 3d
       -0.054534547 0.021973018 0.008567116 0.04124961
000100 81 7d 94 3d 0b 14 ed bc 04 7f 76 3c 49 c8 ba bc
       0.072505005 -0.028940221 0.015044931 -0.022800582
000110 9d 55 22 3d 61 39 81 3d a7 05 3c 3d dd 5f 00 3c
       0.03963243 0.06309772 0.045903828 0.007835356
000120 12 b7 4c bd f4 42 66 3d 1e af d1 3c 87 b6 87 bd
       -0.049979277 0.056216195 0.025596198 -0.06626611
000130 06 a4 8d bb 83 16 0e 3d f3 88 8e 3c 47 52 59 bc
       -0.0043225316 0.034689438 0.017399287 -0.013264245
000140 7f 1b 16 3a 86 0c 0c 3d a0 f7 83 3d 28 a0 de bc
       0.0005726143 0.03419163 0.06443715 -0.027175978
000150 1b 41 1b bd 06 1d 1a bd 75 3b 24 3d 4f 03 fe bc
       -0.037903886 -0.037625335 0.040095765 -0.031007437
000160 12 c0 b8 3c 1a 80 bd bc ee 3a 34 3d db 95 79 3c
       0.022552524 -0.023132373 0.044001512 0.015233482
000170 79 7b 91 bd 03 1f c1 b9 14 76 48 bd 8f c4 84 bd
       -0.07103629 -0.00036834934 -0.048940733 -0.06482803
000180 76 d5 4b 3d 91 fb 90 bd e6 77 6c bc 60 52 27 3d
       0.04976412 -0.070792325 -0.014432883 0.040850043
000190 99 0a 22 bc f6 4a 6b 3d ad 30 96 3d 6f a1 80 bc
       -0.009890222 0.057444535 0.07333503 -0.015701978
0001a0 04 d3 bf bc 71 45 b8 3c 3f 7e a3 bd 6d 6c c1 3d
       -0.02341605 0.02249405 -0.07983064 0.09444509
0001b0 f2 ac e7 3c e6 2c 37 bd 9b 28 5d bd d3 23 c6 bc
       0.028280709 -0.044720553 -0.053993803 -0.024187004
0001c0 4d b9 16 3d 9f 3b 98 bd 4b 5d 7c bd 9e b4 df bc
       0.03679781 -0.07433247 -0.06161241 -0.027307805
0001d0 d7 19 6d 3d 25 a9 1f 3d 65 20 61 3d d5 15 8c bd
       0.05788597 0.03897967 0.054962534 -0.06840102
0001e0 e0 3f c2 3a 61 98 4a bb fa 5d 47 3d 0c 08 c2 bc
       0.0014820062 -0.0030913579 0.048673607 -0.023685478
0001f0 e2 91 d0 3c e4 54 e0 3c 82 af 55 3d a2 fb 85 3d
       0.025460187 0.027384229 0.05216933 0.06542136
000200 07 b5 18 bd 51 39 83 3c 0b 10 81 bb de c9 39 bd
       -0.037282016 0.016018542 -0.00393868 -0.04535853
000210 b8 27 27 bd 5a 39 b8 3c ed 51 76 3d ac 49 2c 3d
       -0.040809363 0.022488285 0.060136724 0.042062446
000220 9c fa 17 3d 89 51 38 3c 6c ea 3d 3c 91 0e 71 3d
       0.037104234 0.011249908 0.011591535 0.058851782
000230 34 7a a3 3d 03 4a 9e 3c e7 24 96 3d c7 34 37 3d
       0.07982293 0.0193224 0.07331257 0.044728067
000240 50 9a 59 bd aa b5 09 bd 47 54 bb bc e8 52 af 3d
       -0.05312568 -0.033620514 -0.022867335 0.08560735
000250 03 7a 4d 3d 05 3c 09 3d 7a 37 81 3d 0b ee 5a bd
       0.050165188 0.033504505 0.063094094 -0.05344967
000260 50 37 1f bd 77 71 ba 3a dc 83 91 3d e2 99 a2 3d
       -0.03887111 0.0014224489 0.07105228 0.07939507
000270 b5 83 90 bd 2f 7e e7 bc 1a 46 92 bd 6e 0f 02 3d
       -0.07056371 -0.028258411 -0.07142277 0.031752996
000280 ef 6d 26 3d 15 10 69 bd a9 b3 c1 3d 7b 25 56 bd
       0.040632185 -0.056900103 0.094580956 -0.052281838
000290 6d c9 94 bd c1 f2 8b bd b4 c6 22 3c ad 17 8f 3d
       -0.072649814 -0.06833411 0.00993507 0.06986938
0002a0 fa e9 89 3c 5d 30 8c 3d 52 fe 8b bc 52 8d a5 bc
       0.016835202 0.06845162 -0.017089043 -0.020208988
0002b0 59 84 9c 3c 1c 00 23 bd 3c d6 06 3d 01 04 12 3d
       0.019106077 -0.039795026 0.032919154 0.03564835
0002c0 01 26 33 3d e4 8f 66 3c cc b4 95 bc 8f 3f 96 3d
       0.043737415 0.014072392 -0.018274687 0.073363416
0002d0 3a 0f fb bb 8c 08 93 bd a4 98 1b bd 34 9b 43 bd
       -0.0076617273 -0.071793646 -0.037987366 -0.047755435
0002e0 ef 5f 4e bc 57 54 55 3d 26 cf 70 3d 0f e0 65 3d
       -0.012596115 0.052082386 0.058791302 0.056121882
0002f0 1f 1b 6e bb a3 a4 85 3c 9c ad ed 3b 68 34 6f 3d
       -0.0036332083 0.016313856 0.007253362 0.058399588
000300 77 33 6b 3b 1e 2a 57 3c 3f 82 40 3c bf 49 8c 3b
       0.003588883 0.0131326 0.011749803 0.004281252
000310 e9 65 e1 ba 93 a2 9e 3c 51 8a 4d bc fa f2 3e bc
       -0.0017196509 0.01936463 -0.012545184 -0.01165461
000320 34 7a 22 bb 9a 66 31 bd 22 c7 38 3c 09 a1 72 3d
       -0.0024792077 -0.04331074 0.011277946 0.059235606
000330 9f 1f 84 bc cb 94 53 bc 3a d9 06 3d 8f 03 88 3c
       -0.01612836 -0.012913893 0.032922007 0.01660326
000340 35 64 60 3d 56 3c 06 3c f6 7f be 3c 47 cc ce 3c
       0.054783065 0.008193096 0.023254376 0.025243891
000350 da 11 39 bc 69 86 bf 3a dc 28 8f bc 7d 18 2a ba
       -0.01129576 0.0014612201 -0.017475538 -0.00064886344
000360 a3 1d 43 bd a5 6d 18 3d ed 38 e3 bc eb 93 88 3b
       -0.047635686 0.03721394 -0.027737105 0.004168024
000370 3a 77 33 3c 38 63 58 bc 7f 87 8c bc e2 45 4e 3c
       0.010953719 -0.013207249 -0.017154453 0.012589904
000380 c2 a6 ec bc 86 82 bf bc ad d7 81 bb 58 7f e9 3c
       -0.02888811 -0.023377668 -0.003962478 0.028503105
000390 c9 64 6b b9 9f 06 7d 3c 6f 68 c4 bc 8e f8 b8 3c
       -0.00022448892 0.015443473 -0.023975579 0.022579458
0003a0 31 76 8d 3b 69 50 e3 3c 26 c0 0e ba d5 9b 14 3b
       0.004317068 0.027748303 -0.00054455025 0.002267589
0003b0 f3 f0 8f 3c 5a 18 0b bd 90 a2 2f bc 31 e1 23 bd
       0.017570948 -0.03395877 -0.01071991 -0.04000968
0003c0 31 25 ac bc 08 6e 74 bc dd 59 d4 3c b4 55 69 3c
       -0.021013828 -0.014918812 0.025921756 0.014241625
0003d0 12 ee 33 bc 7b 9a ca 3c 71 c6 91 3c ba 33 cd 3c
       -0.010982053 0.024731865 0.01779482 0.02504908
0003e0 53 0a 11 3d 6a a7 3e bc 50 5b 39 3d d8 24 69 3c
       0.035410237 -0.011636594 0.045253098 0.014229976
0003f0 05 69 58 bd 77 d1 b9 3b c6 7c 08 bd 31 1e e7 bb
       -0.05283453 0.005670722 -0.03332212 -0.0070531596
